dqn/exercise/double_DQN/prio_replay_sumtree/duelingDQN/checkpoint.pth (torch_old, 87769 bytes, 9 tensors)

fcl1.weight f4 [100, 8]
0.0582175 -0.011684486 -0.19605641 -0.73410714 -0.5874577 0.49797708 -0.43154666 0.65415615
-0.5636241 -1.7058944 0.5041929 0.110811226 -0.8556842 -0.4709936 0.16525315 -0.6760732
0.19612934 -0.13787818 -0.77064717 -0.33710042 0.14110422 0.122983575 0.12974195 -0.13828774
-0.09212857 -0.7952137 0.49036148 -0.73335725 -0.7489892 -0.52409047 0.14615306 0.4695184
-0.13140105 -0.70849645 -0.87052333 0.33668458 0.3458914 0.42295 0.7455379 0.044514142
-0.30057994 -2.2326381 0.36214128 -0.9253305 -0.99650604 -0.22393794 0.04574208 0.4446142
-0.005717537 -0.40886062 1.0031819 0.9672712 -0.023336954 0.19742307 0.7706436 -1.0467128
-0.23446918 -0.8280484 -0.39719996 -1.1491632 0.26072145 0.43717784 -0.017064482 0.32218212
0.3011613 -0.011861085 0.053544167 -0.20913833 0.55652446 0.96363866 -0.2144766 -0.87935966
0.43111274 -0.7032292 0.92123884 0.938002 -0.26848018 -0.5147619 -0.26971853 0.6993228
-0.59711415 0.23021038 0.388715 -0.93345535 -0.31815246 0.5189328 -0.100561395 -0.2799231
0.042517953 -0.28042042 -0.575637 0.5503598 1.1651859 0.47388655 -0.3783894 0.10578884
0.35136637 0.30877376 -0.2986138 0.04812003 1.5843145 0.37204966 -0.03272696 -0.18226051
-0.8598054 -0.7403807 -0.8724603 -0.93892765 -0.35105473 0.14942797 0.17576216 0.092411384
-0.15792874 1.0826901 -0.08833491 0.3718873 0.2116815 1.4818878 -0.17715064 0.11638869
0.11967584 0.5653333 0.08544605 0.14588276 -1.1113834 -1.037608 -0.30404815 -0.75662094
0.852989 -0.40467557 0.8471797 -0.39213717 -1.1928083 0.039628554 0.19326083 0.04001858
0.10897803 0.2679417 0.35914403 0.5335038 0.37619516 0.42537472 -0.01374208 -0.41169146
-1.1267788 0.2032519 0.9143119 -0.5415311 -1.4083209 -0.46599752 -0.3324935 -0.8941261
-0.12620147 -0.12581591 0.6267027 -0.8452112 1.0850726 -0.1499914 0.15272172 -0.8435388
0.16539326 -0.181653 -0.7787597 -1.2650644 -0.5731856 -0.06470526 -0.10507983 0.17700678
-0.33602813 -0.77908707 -0.0914137 0.020656588 1.2705737 -0.1612924 -0.23200239 0.41113362
-0.64157206 -1.1743591 0.34005266 -0.73114645 -0.5756704 -0.42520374 0.26802525 0.17436951
-0.101551004 0.22154821 -0.62171257 0.40516406 0.27315328 0.365742 0.81220096 0.27854759
-0.4505833 0.06951844 -1.3716234 -0.5494697 -0.513866 0.19867608 0.14008373 -0.022834517
0.05974413 0.41355255 -0.616637 -0.4186331 0.2068622 0.10914205 0.034482602 0.37249857
0.25732672 -1.2642925 -0.120981745 -0.34657067 0.22446719 -0.2948721 0.504477 -0.21628334
0.5985617 0.30611438 0.39443624 -0.2762431 0.58567196 0.49687102 -0.0889111 0.6262223
-0.16451962 -0.3650267 -0.34068677 -0.775488 -0.24184278 -0.103483975 -0.100440316 0.61133605
-0.022722002 0.24102129 1.0696647 -0.6994556 0.60876006 -0.78824043 0.111607 0.124728575
-0.38007754 0.53724307 -0.08796711 0.3396582 0.24125709 -0.81117845 -0.042769387 -0.79835916
0.35430902 -0.16756415 -0.15670937 -0.44214198 0.5883741 -0.2679946 -0.050678946 -0.69522464
00000000: 7975 6e3d 4970 3fbc 03c3 48be 72ee 3bbf
00000010: a163 16bf daf6 fe3e aff3 dcbe c776 273f
00000020: ab49 10bf bf5a dabf c912 013f fff0 e23d
00000030: 1f0e 5bbf 1326 f1be 1f38 293e 2213 2dbf
00000040: 21d6 483e f02f 0dbe 2249 45bf 6d98 acbe
00000050: a07d 103e d0de fb3d 13db 043e 4d9b 0dbe
00000060: e7ad bcbd 2093 4bbf a910 fb3e 4dbd 3bbf
00000070: c2bd 3fbf cb2a 06bf 26a9 153e b764 f03e
00000080: ff8d 06be 0660 35bf 9eda 5ebf ec61 ac3e
00000090: ad18 b13e e78c d83e 92db 3e3f 7654 363d
000000a0: 9de5 99be 8be3 0ec0 956a b93e 76e2 6cbf
000000b0: 051b 7fbf fd4f 65be 0c5c 3b3d 79a4 e33e
000000c0: 2d5a bbbb 2e56 d1be 4468 803f 169f 773f
000000d0: 242d bfbc 4629 4a3e e648 453f affa 85bf
000000e0: b018 70be fbfa 53bf cb5d cbbe c817 93bf
000000f0: 487d 853e c6d5 df3e d0ca 8bbc 0ef5 a43e
00000100: d031 9a3e ff54 42bc 2151 5b3d 5c28 56be
00000110: 6378 0e3f 06b1 763f c19f 5bbe b71d 61bf
00000120: cfba dc3e d406 34bf 4fd6 6b3f e620 703f
00000130: 3c76 89be 70c7 03bf 8c18 8abe d206 333f
00000140: 79dc 18bf 45bc 6b3e a705 c73e eef6 6ebf
00000150: e1e4 a2be c8d8 043f 22f3 cdbd 1552 8fbe
00000160: 4e27 2e3d 4493 8fbe f25c 13bf 61e4 0c3f
00000170: d024 953f 42a1 f23e 41bc c1be d2a7 d83d
00000180: 4be6 b33e 9817 9e3e e8e3 98be 8219 453d
00000190: d1ca ca3f 4b7d be3e b40c 06bd 80a2 3abe
000001a0: 351c 5cbf 9789 3dbf 8f59 5fbf 905d 70bf
000001b0: 72bd b3be a503 193e fffa 333e 2e42 bd3d
000001c0: 12b8 21be 9795 8a3f efe8 b4bd 0368 be3e
000001d0: 09c3 583e 80ae bd3f fa66 35be 325d ee3d
000001e0: 9b18 f53d afb9 103f 57fe ae3d 4a62 153e
000001f0: d041 8ebf 57d0 84bf 33ac 9bbe e9b1 41bf
00000200: 7d5d 5a3f a331 cfbe c5e0 583f 34c6 c8be
00000210: f1ad 98bf 8d51 223d 2be6 453e 86ea 233d
00000220: e02f df3d a82f 893e bae1 b73e b493 083f
00000230: a79c c03e b7ca d93e 7626 61bc 39c9 d2be
00000240: 4a3a 90bf 4421 503e 5810 6a3f c8a1 0abf
00000250: dc43 b4bf 3a97 eebe 973c aabe 73e5 64bf
00000260: f53a 01be e3d5 00be 976f 203f c35f 58bf
00000270: a9e3 8a3f 5897 19be 1563 1c3e 29f2 57bf
00000280: da5c 293e 3e03 3abe cc5c 47bf a1ed a1bf
00000290: 4bbc 12bf 3184 84bd 1834 d7bd 4441 353e
000002a0: e10b acbe 4072 47bf 1b37 bbbd 0138 a93c
000002b0: 29a2 a23f d629 25be 0992 6dbe 1b80 d23e
000002c0: 113e 24bf 6651 96bf 621b ae3e 6a2c 3bbf
000002d0: 235f 13bf 4eb4 d9be 9b3a 893e ec8d 323e
000002e0: f9f9 cfbd 89dd 623e 8e28 1fbf aa71 cf3e
000002f0: bfda 8b3e 8942 bb3e 67ec 4f3f ca9d 8e3e
00000300: dbb2 e6be af5f 8e3d 5b91 afbf 0caa 0cbf
00000310: b98c 03bf be71 4b3e 1c72 0f3e 740f bbbc
00000320: 43b6 743d 29bd d33e ecdb 1dbf 1457 d6be
00000330: afd3 533e de85 df3d a13d 0d3d 22b8 be3e
00000340: 54c0 833e 56d4 a1bf 47c5 f7bd b671 b1be
00000350: bada 653e 7af9 96be 6825 013f 6179 5dbe
00000360: 573b 193f 06bb 9c3e 8cf3 c93e bc6f 8dbe
00000370: 99ee 153f e165 fe3e 0617 b6bd 1b50 203f
00000380: d577 28be c8e4 babe 7f6e aebe 6286 46bf
00000390: a2a5 77be 68ef d3bd a7b3 cdbd 8580 1c3f
000003a0: 7e23 babc 49ce 763e c6ea 883f 860f 33bf
000003b0: b3d7 1b3f 20ca 49bf 3692 e43d b271 ff3d
000003c0: 8699 c2be c388 093f 1a28 b4bd aee7 ad3e
000003d0: 190c 773e 64a9 4fbf f42e 2fbd 4461 4cbf
000003e0: fe67 b53e f095 2bbe 6c78 20be 6f60 e2be
000003f0: af9f 163f 9736 89be ba94 4fbd 3efa 31bf

fcl1.bias f4 [100]
-0.025733802 -0.58011514 0.2117345 -0.10886069 -0.49851966 0.24337673 0.2734045 -0.31956503
-0.056884304 0.045644067 -0.24702276 -0.93604285 -0.289546 -0.32892165 0.058043726 -0.005657967
-0.2825239 1.2059184 -0.20939876 0.05961005 0.04188464 -0.38108423 0.2599293 -0.20686561
-0.14720874 -0.56354064 0.06543745 -0.4075229 -0.08807675 -0.301953 0.5971577 0.31687528
0.16674334 -0.82772684 -0.81007606 0.6223081 0.5913349 -0.30203104 -0.25218445 0.040883824
-0.14670043 -0.2649323 -0.3385745 0.40596446 0.2963448 -0.017855698 0.7856734 0.22123906
-0.024290767 0.060232513 0.5233311 0.6590836 0.2604223 -0.64177513 0.083924316 -0.14069544
0.2409568 -0.11756394 0.35238752 -0.41942754 0.47339314 0.19108899 0.61826324 0.41453353
0.57795113 -0.3205647 -0.055421162 0.105902925 -0.09290492 -0.08701791 0.28922516 -0.09032181
-0.21768482 0.07967081 0.39306146 0.39148265 0.08545439 0.9849095 -0.8388108 0.13209864
-0.42086044 -0.77800643 -0.49508107 0.49755296 0.82527286 0.2615517 0.23068598 -0.2616713
0.68277186 -0.07001339 -0.5585073 0.5837295 -0.2002552 0.4445624 -0.4056189 0.09504057
-0.46665072 -0.29823324 -0.104992494 -0.11628161
00000000: b2cf d2bc 6d82 14bf eed0 583e 5af2 debd
00000010: f83d ffbe c037 793e adfb 8b3e 079e a3be
00000020: 84ff 68bd 46f5 3a3d 89f3 7cbe 81a0 6fbf
00000030: 603f 94be 6b68 a8be 42bf 6d3d 7866 b9bb
00000040: f9a6 90be 895b 9a3f a16c 56be ab29 743d
00000050: 3a8f 2b3d 791d c3be 7415 853e 94d4 53be
00000060: e3bd 16be 3344 10bf 1204 863d d7a6 d0be
00000070: 9561 b4bd 9599 9abe 54df 183f 7a3d a23e
00000080: c4be 2a3e e8e5 53bf 2561 4fbf 954f 1f3f
00000090: b961 173f d0a3 9abe 521e 81be cc75 273d
000000a0: a338 16be 35a5 87be a359 adbe 93da cf3e
000000b0: 81ba 973e 1d46 92bc e421 493f 7e8c 623e
000000c0: 6efd c6bc 5eb6 763d 07f9 053f b4b9 283f
000000d0: 1256 853e 604b 24bf 83e0 ab3d 7712 10be
000000e0: 61bd 763e 5dc5 f0bd 236c b43e 35bf d6be
000000f0: 9660 f23e d5ac 433e 8046 1e3f bd3d d43e
00000100: 9bf4 133f 0e21 a4be 4d01 63bd a2e3 d83d
00000110: ef44 bebd 7236 b2bd 5215 943e a4fa b8bd
00000120: c5e8 5ebe 732a a33d 5a3f c93e 6a70 c83e
00000130: b602 af3d 0723 7c3f 4ebc 56bf de44 073e
00000140: 057b d7be 6e2b 47bf 447b fdbe 43bf fe3e
00000150: 1545 533f 1bea 853e f238 6c3e c8f9 85be
00000160: 23ca 2e3f 2e63 8fbd 56fa 0ebf 4c6f 153f
00000170: b30f 4dbe af9d e33e 48ad cfbe a1a4 c23d
00000180: d8ec eebe 07b2 98be 4e06 d7bd 0e25 eebd

fcl2.weight f4 [100, 100]
0.017783625 0.057980873 0.023402492 0.08416112 0.089653656 -0.059932265 -0.12153516 -0.0682993
0.017008185 -0.09630697 -0.008211677 0.035102732 -0.038967885 0.011515944 0.021204658 -0.0038519453
-0.087693945 -0.098424904 0.04407496 -0.05105389 -0.0081286235 -0.099011645 -0.11320961 -0.0046249134
0.030945662 -0.15385972 -0.026222134 -0.06767806 0.0042679505 -0.038982242 0.08420637 -0.098599195
-0.1570388 0.06761021 0.09164404 0.061267994 0.057824943 -0.14254794 0.07238137 -0.09441471
0.04665619 -0.08996214 -0.0754432 -0.03457406 -0.06891446 -0.015822291 -0.13542278 -0.16976097
0.0063859536 -0.09917622 -0.06392766 -0.10634283 -0.08175685 -0.09904231 0.012836225 0.050824217
-0.025224892 -0.065803155 -0.035244342 0.0049339253 -0.074341096 -0.051842015 0.09105439 -0.098360635
-0.17433064 0.027494358 0.075302236 -0.060848977 0.0054413476 0.036973875 0.030831642 -0.024572562
0.099772595 0.06514727 -0.12417009 0.0086436495 -0.007149002 0.08638362 -0.09949329 -0.037645783
-0.08624476 -0.097922124 -0.019583983 -0.07723 -0.02010321 0.033655718 -0.1301545 -0.008485101
0.012806192 0.063476086 0.08624151 0.020394482 -0.0032908055 -0.101158515 0.03722821 -0.031989887
0.12321518 -0.045720596 -0.010236754 -0.0858265 -0.023761686 0.061145563 0.14304844 0.1247046
-0.03975216 -0.016630352 0.8743338 0.03833633 0.2881425 -0.7401546 -0.6406913 0.77661204
-0.30258226 0.052520044 0.44750434 -1.2764134 0.2712646 0.10017447 -1.4627252 -0.13929771
0.27365643 -0.02468565 0.049073737 0.13500203 0.5732064 -0.6445756 0.017352115 0.03659122
0.080812536 0.87580645 -0.5028212 -0.39765233 0.2671799 0.7112984 0.71324265 0.056098465
0.06558587 -0.23354661 -0.017698605 0.6048021 -0.24103831 -0.07953536 0.73405725 -0.089007325
-0.6269325 0.47482896 0.30685517 0.3938666 -0.13300213 0.20059662 -0.48905042 0.06756877
0.16988263 -0.050192427 -0.6666773 0.12500022 0.21240395 -0.4442881 0.44327277 -0.2999196
-0.21291101 0.23540926 -0.030928912 -0.3224718 0.14895728 -0.15304893 -1.3894002 0.2444291
-0.30973908 -0.18737675 0.3058117 -0.81205803 -1.4370968 0.4615581 0.22192746 -0.12829395
-0.007119335 -0.9725727 0.063239746 0.450895 0.40539828 -1.5600095 0.7299024 -0.4802133
0.31178665 -0.5615577 -0.02378011 -1.5438915 -0.16928005 -0.46666574 -1.0804027 -0.009249009
-0.30508447 -0.40225855 -0.22507833 0.37672883 -1.1011181 -0.008984534 0.6461611 0.23731571
-0.020983437 -0.019990422 0.066837974 0.07379872 -0.07977463 0.03445325 -0.07843826 -0.09713159
0.03056819 -0.0105301505 -0.046650637 -0.09645038 -0.050713357 0.021400543 -0.104556344 -0.09714655
0.012687251 -0.08403999 -0.08760803 -0.03852862 -0.028099855 -0.10286996 -0.066772774 -0.0054429886
-0.09429717 -0.026055189 -0.07656915 -0.08132349 0.027303346 -0.07696897 -0.07578342 0.04502856
0.0066969963 0.091071285 -0.026729546 -0.06030137 -0.021254295 -0.011493833 0.06426474 -0.099608
-0.01911944 0.03223539 -0.055068303 -0.05081408 0.03632692 -0.09581852 0.011696113 -0.08941843
0.049706183 -0.0975038 0.049480632 -0.10666299 -0.096056245 -0.010526036 0.07879884 -0.08563956
00000000: f7ae 913c 5a7d 6d3d 95b6 bf3c aa5c ac3d
00000010: 569c b73d 897b 75bd 6de7 f8bd 81e0 8bbd
00000020: c054 8b3c 973c c5bd 458a 06bc e2c7 0f3d
00000030: ca9c 1fbd 5fad 3c3c 64b5 ad3c eb70 7cbb
00000040: e298 b3bd ff92 c9bd f287 343d e21d 51bd
00000050: eb2d 05bc 9ec6 cabd 71da e7bd 968c 97bb
00000060: c281 fd3c 678d 1dbe cdcf d6bc cb9a 8abd
00000070: 2ada 8b3b d8ab 1fbd 6474 ac3d 60ee c9bd
00000080: c7ce 20be 3977 8a3d dfaf bb3d 26f4 7a3d
00000090: d9d9 6c3d 16f8 11be af3c 943d 805c c1bd
000000a0: 901a 3f3d 123e b8bd f781 9abd 889d 0dbd
000000b0: 0623 8dbd c09d 81bc 45ac 0abe d2d5 2dbe
000000c0: 4341 d13b e71c cbbd 81ec 82bd 45ca d9bd
000000d0: 2370 a7bd b2d6 cabd 084f 523c 0e2d 503d
000000e0: 6fa4 cebc cec3 86bd 5f5c 10bd c4ac a13b
000000f0: 2540 98bd 4b58 54bd b97a ba3d 4d71 c9bd
00000100: bb83 32be d93b e13c 0f38 9a3d c73c 79bd
00000110: 554d b23b eb71 173d a492 fc3c 664c c9bc
00000120: 9355 cc3d ef6b 853d e34c febd 189e 0d3c
00000130: 2d42 eabb e5e9 b03d 23c3 cbbd 7732 1abd
00000140: 18a1 b0bd 658b c8bd 976e a0bc c32a 9ebd
00000150: 7daf a4bc 94da 093d 3947 05be 1805 0bbc
00000160: 10d1 513c c0ff 813d 649f b03d 5412 a73c
00000170: 8eaa 57bb 322c cfbd 9c7c 183d d407 03bd
00000180: 3e58 fc3d 8545 3bbd 0fb8 27bc cec5 afbd
00000190: dea7 c2bc c573 7a3d 4a7b 123e 2065 ff3d
000001a0: 29d3 22bd 603c 88bc 57d4 5f3f 8e06 1d3d
000001b0: 6a87 933e c67a 3dbf 5804 24bf 0cd0 463f
000001c0: 10ec 9abe 421f 573d 4a1f e53e 8461 a3bf
000001d0: 32e3 8a3e 4628 cd3d 943a bbbf 0fa4 0ebe
000001e0: b21c 8c3e 8f39 cabc 8b01 493d f93d 0a3e
000001f0: a8bd 123f e802 25bf 0626 8e3c ade0 153d
00000200: 0b81 a53d da34 603f e4b8 00bf 1699 cbbe
00000210: cecb 883e a717 363f 1297 363f 81c7 653d
00000220: e251 863d d826 6fbe aafc 90bc 4fd4 1a3f
00000230: bfd2 76be 6fe3 a2bd 2deb 3b3f 7949 b6bd
00000240: a67e 20bf c81c f33e 1f1c 9d3e e2a8 c93e
00000250: b631 08be 3369 4d3e d164 fabe 7f61 8a3d
00000260: b6f5 2d3e 9396 4dbd 5dab 2abf 0f00 003e
00000270: 6c80 593e bb79 e3be a6f4 e23e 108f 99be
00000280: 5805 5abe 200f 713e a15e fdbc 061b a5be
00000290: 4288 183e dcb8 1cbe ded7 b1bf 9f4b 7a3e
000002a0: 1f96 9ebe b1df 3fbe 5a93 9c3e 09e3 4fbf
000002b0: caf2 b7bf 5851 ec3e f440 633e 7d5f 03be
000002c0: 4f49 e9bb 86fa 78bf d783 813d b6db e63e
000002d0: 5d90 cf3e 64ae c7bf e2da 3a3f 85de f5be
000002e0: 80a2 9f3e 3fc2 0fbf 81ce c2bc 3d9e c5bf
000002f0: c057 2dbe d0ee eebe a34a 8abf 2889 17bc
00000300: 0834 9cbe d5f4 cdbe ef7a 66be 9ae2 c03e
00000310: 70f1 8cbf de33 13bc d06a 253f e402 733e
00000320: 75e5 abbc f4c2 a3bc 59e2 883d c923 973d
00000330: e260 a3bd da1e 0d3d 3da4 a0bd edec c6bd
00000340: 246a fa3c a786 2cbc bd14 3fbd c787 c5bd
00000350: cfb8 4fbd 3150 af3c a321 d6bd c5f4 c6bd
00000360: 30de 4f3c 291d acbd d76b b3bd 30d0 1dbd
00000370: ab31 e6bc 7cad d2bd 2ac0 88bd 195b b2bb
00000380: e01e c1bd b171 d5bc 49d0 9cbd ee8c a6bd
00000390: 44ab df3c e8a1 9dbd 5634 9bbd de6f 383d
000003a0: 7a72 db3b 9583 ba3d ecf7 dabc 92fe 76bd
000003b0: 7d1d aebc a150 3cbc 3b9d 833d 47ff cbbd
000003c0: 5fa0 9cbc 4209 043d 4d8f 61bd 6d22 50bd
000003d0: 89cb 143d 803c c4bd 0ea1 3f3c 0321 b7bd
000003e0: b698 4b3d 13b0 c7bd 34ac 4a3d 2072 dabd
000003f0: 23b9 c4bd 6575 2cbc 4961 a13d cb63 afbd

fcl2.bias f4 [100]
-0.003452809 0.23408414 -0.052119527 0.109758064 -0.17069234 0.44513178 0.009447891 0.2953384
0.18692496 0.30639693 0.120485246 -0.02468848 0.32438168 -0.07168886 -0.0049431613 -0.026881682
0.04931749 0.28060138 -0.055941697 -0.09277923 0.10998502 0.18167993 -0.00802205 0.040977076
0.16193298 -0.0035465527 -0.022544188 0.25016072 0.036435697 0.23674466 -0.14758033 0.054726426
0.30343902 0.3974681 0.05367718 0.27847794 -0.17824893 0.26491767 0.2623485 0.054070067
0.054382607 0.22463079 0.12074233 0.33465135 0.3372695 0.024343558 -0.12593575 0.6735285
-0.12214138 -0.12300412 -0.12287064 0.017377777 0.30481553 0.42409083 -0.012989832 0.32564592
0.14012186 -0.03805891 -0.12910916 -0.1191053 -0.12982878 -0.009989982 0.4602523 0.25474134
0.06471626 0.17909534 0.29087952 -0.075021796 0.03349622 0.012663437 0.24628063 0.10220792
-0.114477105 -0.0978812 -0.03578144 -0.13348117 0.31513727 0.30540338 0.011576837 0.25352845
0.030322846 0.12702717 -1.179473 0.35996917 0.17797053 0.36082256 0.15400778 0.020815006
0.2914346 -0.020352414 -0.0028969778 -0.00658506 0.35660043 -0.017889708 -0.08502071 0.27756482
0.43218803 0.20335564 0.025165962 0.3809609
00000000: 8648 62bb c1b3 6f3e 497b 55bd d6c8 e03d
00000010: f9c9 2ebe 50e8 e33e 54cb 1a3c 9836 973e
00000020: 4269 3f3e 0fe0 9c3e f8c0 f63d 7f3f cabc
00000030: 5b15 a63e 9cd1 92bd 3efa a1bb f936 dcbc
00000040: 2301 4a3d fcaa 8f3e 1f23 65bd 0903 bebd
00000050: d33f e13d 4e0a 3a3e eb6e 03bc 94d7 273d
00000060: c2d1 253e 486d 68bb 97ae b8bc 1115 803e
00000070: 993d 153d 316d 723e 4c1f 17be d128 603d
00000080: 5c5c 9b3e f080 cb3e 9adc 5b3d a994 8e3e
00000090: e386 36be 4aa3 873e 8b52 863e 9378 5d3d
000000a0: 4cc0 5e3d 9d05 663e c147 f73d 6c57 ab3e
000000b0: 97ae ac3e 246c c73c 4df5 00be 5d6c 2c3f
000000c0: 4325 fabd 96e9 fbbd 9aa3 fbbd d75b 8e3c
000000d0: c810 9c3e 6f22 d93e 4ed3 54bc 10bb a63e
000000e0: 1b7c 0f3e a9e3 1bbd 3135 04be 7bed f3bd
000000f0: d6f1 04be 05ad 23bc 31a6 eb3e 756d 823e
00000100: f589 843d c564 373e 29ee 943e 07a5 99bd
00000110: 5533 093d 4e7a 4f3c fd30 7c3e 6352 d13d
00000120: f972 eabd f075 c8bd 8f8f 12bd 4aaf 08be
00000130: ac59 a13e d55d 9c3e c6ac 3d3c 7bce 813e
00000140: 9e67 f83c 6913 023e f9f8 96bf e14d b83e
00000150: e83d 363e bcbd b83e 37b4 1d3e 3b84 aa3c
00000160: ea36 953e 1bba a6bc 39db 3dbb 7dc7 d7bb
00000170: 5594 b63e 708d 92bc 571f aebd fa1c 8e3e
00000180: c047 dd3e 763c 503e d928 ce3c 4f0d c33e

fcl3.weight f4 [1, 100]
-0.01030173 -0.7152655 0.05962266 1.7819486 -0.002168421 -0.8437014 2.9258838 -0.8617371
-0.9317205 -2.928425 -1.3569204 -0.06342972 -0.42292622 0.055677373 0.016002107 0.013866648
-0.018425696 -0.44406664 -0.01654537 0.08656657 -0.9318598 -0.7871585 0.007283283 0.054636657
-0.7658573 -0.031384174 0.08505464 -0.51084554 -0.008903703 -0.93437976 0.019545393 2.959761
-0.9654327 -2.1293452 0.0108892415 -0.95080924 1.7586209 -0.89537364 -0.8010959 1.3519926
1.5233303 2.403794 2.2463293 -0.95220894 -1.2334931 -0.022124482 2.107508 1.4574474
-0.048163775 -0.0007804755 0.037700713 0.0058958833 -2.295021 -1.7834101 0.057595592 -0.7566466
-0.80892193 0.01057189 0.05193843 0.0134047335 -0.010163124 0.017644094 2.7237146 -1.1379819
0.028692173 -0.5157132 2.34199 0.023071855 0.007757972 0.0048145503 -0.5937634 0.8508441
-0.002769661 1.7469363 0.03529244 -0.007691743 2.0331485 -1.2446411 -0.02789544 -0.8687209
-0.050923392 -0.7957519 2.478913 -1.1680404 -0.7187875 -1.2847816 -0.9730871 -1.110007
-0.8787985 -0.013462009 0.01661953 0.04871135 -2.3195968 0.04177487 0.051660053 -1.0336914
-1.0875368 -0.983188 3.0687008 -0.7985021
00000000: 96c8 28bc a41b 37bf e436 743d e416 e43f
00000010: 111c 0ebb d1fc 57bf ae41 3b40 cd9a 5cbf
00000020: 3c85 6ebf 516b 3bc0 91af adbf 71e7 81bd
00000030: c989 d8be f50d 643d da16 833c f030 633c
00000040: 7cf1 96bc b45c e3be 288a 87bc d049 b13d
00000050: 5d8e 6ebf 3883 49bf 9ba8 ee3b b0ca 5f3d
00000060: 390f 44bf b18c 00bd 2131 ae3d c6c6 02bf
00000070: d6e0 11bc 8333 6fbf a91d a03c b96c 3d40
00000080: 9926 77bf 3147 08c0 ca68 323c 3c68 73bf
00000090: 7d1a e13f 3537 65bf 9f14 4dbf 180e ad3f
000000a0: 7dfc c23f c3d7 1940 dcc3 0f40 f7c3 73bf
000000b0: 1ae3 9dbf 673e b5bc 69e1 0640 a38d ba3f
000000c0: 6147 45bd d398 4cba 106c 1a3d 4132 c13b
000000d0: a0e1 12c0 c846 e4bf 5be9 6b3d 97b3 41bf
000000e0: 8215 4fbf b835 2d3c 64bd 543d 879f 5b3c
000000f0: 3b83 26bc 598a 903c 5751 2e40 64a9 91bf
00000100: d90b eb3c c805 04bf 2ae3 1540 3001 bd3c
00000110: 9636 fe3b 60c3 9d3b e100 18bf ebd0 593f
00000120: 3383 35bb 9c9b df3f ce8e 103d 040b fcbb
00000130: 1b1f 0240 6650 9fbf fa84 e4bc 7e64 5ebf
00000140: 0c95 50bd 66b6 4bbf 83a6 1e40 5982 95bf
00000150: 7502 38bf b973 a4bf 3c1c 79bf b614 8ebf
00000160: f0f8 60bf c28f 5cbc ae25 883c 8d85 473d
00000170: 4674 14c0 201c 2b3d 7e99 533d 0050 84bf
00000180: 6834 8bbf 35b2 7bbf 9865 4440 a26a 4cbf

fcl4.weight f4 [100, 100]
0.41466513 -1.1745182 0.44213727 0.47871575 0.6682361 0.32547322 -0.21619077 0.4455694
-1.7225496 -1.2337456 0.49873576 -2.3590505 0.40103483 0.53592587 -1.1180222 0.15106311
-0.49981728 -0.10065332 0.29332885 0.3037768 0.42126656 0.51771176 0.11653252 0.3402637
0.69161755 0.49620274 0.31995368 0.10584599 0.39109153 0.54839027 0.14235573 0.0328559
0.2743906 -2.1048124 -0.72332096 -0.35968468 -0.17105487 0.13406122 -1.533184 -0.4456077
0.23991646 0.51776814 -0.7395674 -0.19300191 -0.4515105 -0.9114746 -0.022260373 -0.15128563
-1.6720655 0.08383573 -1.0753207 0.21807638 -0.2740281 0.78951806 -0.33213454 -0.6470061
0.016768252 0.21424031 0.078276366 0.42946103 -0.1459374 0.41778865 -2.5177648 -0.50692123
0.26789945 0.6981045 -0.11614349 0.62503463 -0.6381833 0.21469122 -0.82957965 -0.8406891
-0.2834271 -1.7997303 0.59734756 -0.05537662 0.2022141 -0.4282477 -0.31306052 0.09292129
0.29697588 0.20684241 0.24677731 -1.1113954 -0.42634106 -0.8508902 -0.15813175 -1.3924758
-0.50709665 0.07211462 0.074384026 -0.8065806 0.5969457 0.10280894 -0.77582926 -0.2171872
0.50957996 0.5312859 0.67960036 0.7748654 -0.0118292365 -0.008184279 -0.110951625 -0.045911994
-0.030241078 -0.015544274 0.08399349 0.020316955 0.008508872 0.029525224 -0.063761435 -0.041878823
-0.18431905 0.0032489279 0.05355039 0.020726092 0.07650978 -0.17709433 -0.022071855 -0.19001716
0.0028642428 -0.029863268 -0.13425387 0.05336097 0.014953951 -0.10863809 -0.0819153 -0.019876743
-0.07926404 0.013938836 -0.07529839 -0.07640637 -0.021447081 -0.06859359 -0.02269579 0.07244836
-0.10400219 0.016629433 0.06211398 0.07021244 -0.10549942 -0.07956016 0.013477685 -0.078692414
0.015833156 -0.10653001 -0.053891618 -0.018802676 -0.035960402 -0.051991325 0.08890592 -0.08314468
-0.023744185 -0.027850755 -0.21496326 0.03626954 0.029889185 -0.0048344904 0.027646694 0.019015621
-0.010416633 -0.13574535 0.10713643 -0.02766603 -0.076155536 -0.15692085 -0.0035528287 -0.04122048
-0.2235457 -0.028222218 -0.012613313 -0.017538223 -0.08713124 0.070049964 -0.115657985 0.0639992
-0.09386316 -0.05972112 -0.05997613 0.043413095 0.12174537 -0.12949035 -0.035935055 -0.17457733
-0.074456275 -0.1253303 0.005230994 0.006433322 0.051961396 -0.1295546 -0.116748385 -0.031028617
-0.05996739 -0.017734153 -0.12862216 0.05170713 -0.08367197 -0.044065278 -0.0024188417 -0.14785908
0.014287474 0.05003929 -0.10945006 -0.018126776 -0.08421461 0.025962422 -0.04928464 -0.03071565
0.03005215 -0.02140509 0.015215467 -0.037715103 -0.13823609 0.0146004 0.032959756 0.037485227
-0.04313779 0.038670518 -0.062128555 0.054740928 -0.05694399 -0.06290468 -0.032061324 0.031552427
0.008288545 -0.102238744 -0.013436033 0.027082516 -0.074356616 -0.027537638 0.055874225 -0.026533328
0.026489174 -0.08511064 -0.06705963 0.011461387 -0.045257736 -0.08668358 -0.02820084 -0.047646213
0.0011964543 -0.0061077955 -0.10843598 0.005312229 0.02179094 0.06434559 -0.10957714 -0.12905224
-0.052819405 0.02301351 0.04578229 -0.12736827 0.08220632 0.08509975 -0.046576936 0.004132598
00000000: fd4e d43e 9d56 96bf d15f e23e 3b1a f53e
00000010: 8511 2b3f 6da4 a63e 1d61 5dbe ac21 e43e
00000020: 817c dcbf 60eb 9dbf 4b5a ff3e affa 16c0
00000030: 7054 cd3e 7032 093f 5a1b 8fbf 4ab0 1a3e
00000040: 0de8 ffbe 5423 cebd 332f 963e a288 9b3e
00000050: 40b0 d73e c288 043f 9aa8 ee3d 0b37 ae3e
00000060: d90d 313f 490e fe3e f8d0 a33e c8c5 d83d
00000070: 263d c83e 4e63 0c3f b3c5 113e e893 063d
00000080: ed7c 8c3e 3fb5 06c0 902b 39bf 9728 b8be
00000090: 0229 2fbe 5847 093e 603f c4bf b126 e4be
000000a0: a9ac 753e 748c 043f 4a54 3dbf 4ba2 45be
000000b0: 622c e7be 6656 69bf 635b b6bc 9fea 1abe
000000c0: 3e06 d6bf 11b2 ab3d 1ca4 89bf 6a4f 5f3e
000000d0: 694d 8cbe db1d 4a3f 8a0d aabe 31a2 25bf
000000e0: 935d 893c d061 5b3e 5c4f a03d 51e2 db3e
000000f0: 9d70 15be 65e8 d53e 0f23 21c0 97c5 01bf
00000100: 1e2a 893e fab6 323f a3dc edbd 4502 203f
00000110: fb5f 23bf 04d8 5b3e 555f 54bf 6737 57bf
00000120: 5b1d 91be 905d e6bf c5eb 183f 98d2 62bd
00000130: 3711 4f3e 4843 dbbe 7849 a0be 844d be3d
00000140: 390d 983e 7fce 533e 31b3 7c3e 3442 8ebf
00000150: 6049 dabe f1d3 59bf 4aed 21be a63c b2bf
00000160: 16d1 01bf d4b0 933d a756 983d 117c 4ebf
00000170: 6fd1 183f 7e8d d23d bf9c 46bf 5266 5ebe
00000180: d573 023f 5a02 083f 4afa 2d3f 945d 463f
00000190: 6acf 41bc 5b17 06bc 9b3a e3bd 370e 3cbd
000001a0: 23bc f7bc 69ad 7ebc c704 ac3d be6f a63c
000001b0: cc68 0b3c e2de f13c 5b95 82bd 2189 2bbd
000001c0: 22be 3cbe f7eb 543b a757 5b3d c4c9 a93c
000001d0: 29b1 9c3d 3758 35be 09d0 b4bc dc93 42be
000001e0: 05b6 3b3b d0a3 f4bc d979 09be 0891 5a3d
000001f0: 6b01 753c a67d debd 35c3 a7bd 8dd4 a2bc
00000200: 2f55 a2bd b75f 643c 0b36 9abd f17a 9cbd
00000210: cab1 afbc cc7a 8cbd 85ec b9bc ce5f 943d
00000220: 1aff d4bd 733a 883c 3b6b 7e3d 8acb 8f3d
00000230: 1410 d8bd 70f0 a2bd 82d1 5c3c 7d29 a1bd
00000240: 89b4 813c 682c dabd 75bd 5cbd 1208 9abc
00000250: 374b 13bd dbf4 54bd 4f14 b63d c247 aabd
00000260: 2a83 c2bc 4427 e4bc 541f 5cbe 5f8f 143d
00000270: 2ada f43c a56a 9ebb 527b e23c a6c6 9b3c
00000280: 87aa 2abc d400 0bbe 586a db3d dfa3 e2bc
00000290: 6ff7 9bbd dcaf 20be 93d6 68bb ced6 28bd
000002a0: 2ae9 64be 4832 e7bc 12a8 4ebc 52ac 8fbc
000002b0: dd71 b2bd 5b76 8f3d 18de ecbd 0312 833d
000002c0: 543b c0bd 229e 74bd 88a9 75bd eed1 313d
000002d0: a355 f93d 1e99 04be a330 13bd 66c4 32be
000002e0: 887c 98bd 9656 00be c268 ab3b 9ece d23b
000002f0: 79d5 543d f6a9 04be c719 efbd ba2f febc
00000300: 5ea0 75bd 3747 91bc 87b5 03be dbca 533d
00000310: 365c abbd cb7d 34bd 6e85 1ebb 5f68 17be
00000320: 0216 6a3c 00f6 4c3d 5a27 e0bd 9b7e 94bc
00000330: b678 acbd 25af d43c b1de 49bd 639f fbbc
00000340: ed2f f63c ba59 afbc 4b4a 793c 277b 1abd
00000350: c38d 0dbe 8436 6f3c cf00 073d 1c8a 193d
00000360: 40b1 30bd fa64 1e3d 837a 7ebd 0638 603d
00000370: 1a3e 69bd 2bd4 80bd bc52 03bd 1e3d 013d
00000380: adcc 073c 8c62 d1bd cf22 5cbc 27dc dd3c
00000390: 4848 98bd 9d96 e1bc 5fdc 643d 6c5c d9bc
000003a0: d3ff d83c 7d4e aebd 8f56 89bd 8bc8 3b3c
000003b0: 2d60 39bd 2987 b1bd 7305 e7bc ad28 43bd
000003c0: 58d2 9c3a e723 c8bb af13 debd 3512 ae3b
000003d0: ea82 b23c 9fc7 833d fb69 e0bd 4526 04be
000003e0: 2959 58bd d486 bc3c 3686 3b3d d46c 02be
000003f0: c95b a83d c748 ae3d 75c7 3ebd bf6a 873b

fcl4.bias f4 [100]
-0.040801216 -0.052398797 -0.05799985 0.082944825 0.049354464 -0.04634182 -0.10441761 -0.15430327
0.047147892 -0.15698138 -0.041068986 0.042581756 0.63049835 -0.13322882 0.06596613 0.049583748
-0.119727045 0.017360328 -0.0389199 0.07306574 0.033524845 0.51660395 -0.1654006 -0.060620602
-0.0008942782 -0.023689719 0.1705771 -0.070589386 0.22593635 0.0021977602 0.20885135 0.34039363
-0.03984942 -0.0040167435 -0.120968446 -0.04424476 -0.07129183 -0.10177931 -0.060720522 -0.19303648
-0.06845459 -0.106610015 0.093154065 0.22704242 0.16072826 0.08406515 0.42272976 0.038104005
0.049379397 0.13903649 0.056946248 -0.034865137 -0.0074138828 -0.053056777 -0.058203746 -0.5288094
-0.36742774 -0.14085536 -0.17339039 0.21793702 -0.00450185 -0.038106233 0.7720698 0.262439
-0.06085551 0.22418253 -0.05514195 -0.03544517 -0.03512611 -0.03360526 0.10790916 0.091695964
-0.26934338 -0.074170835 -0.02969742 -0.404131 1.1035558 -0.21728618 -0.0692803 0.0072148237
-0.0017060161 -0.060075346 0.88198847 0.07129051 -0.11547907 0.013511255 0.011458371 -0.17504202
0.014842339 0.049616817 -0.0011240938 -0.012562048 -0.1402433 0.06011546 0.5675314 0.018002877
-0.06264752 -0.07684205 0.0019738742 0.59520066
00000000: 2d1f 27bd 1fa0 56bd 4091 6dbd fade a93d
00000010: e827 4a3d ecd0 3dbd e6d8 d5bd ad01 1ebe
00000020: 261e 413d babf 20be f437 28bd 356a 2e3d
00000030: 5768 213f 236d 08be 4019 873d 5418 4b3d
00000040: 7433 f5bd 3f37 8e3c 796a 1fbd 7ea3 953d
00000050: 5951 093d 2840 043f c65e 29be 4f4d 78bd
00000060: fe6d 6aba f110 c2bc c3ab 2e3e 2b91 90bd
00000070: dc5b 673e 4c08 103b 21dd 553e 1348 ae3e
00000080: 2539 23bd e39e 83bb 4ebe f7bd fe39 35bd
00000090: 7301 92bd ac71 d0bd 15b6 78bd 5bab 45be
000000a0: ec31 8cbd 5a56 dabd 8fc7 be3d cf7d 683e
000000b0: f395 243e 592a ac3d 0970 d83e f212 1c3d
000000c0: 0d42 4a3d 955f 0e3e 7840 693d bfce 0ebd
000000d0: 28f0 f2bb 1052 59bd 0d67 6ebd 0e60 07bf
000000e0: 7d1f bcbe 633c 10be 408d 31be e22a 5f3e
000000f0: 4184 93bb 4815 1cbd 5ea6 453f 685e 863e
00000100: a143 79bd 1b90 653e 86dc 61bd f42e 11bd
00000110: 65e0 0fbd aba5 09bd 7aff dc3d 18cb bb3d
00000120: 60e7 89be e1e6 97bd 0148 f3bc 42ea cebe
00000130: 5141 8d3f 4580 5ebe d4e2 8dbd 546a ec3b
00000140: 679c dfba 9111 76bd ffc9 613f c200 923d
00000150: 4a80 ecbd 505e 5d3c e4bb 3b3c 373e 33be
00000160: 482d 733c 013b 4b3d 5456 93ba 0cd1 4dbc
00000170: f19b 0fbe a13b 763d bd49 113f c57a 933c
00000180: 584d 80bd 5d5f 9dbd 1d5c 013b 125f 183f

fcl5.weight f4 [4, 100]
1.3739198 -0.105612114 0.03711469 0.48285162 0.74258965 -0.013936921 -0.015779674 -0.14973854
0.09898412 0.050083045 0.013582625 0.85945094 0.9616506 0.09784044 0.7092549 -0.7320677
0.031375866 1.0288833 -0.7787345 -0.051837895 -0.034215983 0.98092806 0.97790194 0.1349826
0.0035925703 -0.10457828 -0.41848263 -0.91948736 -0.3174589 -0.08244104 0.24780995 -1.1770397
-0.03626194 -0.0051471326 -0.087256104 0.04057568 0.0008140657 1.4597466 -0.0758351 -0.5796114
0.027635701 0.07900198 0.99391234 1.5537965 0.2782085 0.032747064 0.82246083 0.118284665
-0.043057892 -2.0345705 0.4541303 -0.096741244 1.0824968 0.15952648 0.0020650008 0.39503425
0.99398756 0.5860465 0.6126698 0.9941238 0.008842691 0.079521336 0.25195712 0.10137198
-1.4682044 0.4340839 -0.08447347 -0.048497453 -0.04302612 -0.027148034 0.14709069 -0.5504284
-1.0756254 -0.11335781 0.7632707 0.42652878 1.2058407 -0.4611712 0.09019638 0.024739524
-0.018666014 1.149293 0.9262662 0.37666166 0.0612611 -0.35558495 0.5061936 -1.2391059
0.13406223 -0.52010727 0.074287206 -0.1234234 0.051979356 -0.61527836 0.8010686 1.2929975
-0.012005606 0.0950795 -0.06037905 1.4379638 0.11759952 -0.0052185445 0.032188807 0.7389084
1.6079408 0.096588634 0.018568348 0.15064389 -0.033756956 -0.13532345 -0.05717796 1.6965488
0.5496248 0.014434605 0.22503957 -0.068892665 0.03907462 1.6715413 0.0121748885 -0.0942367
0.040985845 1.4997852 0.4075567 0.07657447 0.033038966 -0.24968314 -1.06694 0.23101342
-0.8452703 0.02455058 -0.60085213 -0.7448722 0.007864458 -0.103646435 -0.08457307 0.011134888
0.10775946 0.23760778 0.013971603 -0.74382126 -0.03945299 -0.09663945 0.35113406 1.1528916
0.18395641 -0.3672537 0.78797764 -0.05513628 0.05501316 0.32499716 -0.2613874 -0.016657505
1.4455822 -0.014738683 -0.006326631 -0.53159404 -0.46865964 0.26831412 0.44074857 1.4016169
0.024373146 0.03599448 0.80505836 -0.69242346 0.92853636 0.68172616 0.0033198823 0.039422933
-0.014153143 0.030915475 0.25175887 0.21925153 -0.6602079 0.061795056 0.24055627 -0.26336837
1.2290372 0.78314954 0.045640036 0.027613891 0.059886303 0.086273424 1.2554457 0.84963465
-0.010560694 -0.6263069 1.0920342 -0.045611154 -0.1001894 -0.7416925 0.013663748 -0.049677297
0.008147801 -0.61244965 0.55821747 1.3583541 1.1390153 -0.05321843 -0.025779556 0.65467554
0.93867946 -0.00047704845 0.0028874697 0.578476 0.70022625 -0.07135138 0.0069500054 0.97619873
0.014697485 0.03838143 0.03822006 0.9445813 0.67000735 -0.45441666 0.6937944 0.6110022
0.06522922 1.785741 -0.43322644 0.013261285 0.031826075 0.32384968 0.39322793 0.03524923
-0.058137078 -1.8127074 0.5880256 -1.6451603 -0.99499196 0.041013155 0.05234201 0.03890581
0.060056567 0.06715711 -0.06955813 -0.06387002 0.03746243 0.7835566 -0.00302573 -0.1248184
-0.02527346 0.07674035 1.3541161 1.2941152 0.9623645 0.18557324 0.4265112 0.0064232205
0.0036275024 0.6808695 0.31233862 -0.04400396 0.8758528 -0.01991771 -0.054059096 -0.60271245
00000000: 9bdc af3f 2a4b d8bd 9305 183d 5438 f73e
00000010: 5b1a 3e3f af57 64bc 6044 81bc 0f55 19be
00000020: 30b8 ca3d e123 4d3d a989 5e3c fa04 5c3f
00000030: bc2e 763f 9260 c83d bb91 353f ca68 3bbf
00000040: fb83 003d 73b2 833f 255b 47bf f953 54bd
00000050: 0f26 0cbd 1a1e 7b3f c857 7a3f e138 0a3e
00000060: 5471 6b3b 232d d6bd 5b43 d6be 8663 6bbf
00000070: f989 a2be d9d6 a8bd e4c1 7d3e 3da9 96bf
00000080: 6687 14bd 47a9 a8bb 54b3 b2bd af32 263d
00000090: 0667 553a fad8 ba3f 6f4f 9bbd 6a61 14bf
000000a0: 4464 e23c cacb a13d 0a71 7e3f cee2 c63f
000000b0: 5871 8e3e c921 063d cb8c 523f 3b3f f23d
000000c0: 795d 30bd 6736 02c0 c483 e83e 4620 c6bd
000000d0: 418f 8a3f e95a 233e f754 073b ee41 ca3e
000000e0: f875 7e3f 2507 163f eed7 1c3f e67e 7e3f
000000f0: efe0 103c 15dc a23d 8600 813e 1d9c cf3d
00000100: 1fee bbbf 3f40 de3e 6d00 adbd 44a5 46bd
00000110: 283c 30bd 8e65 debc f19e 163e e0e8 0cbf
00000120: 18ae 89bf 2428 e8bd b565 433f fb61 da3e
00000130: fd58 9a3f a21e ecbe e1b8 b83d 8baa ca3c
00000140: 78e9 98bc 081c 933f c81f 6d3f ccd9 c03e
00000150: ebec 7a3d 3b0f b6be e795 013f 069b 9ebf
00000160: 9c47 093e c025 05bf e423 983d 68c5 fcbd
00000170: 4ee8 543d e282 1dbf d512 4d3f f180 a53f
00000180: 29b3 44bc 0ab9 c23d 0650 77bd 330f b83f
00000190: 04d8 f03d 5300 abbb 69d8 033d 1a29 3d3f
000001a0: 01d1 cd3f 43d0 c53d a61c 983c 6442 1a3e
000001b0: bc44 0abd 3b92 0abe 7033 6abd 8328 d93f
000001c0: 36b4 0c3f 1f7f 6c3c c670 663e 9917 8dbd
000001d0: b50c 203d 11f5 d53f 2f79 473c 2cff c0bd
000001e0: c6e0 273d f6f8 bf3f 46ab d03e 13d3 9c3d
000001f0: de53 073d f0ac 7fbe 7d91 88bf c88e 6c3e
00000200: a263 58bf 4c1e c93c 72d1 19bf f2af 3ebf
00000210: edd9 003c 9544 d4bd a534 adbd 1b6f 363c
00000220: feb0 dc3d 744f 733e 26e9 643c 126b 3ebf
00000230: 7599 21bd e7ea c5bd d8c7 b33e f491 933f
00000240: 125f 3c3e ad08 bcbe e7b8 493f 94d6 61bd
00000250: 7b55 613d 0766 a63e 92d4 85be 5275 88bc
00000260: d608 b93f 847a 71bc a14f cfbb 8c16 08bf
00000270: 28f4 efbe 7860 893e cca9 e13e 2f68 b33f
00000280: 31aa c73c f36e 133d 4e18 4e3f aa42 31bf
00000290: 8fb4 6d3f 9b85 2e3f 6292 593b f179 213d
000002a0: 96e2 67bc 7342 fd3c 8ae6 803e 7983 603e
000002b0: 6303 29bf d01c 7d3d 6254 763e 38d8 86be
000002c0: 1751 9d3f 7d7c 483f 0cf1 3a3d 8736 e23c
000002d0: 574b 753d 1fb0 b03d 72b2 a03f a881 593f
000002e0: c306 2dbc a655 20bf c7c7 8b3f c3d2 3abd
000002f0: 1a30 cdbd 8fdf 3dbf eadd 5f3c 6c7a 4bbd
00000300: 5b7e 053c 80c9 1cbf 57e7 0e3f 8cde ad3f
00000310: 41cb 913f 92fb 59bd a62f d3bc d198 273f
00000320: 4c4d 703f 5c1c fab9 b43b 3d3b 0117 143f
00000330: 0742 333f ac20 92bd dfbc e33b 29e8 793f
00000340: b8cd 703c d935 1d3d a38c 1c3d 14d0 713f
00000350: 9a85 2b3f 4da9 e8be 839c 313f a46a 1c3f
00000360: e696 853d 2993 e43f dbcf ddbe dc45 593c
00000370: 0f5c 023d a0cf a53e 2c55 c93e 7f61 103d
00000380: 2521 6ebd cc06 e8bf d988 163f 9d94 d2bf
00000390: cbb7 7ebf 69fd 273d 9364 563d b35b 1f3d
000003a0: e0fd 753d ab89 893d 7e74 8ebd 49ce 82bd
000003b0: 3472 193d 2a97 483f 534b 46bb caa0 ffbd
000003c0: 4a0a cfbc 0b2a 9d3d ad53 ad3f 91a5 a53f
000003d0: 855d 763f e906 3e3e ad5f da3e e179 d23b
000003e0: 64bb 6d3b 774d 2e3f d9ea 9f3e 7f3d 34bd
000003f0: e437 603f 772a a3bc 126d 5dbd 5d4b 1abf

fcl5.bias f4 [4]
-0.045570858 0.083398774 0.28407642 -0.21962646
00000000: 82a8 3abd facc aa3d 7772 913e c2e5 60be
