dqn/exercise/double_DQN/prio_replay_sumtree/duelingDQN/checkpoint.pth (torch_old, 72793 bytes, 9 tensors)

fcl1.weight f4 [64, 8]
00000000: 15a8 243f 0817 d83e 5889 4ebf 7c78 1cbf
00000010: 64a0 a5bd 5e72 a23d 402f 98bd 062f 543f
00000020: fe7f a63e ce63 d8bf bccf c83d faa8 0bbe
00000030: 521a 97bf 8d71 33bf cabc 033e ede9 38bf
00000040: 7946 a13f 9c50 3bbf 19bd e4bd c5aa f3be
00000050: e133 843f eb19 143f 37e1 ecbd eaf5 a63c
00000060: 742a b33c 80ba 9cbb 4406 953f 3fdc 76bf
00000070: 26e1 c9be 089d 52be 6d83 d23a d8b3 d63e
00000080: 7e07 8fbf 0d45 aebe fcdc 08bf 2d5d 0a3e
00000090: 9eea 77bf 9287 183f 41b3 f7bc bd4c 9cbd
000000a0: a946 ec3c 8014 cebf 4924 163f 6615 c8bf
000000b0: d1a5 9b3c 2cbe 5a3d 583a 0cbe df07 7a3e
000000c0: 2ee8 85bf f222 23bd 0dc1 2cbf 9c0b 6e3f
000000d0: 1e9f cb3e f4d6 ef3e fa7b f93d dadc 3dbf
000000e0: 9726 373d 4818 1abf fae7 93be 52ec 7abf
000000f0: b35c 503f e35a a03f 0c93 383e 5863 3f3e
00000100: c377 10bf 0d10 ae3f ea1f b7be cb4d 993e
00000110: 63a1 ba3f d742 703f bce5 97bd 085f 7dbe
00000120: c153 c33f 5747 b43e 28c2 603f 336a 3e3e
00000130: fd35 a6bd 39fb 6bbe ced2 4f3e d559 abbf
00000140: dddd 773e bde0 27bc 3dae e83e 740e 13bf
00000150: 43d2 9dbe a8f5 a2bf 2f7c 083f f00a f3be
00000160: 53ce 0dbf 4442 edbf e74b 35bf 68ee 093f
00000170: 062c 293f eb79 f23e 6725 963e fd0a 553d
00000180: 6772 ed3d 7a60 8abb 3817 c5bf d510 9bbf
00000190: e480 7ebd b047 8d3f 0be0 4e3f 9de5 61bf
000001a0: 3847 b0be 423e 2d3e cb4c adbe 6c46 86bf
000001b0: 5572 58bf c575 123e 893e 0b3f a447 33bd
000001c0: 98a2 0dbf bedb 173c 730d aa3f 06e4 1cbf
000001d0: 06ee 00be 7927 1bbe 80c1 103e 49e4 fc3d
000001e0: c711 c7be 96bb 343f a395 bebf 63eb ab3e
000001f0: a108 973e b07e 8abf 3f0c 4c3d bd43 0bbf
00000200: 61f8 64bf cd3c 07bf 0fc7 ad3d 9fbc 6bb9
00000210: d7b8 8ebe 85b5 4d3e 55f7 4e3d 41df d43e
00000220: f576 4ebe 4284 b8be 1421 80be fe22 9fbe
00000230: f4af 363f 21f7 bc3f 48ff 0c3f d337 84bd
00000240: ef67 05bf 2490 72be c996 1c3f 8520 dfbe
00000250: 9d1a c7be e515 903e 31e7 28bd b1a9 cdbf
00000260: c989 e13c 1fda 07be 0c6b 103f c5ab ccbf
00000270: d6a7 6d3f 3e46 2fbf 8652 5d3d fd8a a6be
00000280: 4cdb abbd 4c64 64bf b279 e3bf 7247 88bf
00000290: fc38 003f 41e3 803e a1e9 463e a369 173f
000002a0: 0836 62bf a419 c1be 8369 d53e da31 7ebf
000002b0: 4185 bdbd cca8 273f 8cca adbe f504 923e
000002c0: c695 48bf e7ee c2bf b344 f4be a777 2fbf
000002d0: 8de1 62be 454f e4be 6be0 823e 744c 253f
000002e0: 33e3 753f a79a 503e ebfa dcbe 3866 663e
000002f0: 2508 48bf 4468 543e 4215 9c3e f583 803e
00000300: 2da2 083e b7ee dabe 1623 52bf a36d efbd
00000310: 26bc 4dbf 313c 03bf 1bf1 c83c 7ec0 f23e
00000320: 51e5 a93d cb7b 973e eb08 6cbf f552 81bf
00000330: dda4 82bf b747 e83d daa5 3c3c 0638 2b3f
00000340: bbd2 c73e de29 f4bf 1d28 c03e cd59 eabd
00000350: 2996 453f acd3 edbe eca7 a33e 4761 803e
00000360: 68e1 d1be 0a14 ea3d a218 fcbd e04b c2be
00000370: f4b2 d7bf e062 d83e 331e a0bd c2cf 2ebf
00000380: 900a 7fbf 484c d5be 1771 49bf b81c 94be
00000390: 0868 aebe f6c6 1dbf 6573 67be 7d60 27be
000003a0: 50ff dabd 839a 82bf af01 643f 303b 17bf
000003b0: 57d5 1fbd 0cfd 13bf c421 f7be aa30 3c3f
000003c0: 855d a93e 1d69 413f 212b 0dbf 7fcb 45bd
000003d0: e54f 913e a2a7 db3e 760e 343f 965b 50bf
000003e0: 7898 173d 1209 b0bf 5d17 66be d1c2 cd3e
000003f0: a841 713f 72d5 adbc f57f 26be 82c2 46be
0.6431897 0.4220507 -0.8067832 -0.61121345 -0.08087233 0.0793197 -0.07430887 0.8288425
0.32519525 -1.6905458 0.09805247 -0.13638678 -1.1804907 -0.7009514 0.12864986 -0.7223194
1.2599632 -0.73169875 -0.1116888 -0.47591224 1.0328332 0.5785205 -0.11566394 0.020380933
0.02187083 -0.0047829747 1.1642537 -0.9642982 -0.39429587 -0.20567715 0.0016060896 0.41934085
-1.1174161 -0.34037057 -0.53462195 0.13512106 -0.9684237 0.59581864 -0.030236842 -0.07631824
0.028842287 -1.6100006 0.58649117 -1.563153 0.018999966 0.05340402 -0.13694131 0.24417065
-1.0461481 -0.03982825 -0.6748207 0.92986465 0.39769834 0.46843684 0.1218185 -0.7416512
0.044714537 -0.601933 -0.28887922 -0.98016846 0.8139145 1.2527736 0.18024844 0.1869024
-0.5643274 1.3598648 -0.35766536 0.29942164 1.4580501 0.9385199 -0.07416865 -0.24743283
1.5259935 0.35210678 0.8779626 0.185952 -0.08115766 -0.23045053 0.2029526 -1.338679
0.24205728 -0.010246453 0.45445433 -0.5744393 -0.3082448 -1.2731218 0.5331449 -0.47469282
-0.5539295 -1.8535848 -0.7081894 0.53879404 0.660828 0.4735864 0.2932541 0.052012432
0.11594086 -0.0042229267 -1.5397711 -1.2114512 -0.06213464 1.1037502 0.8081061 -0.8824099
-0.34429336 0.1691828 -0.3384765 -1.0490241 -0.84549457 0.14302738 0.54392296 -0.043769494
-0.55326223 0.009268699 1.3285354 -0.61285436 -0.12590799 -0.15151776 0.14136314 0.123482294
-0.3888075 0.70598733 -1.4889416 0.33578023 0.2949877 -1.0819912 0.049816366 -0.54400235
-0.89441496 -0.5282715 0.08485233 -0.00022481613 -0.27875397 0.20088775 0.050528843 0.4157658
-0.20162566 -0.36038405 -0.25025237 -0.31081384 0.71362233 1.4762918 0.5507703 -0.0645596
-0.52111715 -0.23687798 0.6116758 -0.43579498 -0.38887492 0.28141704 -0.041236106 -1.6067411
0.027531521 -0.132668 0.5641334 -1.598992 0.9283422 -0.68466556 0.05403378 -0.32527915
-0.08391437 -0.8921554 -1.7771513 -1.0646803 0.5008695 0.2517338 0.1942506 0.59145564
-0.88363695 -0.37714875 0.41682062 -0.9929482 -0.09253932 0.6549194 -0.33943594 0.28519407
-0.78353536 -1.5229157 -0.47708663 -0.6854195 -0.22156353 -0.44591728 0.25561842 0.64569783
0.96049803 0.20371495 -0.43160185 0.22499931 -0.7813743 0.20742899 0.30484968 0.25100675
0.13343115 -0.4276025 -0.82084787 -0.116908334 -0.80365217 -0.5126372 0.02452903 0.47412485
0.08295692 0.29586634 -0.9220111 -1.0103441 -1.0206562 0.113418035 0.0115141515 0.6688236
0.39027962 -1.9075277 0.37530604 -0.114429094 0.7718225 -0.46450555 0.31964052 0.25074217
-0.40992284 0.114296034 -0.12309386 -0.37948513 -1.6851487 0.42262936 -0.0781826 -0.68285763
-0.9962549 -0.4165976 -0.78688186 -0.2892816 -0.34063745 -0.61631715 -0.22602613 -0.16345401
-0.10693228 -1.0203403 0.8906507 -0.5907469 -0.039021816 -0.57807994 -0.4826795 0.73511755
0.33079162 0.75551015 -0.55143934 -0.048289772 0.28381267 0.4290133 0.70334566 -0.8138975
0.03701064 -1.3752768 -0.2246985 0.40187696 0.9424081 -0.021219943 -0.16259749 -0.19410136

fcl1.bias f4 [64]
00000000: fe02 b0be cbf3 0abe d8ba 28be 52b1 d5be
00000010: b6b9 e7be 21e5 08bf d6f2 4d3f 9d4f edbe
00000020: 48b4 cebe 42ac a3bd 834e 46bd 6b06 2ebf
00000030: 96a6 16bf 0053 0cbf b6e7 553e e26a a2bd
00000040: e538 453f 0f25 a2bd 0976 2b3f bac7 013f
00000050: 5cc1 bfbe 350b 8abe 19b7 1fbe 475a 89be
00000060: bee6 fcbe d814 0abf 6283 c73e 87b4 27bd
00000070: 8883 e03e d508 e23d ac4c b8bd ac8b 02bf
00000080: f689 e63b cb8b 4e3e 745a fabe d0aa 733d
00000090: c9f0 9ebd 82a1 143f 97be abbe fe06 13bf
000000a0: e7d4 ea3e 9d80 f0bd de8b ee3d 1ab9 993d
000000b0: 1659 b43e db61 89bd 3e06 a33f 028b 233d
000000c0: 1a8f 653c b0d1 e8be 4d47 373e 0214 71bd
000000d0: 6fb4 293d 0ff5 b53e b48d 9f3d f502 e63e
000000e0: 04ad 693f 9e40 c13e 3fc8 433d 0fba 8bbe
000000f0: c317 c2be 3620 b1be 1cc6 983e 0b29 fe3e
-0.34377283 -0.13569562 -0.16477525 -0.41736847 -0.45258874 -0.5347462 0.80448663 -0.46349803
-0.4037192 -0.0799184 -0.04841472 -0.67978543 -0.5884794 -0.5481415 0.20889172 -0.079305425
0.7703994 -0.079172246 0.6697698 0.50695384 -0.3745221 -0.26961675 -0.1559719 -0.2682669
-0.49394792 -0.53938055 0.38967425 -0.04094365 0.4385035 0.11036841 -0.08998999 -0.5099437
0.007035489 0.20170514 -0.48897135 0.05948907 -0.0776077 0.5805894 -0.33543846 -0.57432544
0.45865557 -0.11743281 0.11647771 0.075060084 0.35224217 -0.067081176 1.273628 0.03992749
0.014011169 -0.4547248 0.17898293 -0.05885697 0.04143184 0.35538527 0.077906996 0.4492413
0.91279626 0.37744612 0.04779839 -0.2729039 -0.37908754 -0.34594887 0.29838645 0.49640688

fcl2.weight f4 [128, 64]
00000000: 5065 1f3e bed3 41bf 976a 0c3f 8d97 2a3f
00000010: 3fa9 233f 7898 a83e 0965 2fbf b8f5 3a3e
00000020: 1ae3 64bf 2504 773f dc2e 003f 1e8c d03e
00000030: 3bb3 86bf cda6 c43e 5677 adbe b0d1 b03e
00000040: 1dbf 463e 9cd5 8d3e 73f3 a4be 6634 c43d
00000050: 8d5a 3a3e 8c12 523f 9f27 b03e 8146 103f
00000060: 4ba2 b83e 40a0 88be 8fee d03c 2206 e93e
00000070: 26e0 293f 62df 81be 391b e3be d7c4 643f
00000080: 1491 aa3e 96fb 9abf 78d2 ffbd c66e a7be
00000090: fc45 193f 6dc4 ce3d 309d 353d 1d1a 4c3f
000000a0: 6e20 2e3e 72cd 523e 3d8b 893e 5423 ccbf
000000b0: 2007 4dbf 3a9e ee3e 789d 11bf ddc4 acbe
000000c0: 8583 23bf c413 0b3e 7d16 1a3c bb99 a0bf
000000d0: 2c9a 10be 9235 4e3e b4a2 55be 232d 97bc
000000e0: 9eea 873e aa81 673e 39d9 753e 7247 123f
000000f0: 397c 44be e464 8fbe 348f f7be 89cc 423d
00000100: fdc2 1d3f c88a 403e 6458 a6be 7399 e03e
00000110: e935 c7be fc89 023f 93f7 a33d 00ce abbf
00000120: a449 4b3d 8e3e e1bc a722 2d3f b43c f3be
00000130: 79b7 b6bd f3a1 263f 31e3 ff3e 8e35 e1be
00000140: 0da7 003e 5e5a 04bf d847 063f 1784 e03e
00000150: 1952 20c0 6c13 f9ba 5434 f93b 94ec 093e
00000160: 9dda 05c0 4023 053f 53ad bbbf ea87 413f
00000170: a232 19bf 7e71 2b3d d251 313f d34e 93be
00000180: 8dad 853e b673 13bf 6de7 d6bd 1d30 e3be
00000190: 6967 69be b270 bebe ca4f af3d 1963 18c0
000001a0: 6212 12bf 2933 843d 2bf4 a1bd 3d3c 64be
000001b0: 356b 0d3f f642 88bf 84ea 80be 86dd bfbf
000001c0: 675c 143f 0a4d 86be 4dd8 19bf afdf d13d
000001d0: bc04 eabf e299 263e 1bfc aa3f 0d44 85bd
000001e0: 5108 62bf ff70 1e3f c7b4 873e 22d0 eb3e
000001f0: 8d09 92bf 2833 bb3e 8fb3 1f3e d03d 4dbf
00000200: eb5b 3d3f 9680 38be 5df1 843e 4f64 043f
00000210: 9dd9 fc3e 8594 9f3e 273b 1cc0 542d ab3e
00000220: 45d6 b0bf fd4d 4b3e 0198 d83e 0d0c fd3e
00000230: 6680 08c0 232c d23d a5fe 963e e99f 25bd
00000240: e008 0bbd b54f 3bbf c6f8 fc3c 2619 bf3e
00000250: 1acd ffbd dd87 12be 6d87 40bf 4722 923e
00000260: e2a9 d43e 2c31 383f 2d74 203e ff6b d13e
00000270: cde9 e13d 80c2 5d3e b433 27c0 9d43 6c3f
00000280: 794e 5f3e 9d33 ffbf a1e1 fcbe ce3d 6fba
00000290: 8cb1 28bf b664 833d ccf7 ca3d ea1a 613f
000002a0: 3465 603f f421 693f f949 b03e bff6 88bf
000002b0: bc1f 153e b26b 49bf c22b 0dbf f368 b0bf
000002c0: 7b49 e23e 3749 d4bf 8570 53bf 932d 1dbf
000002d0: 7813 0cbc 4eea c9bd 0dbe 4dbf 9738 9abd
000002e0: 4209 0d3e a74f 2e3e 0828 003e 7a5d 283e
000002f0: 63bd 1bbf ecf1 913d 45d9 12bf 5101 aabe
00000300: 7804 8abf 26f6 f3be 2336 56bf 684b 88be
00000310: 1933 1e3f 26b8 aa3d 9417 843e 0072 d6bd
00000320: 63d4 b73e 4a5a eebe 8936 e43e 8867 133e
00000330: ddc4 38bf 8410 3e3f acb3 17bf 9dde 253f
00000340: 34cf ac3e 728e f5be 873f 063f a27e 3cbe
00000350: 6234 513e 7e5d 453e 662d a93e 14a9 70bf
00000360: 967a 743f d009 a6be 8f03 03bf ad16 003e
00000370: c53d 443d 7444 6bbf 8d7c 07be ac9d 183f
00000380: 28af d93e 47ba 99ba d707 40bb e7bc eebd
00000390: a0e8 d13e 4fde 8c3d 0690 fe3d 074c 163f
000003a0: 79d8 b1be 354e ddbe f314 8f3e a950 003c
000003b0: d23f 14be 320a 17be 9895 853e 50f6 a13d
000003c0: 0e2f 0c3e d32b 6b3f b150 813f 70c7 a03d
000003d0: 9424 923e e74e 52bf dfe7 aa3e 6b3d 04be
000003e0: af8a 7e3c 96c6 c43e 2db9 12bd 5ce5 333d
000003f0: 41e0 153d d91b 41be 459d bebe 35e8 5dbf
0.15565991 -0.7571372 0.54850143 0.666375 0.63930124 0.32928824 -0.6851354 0.18257797
-0.8940903 0.964907 0.500715 0.407319 -1.0523447 0.3840851 -0.3388011 0.3453498
0.19408841 0.27702034 -0.32216987 0.09580307 0.18198605 0.8205955 0.34405228 0.5635758
0.3606132 -0.2668476 0.025504379 0.4551249 0.6635765 -0.2536574 -0.44356707 0.89362854
0.3331381 -1.2108028 -0.124913156 -0.327017 0.5987241 0.10096059 0.04433936 0.79727346
0.17004558 0.20586184 0.26864043 -1.5948281 -0.80088997 0.46605092 -0.56880903 -0.33743945
-0.6387256 0.13581759 0.009404776 -1.2546915 -0.14121312 0.20137623 -0.20862848 -0.01845414
0.26546186 0.22608057 0.24008645 0.57140267 -0.19188012 -0.2800666 -0.48351443 0.04755834
0.61625654 0.18802941 -0.32489312 0.43867072 -0.38908318 0.509918 0.080062054 -1.3422241
0.049630776 -0.027495649 0.67631 -0.4750725 -0.089217134 0.65090865 0.4997802 -0.4398617
0.12563725 -0.5170039 0.52453375 0.43850777 -2.5050108 -0.001900298 0.007605115 0.13469154
-2.091468 0.5200691 -1.4662269 0.75598013 -0.59842885 0.04185628 0.6926547 -0.28771076
0.2610897 -0.57598436 -0.1049336 -0.44372645 -0.22793354 -0.37195355 0.085601404 -2.3810484
-0.570593 0.064550705 -0.079078995 -0.22288604 0.5524171 -1.0645435 -0.2517892 -1.4989479
0.57953495 -0.2623065 -0.60095674 0.102477424 -1.8282695 0.16269639 1.3358186 -0.0650712
-0.8829394 0.6189117 0.2650511 0.4605723 -1.1409165 0.36562467 0.1559584 -0.80172443
0.7396838 -0.18017802 0.25965396 0.5171556 0.49384776 0.31168 -2.4411104 0.3343302
-1.381539 0.19853969 0.4230347 0.49423257 -2.1328368 0.10262325 0.29491153 -0.040435705
-0.03394401 -0.731685 0.030880343 0.37323874 -0.12490292 -0.1430964 -0.75206643 0.28541777
0.4153586 0.7195003 0.15669318 0.40902707 0.11030922 0.21656227 -2.6125307 0.9229067
0.21807279 -1.9937626 -0.4939089 -0.0009126336 -0.65895915 0.064156935 0.09910545 0.8793169
0.87654424 0.91067433 0.34431437 -1.0700301 0.14562887 -0.78679955 -0.55144894 -1.3782028
0.44196686 -1.6584843 -0.82593566 -0.61397666 -0.008549564 -0.09859143 -0.8036812 -0.07530325
0.13773063 0.17022572 0.1251527 0.16441908 -0.60835856 0.07126221 -0.57362777 -0.3320413
-1.0782614 -0.47648734 -0.83676356 -0.2662003 0.6179672 0.08335905 0.2579924 -0.104709625
0.35904226 -0.4655326 0.44572857 0.14394963 -0.7217539 0.7424395 -0.5925853 0.64792806
0.33751833 -0.4796024 0.52440685 -0.18407682 0.20430139 0.19273946 0.3304245 -0.9400799
0.9549955 -0.3242936 -0.51177305 0.1250865 0.04791047 -0.91901326 -0.13231106 0.5961559
0.42516446 -0.0011728489 -0.0029301548 -0.11657124 0.4099779 0.068783395 0.12429814 0.5870976
-0.34735468 -0.4322373 0.2794567 0.007831731 -0.1447747 -0.14749983 0.26090693 0.079083085
0.13689825 0.91863745 1.010275 0.0785054 0.28543532 -0.82151645 0.3338003 -0.12914054
0.015535994 0.3843276 -0.03582113 0.043919906 0.03659082 -0.1885828 -0.37229362 -0.86682445

fcl2.bias f4 [128]
00000000: 9195 803e 5086 bf3e 33cf d53e f14e ce3e
00000010: 449e 943e 0a7d 473e 3150 8f3d c3b2 573e
00000020: 1042 d63e 12f4 d4bd 1a5a 9fbc 8f22 d5bd
00000030: 4101 7e3e 35d5 e1bd 5061 623e 02df 9abd
00000040: 7d7e e1bd dd65 643f 15f9 993d f666 903e
00000050: 981b 12be 00ad 583c bc49 dc3e c30e 31bf
00000060: d26a b338 30a5 e9bd 1f68 bc3e 7907 c23e
00000070: 00d1 283e 647b df3e 2fd4 273e 3a60 ee3d
00000080: 5fdc f63e a762 5e3e 6073 c8bd c362 303d
00000090: 5f24 a23e 9a86 003e c147 32bd ea53 8c3d
000000a0: 944d 30bd 0c7c 973f 1a17 c03e 95e3 d43e
000000b0: 70bf 173e a32d b23d e8eb 17be d12f 933e
000000c0: 4322 133e a019 983e bc0b c43e 2dbb c73e
000000d0: 36ed 813e bd6d 883e e4e7 cc3e 29ab 493e
000000e0: f0a6 073d 9f3d 473d 8a10 983c 8324 e33e
000000f0: ec14 b93e 1491 7e3e 2b46 4fbe fe63 143e
00000100: b7dd d63e e9fd 2d3d 9ea9 113c 1d5f a9bd
00000110: 4c69 173e 0289 aa3d 6f05 f9bd bf1e eabd
00000120: eca0 8e3e 7350 b43d d506 f2bc f947 9fbd
00000130: 3b22 c63e 903e 19be db6b e73e 37ef a1bc
00000140: 2e0f 813e 8e37 553e 5f29 723e d9ed e93e
00000150: 884a dc3c 7dd1 af3d 79ce 5d3e 85ae d2bd
00000160: ea78 cf3e 1d47 813e eea7 713e c5e6 593d
00000170: 0824 9d3c 919d 2cbd 4a3f 033f 8faf 803e
00000180: ca9e bc3e e831 143f d1f3 873e a6b9 c13e
00000190: 470f cfbe ec6b c03e fb54 a23e 0b94 dbbd
000001a0: f598 d83e 86ff d6bd be7c c23d bc66 b93e
000001b0: 1fd3 393c 4be8 b83e 4745 a2bb 839f ec3e
000001c0: 8be7 7f3e 299f 933e 3495 dc3d 9480 a93d
000001d0: 7264 ab3c 8bc1 2f3f 35d7 be3e d6c6 e1bc
000001e0: f3a9 933e 7aa3 92be 7008 06be 4dbe d23e
000001f0: 4b0d a03e 403e 81bd 6438 32bc 4689 dd3e
0.2511411 0.3740716 0.41759643 0.40294603 0.29026997 0.19481292 0.06997717 0.21064286
0.41847277 -0.10398115 -0.019452143 -0.10406982 0.24805166 -0.11026994 0.22107434 -0.075620666
-0.11010454 0.8921793 0.07518212 0.28203553 -0.14268339 0.01322484 0.43025005 -0.6916315
8.555282e-05 -0.1140846 0.36798188 0.37896326 0.16485977 0.43648827 0.16389535 0.116394475
0.48215005 0.2171732 -0.09787631 0.043062937 0.31668374 0.12551346 -0.04352546 0.06851943
-0.043042734 1.1834731 0.37517625 0.4157988 0.14819121 0.08700111 -0.14836085 0.2874742
0.14368539 0.2970705 0.38290203 0.3900999 0.2537629 0.26646224 0.40020669 0.19694199
0.03311819 0.04864275 0.018562574 0.44363794 0.36148775 0.2486003 -0.2024161 0.14491269
0.4196603 0.042478476 0.008890538 -0.082700945 0.14786261 0.083269134 -0.121592395 -0.114316456
0.2785715 0.08804407 -0.029544273 -0.077773996 0.3869799 -0.14965272 0.45199475 -0.019767387
0.25206894 0.20821974 0.23648594 0.45689276 0.026891008 0.085848786 0.21660794 -0.10287193
0.40521938 0.25249568 0.23599216 0.053198595 0.01918222 -0.042142455 0.51268446 0.2513394
0.36839896 0.5788865 0.26553205 0.3783695 -0.40441343 0.37582338 0.3170546 -0.10721596
0.42304197 -0.10497956 0.09496449 0.36211193 0.011341839 0.36114725 -0.004952106 0.46215448
0.2499067 0.28832367 0.10770646 0.082764775 0.02092192 0.686547 0.37273565 -0.027560633
0.28840598 -0.28640348 -0.13089156 0.41160813 0.31260142 -0.06310701 -0.010877702 0.43268794

fcl3.weight f4 [1, 128]
00000000: b6af 4abf e8ed 6140 6bed d5bf eaed 6cbf
00000010: 6f11 85bf 0bf1 abbf 4a21 d2bb 52ae d8bf
00000020: 5bcc f0bf 4c0a 85bd 146f 7a3f 5c24 063c
00000030: 1386 33bf 3edb 7ebd b40e 1bc0 a7f2 623d
00000040: 2e28 5fbf dea2 3340 3183 683f 9ed5 20bf
00000050: e42f d83c ead9 20c0 15db 67bf d37d e23f
00000060: f6ac a33a 18df 873a 75ba 9ebf 3271 15c0
00000070: b51d d2bf 6e63 21c0 41fc c7bf c297 a9bf
00000080: 60c3 12bf 8919 4a40 21ac 3ebc 102a 66bd
00000090: e7cb 18bf d560 41bf 906e 663c 2fab 80bf
000000a0: 80e4 04bc c3e9 2f40 a843 b9bf 73a4 87bf
000000b0: b30d 56bf 7b9b 77bd 21cd 83bd 6629 51bf
000000c0: 645a 55bf 694e 8fbf 0e76 1540 7276 f23f
000000d0: 1786 7f3f 50bc 2940 99fc 4740 cf76 c2bf
000000e0: 90f5 bcbc 32c4 3140 fa25 15bd 0c5d b0bf
000000f0: 60ac 1140 cf4a 04c0 9c06 c2bf 0ba4 86bf
00000100: b1fa 3940 1b25 22bd ab14 2b3d b39a 46bc
00000110: c3c9 5cc0 07fc d63e 5364 2c3d 37f6 59bc
00000120: 3aa5 0b40 8672 31c0 8db5 23ba a905 4c3c
00000130: d940 debf 2887 1b3d b77f 62bf b76f eeba
00000140: 720d f2bf d953 acbf e88d 23bf 9e3d 95be
00000150: 3671 4a3c 9b27 47bf b27e 4840 2f74 92bc
00000160: 4d89 96bf e21e 6bbf 595d 1b40 5c53 483d
00000170: 428c 87bd 9653 0d40 f5a8 1440 bb74 c1bf
00000180: dc3d dbbe 772e debf 72a6 8cc0 1d97 f4be
00000190: 0e63 f73f 8028 a5bf ea57 43bf d471 a7bb
000001a0: 69a5 993f 39dd 61bf 02b1 b9bf 752c c7bf
000001b0: 33d8 823b b544 07c0 7feb b3bb f4d0 ad3f
000001c0: 5d5f a2bf 1d86 2dbf baa0 8040 d76d 77bf
000001d0: b368 873b d5c5 1f40 29f6 c8bf b2c5 6e3c
000001e0: c5aa 7940 a9a9 ec3f 24a3 083d e1de 09bf
000001f0: 07fe 65bf 6e37 b13f 533b 28bc 93a3 cfbe
-0.79174364 3.5301456 -1.6713079 -0.9255053 -1.0395945 -1.3432935 -0.00641266 -1.6928198
-1.8812364 -0.064961046 0.9782574 0.00818738 -0.70126456 -0.062220804 -2.4227724 0.055407193
-0.87170684 2.8068156 0.9082518 -0.62825954 0.026390024 -2.5133004 -0.9056867 1.7694649
0.001248746 0.001036617 -1.2400652 -2.335034 -1.6415316 -2.5216937 -1.5623857 -1.3249438
-0.5732937 3.1578085 -0.011637718 -0.056192458 -0.5968613 -0.7553838 0.014064446 -1.0052241
-0.008111119 2.7486427 -1.4473772 -1.0597061 -0.83614653 -0.060451012 -0.064356096 -0.81703794
-0.8334105 -1.1195804 2.3353305 1.8942397 0.9981398 2.6521187 3.1247923 -1.5192508
-0.023066312 2.7775998 -0.03641317 -1.3778396 2.276146 -2.067066 -1.5158267 -1.0518812
2.905926 -0.039586168 0.041767757 -0.012121844 -3.4498146 0.41989157 0.042087864 -0.013303331
2.1819596 -2.772615 -0.000624501 0.012452521 -1.736354 0.037970692 -0.8847613 -0.0018191253
-1.8910353 -1.3463088 -0.63888407 -0.29148573 0.012356093 -0.7779481 3.1327329 -0.017877666
-1.1760651 -0.91844 2.4275725 0.048907623 -0.06618549 2.2082267 2.3228123 -1.5113748
-0.42820632 -1.735793 -4.395318 -0.4777154 1.9327104 -1.2902985 -0.7630602 -0.005110005
1.2003604 -0.88228184 -1.4507143 -1.5560442 0.003993058 -2.1135685 -0.00549072 1.3579392
-1.2685353 -0.67782766 4.01962 -0.9665198 0.004132354 2.4964497 -1.5700122 0.014573501
3.901048 1.8489276 0.033358708 -0.5385571 -0.8984074 1.3845041 -0.01026805 -0.40554485

fcl4.weight f4 [128, 64]
00000000: 5e34 4b3f a5bf c73d 5ca5 d23e 48e5 ccbe
00000010: cad7 dd3d ce8f 3c3f 11a2 e6bd d681 79bd
00000020: 90d0 34be ae29 9dbd 88f3 a33e 2f38 0b3f
00000030: 64aa 3a3f bacd 43be a967 35bc e5c8 b7be
00000040: e36a 2cbe 2a5d e93d 9710 ce3c f0be 133e
00000050: f6dc 203f 0b94 c73e e417 ac3e a422 12bf
00000060: fc2c 79be a9ca 373f 2afa 1b3f b0ff d3bf
00000070: 188e e7be a3ae d13e 4d29 383e c20d 8b3f
00000080: 61dc a43e 4f8d 34bc 979e 273f 6c15 653f
00000090: 6f7b a33e 876f d9be 7099 503d edd4 c73d
000000a0: 6076 093f 84ce fd3e ec23 ea3d 4c0f 76bf
000000b0: 862b 063e 4353 7c3e 9cce 44be e078 9a3e
000000c0: b2e9 5abf 9e13 4e3f e1ff 5f3d 0810 6f3d
000000d0: 7fd6 923e e997 0abe 3071 62be 0308 3dbf
000000e0: 4e98 bf3e 7b7e ccbe 52f8 e6be 2b77 e73d
000000f0: 5994 0c3f f4b2 383f ab1e 8ebf 6fc7 233e
00000100: 51dd 893d 3f1e 943d a24f 583c 57a5 043d
00000110: 5e39 d2bd 7750 c2bd d64b 88bd a840 c7bd
00000120: 4829 c5bc 2c90 29bc 5ca7 3bbe 58dd c2bd
00000130: c8fa ddbc 6154 bc3d 06dc 05be 51b2 3b3d
00000140: 966c c5bc c2c0 7b3c edcd 41be c128 55be
00000150: 8c33 a1bd 92e8 3abd 6975 ec3b 5b35 e13d
00000160: b424 a1bd abc4 b23d e4be d6bd b52a 003d
00000170: 0a59 f6bd 5013 1bbe 2fba 86bd 2201 2cbe
00000180: 623d 9fbd ac65 05be e2c8 13be 97cf 5e3d
00000190: 6047 5bbd 9ef5 d5bd 1018 253c f2b2 d3bd
000001a0: 52cb 1fbe c2e3 91bd 4a42 abbd 1da5 833d
000001b0: af89 543c 224b b03c a69d 803d 2469 4ebd
000001c0: 8ec4 1abd 81df b23d c394 c9bc a7c1 ce3c
000001d0: 8425 7fbd 78b5 793d 9016 8bbd 56b9 223e
000001e0: 100f ddbd ff7b 4abe 1407 14bc 7e69 25bc
000001f0: 7234 de3d d416 2bbd 0c78 833c 83ff c8bb
00000200: c0fb c3bd 23e2 fdbd a340 cabc 1814 e13c
00000210: 88ad c93c ba94 04bd ff6a 3b3d 441c 41bd
00000220: c85d 1b3d cc23 893c 438e fb3b 38d8 aebd
00000230: 9c19 edbd 456c 0bbe 2b69 1ebe c50f 2cbe
00000240: e3de 8fbd 94ca 8cbc e2f1 0dbc 7f1a b0bd
00000250: 8b7e fdbd e448 07bd 256d 143d be48 093d
00000260: b0da f43d c5a0 b13d 618a 313d c06d 043b
00000270: cbed 4fbd 1d73 bb3c df82 b03d 9070 33bd
00000280: fe59 8fbb 7266 fcbd 84a7 c13d 02ee cfbd
00000290: e0d0 90bd 3192 19bc f062 74bd 3fd7 ad3c
000002a0: 2a4e 04be b7c0 d13d b0f6 c9bd 801f a53c
000002b0: 8473 60bd 99a6 aa3c db6c 9d3d 40f9 b4bd
000002c0: f8d1 cabc d3c2 82bd 9cb5 19bd c8ac c63c
000002d0: 472c ae3d 96cd 82bd 6d35 f13c dd40 38be
000002e0: 192b 0abe d70c f0bd 9a98 b43c ff43 87bc
000002f0: 3832 fa3d 4efc b33c b162 e3bd 96be 8bbd
00000300: 3154 a2bc 00aa 6fbd d827 14bd b379 49bd
00000310: b8b1 d6bd 9ad7 963c c294 3abc d9de 63bd
00000320: 9b70 46bd 92b2 1dbe 6b9f 51bd b064 16be
00000330: 3ec3 9b3d 305c 9c3d ab51 21be e1b3 07be
00000340: d218 d9bd 098b 033d 0104 2e3c 9d5d 07be
00000350: 960b 93bd cf7f 8c3d bfc0 49bd 3b89 21be
00000360: e55c 903d 331d c43d bedd d03d 2b7d 05bd
00000370: a3a6 40bd 3770 13bc 54a0 653d e890 15bc
00000380: 544e 12be 6abd c23b 42b3 9e3d 451b 13be
00000390: a180 1dbe de85 3a3d aea9 873d c821 f8bd
000003a0: 30ea b2bc ae76 173d ccd1 1abc 1687 a33c
000003b0: e179 d9bc 929e e9bb a94c 793d 4dae e1bd
000003c0: ec2b 85bd 2fba 90bd 7dfd 0dbd 2010 c13b
000003d0: a978 77bd 555e 00bd 2b38 9a3d f542 503c
000003e0: 1fd2 a73d 057c d0bc 9c80 98bd 4df9 a23d
000003f0: 47da eabd d0e8 6e3d 6098 bb3d f179 dfbd
0.7937678 0.0975335 0.41141784 -0.40018678 0.10832174 0.7365693 -0.112613805 -0.060914837
-0.17657685 -0.076739654 0.32021737 0.54382604 0.72916245 -0.19121447 -0.011072078 -0.35895458
-0.16837649 0.11394723 0.025154395 0.14428306 0.6283716 0.38980135 0.33611977 -0.5708411
-0.24333566 0.7179361 0.60928595 -1.6562405 -0.45225596 0.4095355 0.17984505 1.0863574
0.32199386 -0.011020019 0.65476364 0.8948581 0.3193011 -0.424679 0.05092758 0.09757409
0.5369625 0.4957162 0.11432633 -0.9611709 0.1310254 0.24641137 -0.1921944 0.30170345
-0.8551284 0.80498683 0.054687385 0.058364898 0.28679273 -0.13534512 -0.2211349 -0.7384035
0.37420887 -0.39940247 -0.45111328 0.11302026 0.5491386 0.7214806 -1.1103109 0.15994047
0.06731666 0.072323315 0.01320258 0.032384243 -0.10264848 -0.09488004 -0.066550896 -0.09729129
-0.024067536 -0.010349315 -0.18325561 -0.09514874 -0.02709712 0.091957815 -0.13072214 0.045824353
-0.02409963 0.015365781 -0.1892621 -0.20816328 -0.0787116 -0.045631953 0.007216145 0.10996505
-0.07868329 0.08728918 -0.10485628 0.03129073 -0.120287016 -0.15144086 -0.065784805 -0.16797307
-0.0777538 -0.13027066 -0.144321 0.05439719 -0.053534865 -0.104472384 0.010076538 -0.103368655
-0.15604904 -0.071235195 -0.08362253 0.06427977 0.012972279 0.021520201 0.06280069 -0.05039324
-0.037785105 0.08734036 -0.024607068 0.025238825 -0.062291637 0.060964078 -0.06791413 0.15891013
-0.107938886 -0.19773863 -0.009034891 -0.010095952 0.10849847 -0.041769817 0.016048454 -0.006133975
-0.09569502 -0.12396648 -0.024689024 0.027475402 0.024618879 -0.0323684 0.045756336 -0.047146097
0.037931234 0.016740702 0.007676871 -0.08537334 -0.1157715 -0.1361552 -0.15469806 -0.1680289
-0.07024934 -0.01718644 -0.008663626 -0.08598804 -0.12377652 -0.0330285 0.0362369 0.033516638
0.11955774 0.086732425 0.04334486 0.0020207018 -0.050763886 0.022882039 0.08618712 -0.04380852
-0.0043747416 -0.123242274 0.09455779 -0.10152818 -0.0707109 -0.009373234 -0.059664667 0.021220801
-0.12920442 0.102418356 -0.09861505 0.020156622 -0.054797664 0.020831393 0.07686778 -0.08836603
-0.024758324 -0.06384816 -0.03752671 0.02425231 0.08504539 -0.06386869 0.02944442 -0.17993493
-0.13493003 -0.11721199 0.022045422 -0.016511915 0.1221661 0.021970894 -0.11102808 -0.06823461
-0.019815536 -0.058511734 -0.03617081 -0.049188327 -0.10483116 0.018413354 -0.011388006 -0.055632446
-0.048447233 -0.1540015 -0.051177423 -0.14686847 0.07605599 0.07634771 -0.1575381 -0.13252212
-0.10600437 0.032115016 0.010621072 -0.13219304 -0.07179944 0.06860315 -0.049256083 -0.15775006
0.07048968 0.09575882 0.10198544 -0.032590073 -0.047033917 -0.008998922 0.056061104 -0.009128787
-0.14287692 0.00594299 0.077490345 -0.14365871 -0.153811 0.045537822 0.06624161 -0.12115818
-0.021840185 0.036978416 -0.009449434 0.019961875 -0.026547374 -0.0071294988 0.060864124 -0.11019573
-0.06502518 -0.07066762 -0.034665573 0.005891815 -0.060417805 -0.031339962 0.075302444 0.012711276
0.08194374 -0.025449762 -0.07446405 0.079577066 -0.11467414 0.058327496 0.091599226 -0.1091193

fcl4.bias f4 [128]
00000000: 2baf 493d ad24 66bb e740 db3b c871 26be
00000010: 5511 98be e389 36be e76b 19be c40a 613e
00000020: aa32 17bf f9fc 173d 9632 2b3e 70ec a5bd
00000030: 55ee d23e 904e 8fbd c38e 45bd e5fc 9ebc
00000040: 2d62 533d a587 97bd dc7c 8a3d 0070 33bd
00000050: d668 293e 921f 6b3f b428 f53e b6c1 65be
00000060: e4fa bfbe 7009 c5bd d77e 26be 92a2 e3bd
00000070: 7008 d9bc 2408 b53e cb27 3d3d 2c35 91be
00000080: 663d 84be 7e0b dd3e eba1 5a3e 7f46 7ebe
00000090: fcf6 20be 611c 223b d637 8f3e 5bca 493f
000000a0: c6b1 b13c 825a 6e3e 8f2f 8a3e dab7 453e
000000b0: 0123 60bc 9c5b 9f3e 9ab3 03be 4a63 64bd
000000c0: be2d d63d c6db 0dbe db1a f93e 54ac 63be
000000d0: 80ae 6bbd 313d 263e fdd3 b7bc 8f73 623e
000000e0: 1289 39bd e713 133e 096c b3bd 299f 86be
000000f0: ea40 a93d 1b09 1b3c d33b a1bc 33af 20bd
00000100: baf6 f6be e70d f13e 5b99 b7bd bf86 1cbe
00000110: 2c3a 6e3d 4969 583f 29ce a5bd 78b2 b23b
00000120: ae58 1e3f 6f5c 1a3f 840a 1e3e 34c4 293e
00000130: a6a6 433d 50b8 073f 47cc 0c3e bff6 c6bd
00000140: 0f9c 0bbe c3f9 54be df79 843e b993 e1bd
00000150: 02f6 a33d 6f7a 31bd 8d47 e43e 67b9 003f
00000160: 9a22 263e 325d 90be 9e49 363e d252 723d
00000170: f1ce 5d3f dc1a d3be 1bc1 d7bd 6d41 1bbf
00000180: e3ef f73d b5ba 3a3d 2339 4e3d 5fe6 f03d
00000190: 70e3 92bd 92e1 a53d 4af9 87be 6183 5b3b
000001a0: fc9b 1abd 0dc9 94bd 124e 913e d60b 85bd
000001b0: 2600 573f ead0 c43d 4aca ecbb b9dc a43e
000001c0: 2919 463e 2352 793d 2709 c3bd 7a07 25be
000001d0: 98a4 bdbe f187 e9bd 8edf 0b3f 3c08 54bd
000001e0: 7a20 493e 0f22 81be b81a 9d3e 3daf 9f3e
000001f0: a6da 13be 9457 2b3d 7a59 0a3e 63ef 5fbe
0.04923932 -0.0035117075 0.0066910866 -0.16254342 -0.29700723 -0.17826037 -0.14982568 0.21976763
-0.5906168 0.037106488 0.16718516 -0.081017375 0.41197458 -0.069974065 -0.04823185 -0.019407699
0.0516073 -0.07398919 0.06762096 -0.043807983 0.16543898 0.9184505 0.47882617 -0.22437176
-0.37496102 -0.09620941 -0.16259323 -0.11114992 -0.026493281 0.35357773 0.046180528 -0.2836088
-0.25828093 0.4317283 0.2135083 -0.2483158 -0.15719217 0.0024736153 0.27972287 0.78824395
0.021691214 0.23276713 0.2698941 0.19308415 -0.013680221 0.3112458 -0.12861481 -0.055758752
0.104579434 -0.13853368 0.48653302 -0.22233707 -0.057539463 0.1623428 -0.022439951 0.22114395
-0.045296736 0.14363061 -0.087608404 -0.26293305 0.082643345 0.00946262 -0.019681847 -0.039229583
-0.48235112 0.4708092 -0.08964797 -0.15285777 0.058160946 0.8453565 -0.080959626 0.005453404
0.61854064 0.6029729 0.15433699 0.16578752 0.04776635 0.53015614 0.137498 -0.09715032
-0.1363375 -0.20798402 0.2587423 -0.11014504 0.08005907 -0.043329652 0.4458584 0.502829
0.16224137 -0.28196102 0.1780152 0.059161015 0.8664389 -0.4123143 -0.10534879 -0.60646707
0.12106302 0.045588214 0.05034746 0.1176269 -0.071722865 0.08099665 -0.2655738 0.0033495056
-0.037746415 -0.0726491 0.28379875 -0.06496398 0.839846 0.0961016 -0.007226263 0.32199648
0.19345535 0.060869347 -0.0952323 -0.16116133 -0.37039638 -0.11402882 0.5463799 -0.051765665
0.19641295 -0.25221297 0.30684447 0.31188384 -0.14438877 0.041831568 0.13510695 -0.21868663

fcl5.weight f4 [4, 128]
00000000: c9ed 243f 1102 babd 8b06 c53c 8b2f 683d
00000010: bf30 6fbf 5e65 c23f 7f81 6cbc 0621 fdbe
00000020: 06ca 8f3c 59de 9fbc 0369 ed3e d972 a83e
00000030: 7242 a73e 963d 6fbd df7e 173d c6fe 083e
00000040: 0b7a b53e 605c b33d e38e 53bf 12a6 6d3f
00000050: 88b5 93bf 13cd a63f 6d67 7a3f 5472 1e3f
00000060: f1df 23bc 6bde e33e a8a2 44bf e436 c53b
00000070: f769 133d ef2d 273f c1ce 183d e56f b7bf
00000080: 1a97 14be 7780 7fbf d23a 26bd 91e0 5f3f
00000090: b33e b6be ceba e0bf 2ccd 713f 75dd 853f
000000a0: 89f2 583f a47e a83f 9566 75bf cf79 72bf
000000b0: 92aa a93f 768b 213e 1f56 783f e8f5 e83f
000000c0: 7a0f 69be a084 06bd 4b54 8c3f 9fb4 bb3e
000000d0: d52d 04bd cdae 603f 8802 aa3d c42a ed3e
000000e0: 1f08 ca3b f1e5 063f 448d 7bbe b237 2cbf
000000f0: b68a 0c40 e321 193e d426 643e 251d f3ba
00000100: 85f3 ea3d af93 dd3f be30 5c3c 211f f93c
00000110: bbaa f23e cec7 ad3f 98b3 9b3d 4cf8 97bd
00000120: 80e8 633e 4209 6a3f b483 be3f 5d15 423d
00000130: c497 083f b311 7bbf 5634 183e a891 36bf
00000140: 0868 eeba 1d12 fe3f f989 87bc 3ede 10bd
00000150: 9e02 0bbf ab78 583e 6124 eb3e 0bf7 e83e
00000160: 94f0 d03f 435a 88bf 4b92 c43f a3dc cb3c
00000170: 66f9 7a3f 14ac 4f3f d531 92bd b3f1 a7bf
00000180: fcb7 343f ee8f bf3e 744e 743f 5ace 723a
00000190: a752 0540 0aed 3dbd f538 dc3f 6a1b 093f
000001a0: 7eb6 54bc 5db1 44bf 7aa9 783f a2fc abbd
000001b0: 1d22 7a3f f34b c1be d59d 953f 7772 1c3e
000001c0: bd1a 123f 9b16 313f 1974 933f daee a13f
000001d0: 2876 463f 9bfe ad3f 208f 933e eff7 bbbf
000001e0: 9a6d 663f 9275 94be f340 70bd 04d5 2fbe
000001f0: a166 98bc 3167 6a3c 7e84 90bf 4d94 623f
00000200: cff3 4abf 49e7 abbd 396c 443d be2c 873d
00000210: dc57 3dbf 3c61 453f 5345 bb3c b4af 423f
00000220: 7f63 76bf 9697 8e3d 9151 9c3f 85eb b63f
00000230: 0d45 433f 15a3 c6bd 74cb 8c3b 1886 b6bf
00000240: 6ee7 0fbf ea37 d2bc ce9d 8f3e 45b8 db3d
00000250: 5ce5 a2bf fe23 723f d144 13bf 4764 a63f
00000260: 3e7c 89bd 0c1d aa3e 4e0b 603f 668a 09bd
00000270: e7a8 98bd 319a 423f ed80 a8be 8e2d 39bf
00000280: b675 6e3f 8052 a9bf 72d3 933f f8d7 7d3f
00000290: 461d 7a3f 65b5 d83e 9486 9f3f c1cd 523f
000002a0: 9cff febd 33c7 d83e 57d8 86bf d0a6 47bd
000002b0: 542c ac3e 02ce 2d3f eceb 2b3e aa23 4d3f
000002c0: dc95 f73e c061 d13c a8af 563f c1d2 743f
000002d0: fe21 933d 31b8 5d3e db71 54bf cf65 543f
000002e0: 06a1 f53c c1e9 a63f 7297 383e 047e 293f
000002f0: 0160 803f 5d91 573e f558 d63f c447 81bd
00000300: 95b8 8d3f 45d3 923f 120b dcbc ae19 b6bc
00000310: 1c8c 943f 2cb6 623f e6b0 213d 60eb e93d
00000320: 0203 36bf 3e92 bc3e d7a8 b53f 2122 bb3c
00000330: 7de2 7cbf 6c7d d1be 3586 6fbc 4ce3 873c
00000340: 413e 073d 724b d43f 62c5 50bf def8 e9bc
00000350: 60fa 0d3f 3883 623f 4d5d 643f 9b3f 0a3f
00000360: 3eb6 503f 8cb4 b5be cf19 0c3f 5fe0 503f
00000370: 44a5 993f d141 423f 870d 5cbd afc0 b6be
00000380: 10f8 723f 9df3 853e cb27 66be 9674 03bd
00000390: 05a6 b43f 96f2 563d 0a94 8fbf ae31 0ebe
000003a0: 8875 f23c b176 33bf eb52 4a3f 85b6 83bd
000003b0: 5f7a 9b3f 7082 7f3f ac5d 9c3f d93d 7c3f
000003c0: e500 71bf c11a 273f 5b8c 9b3f 7bba c83f
000003d0: 8773 c23c cdf7 833f 073c 333e 5d9f 243e
000003e0: 943d fabd 577a 72be 64cc 37be 0553 093e
000003f0: 22e3 b4bc aff1 babc adc9 9abf 28df 103f
0.6442533 -0.090824254 0.024050971 0.056685966 -0.93433756 1.5187185 -0.014435171 -0.49439257
0.017552387 -0.019515203 0.4636918 0.32900122 0.3266788 -0.058408342 0.036986228 0.13378438
0.35444674 0.087578535 -0.826399 0.9283153 -1.1539774 1.3031334 0.97814065 0.618932
-0.010002122 0.4450563 -0.76810694 0.0060185064 0.035989728 0.65304464 0.03730655 -1.4331023
-0.14510766 -0.99805397 -0.04058344 0.87452036 -0.3559471 -1.7557008 0.9445369 1.0458208
0.8474508 1.3163648 -0.9585965 -0.94717115 1.3255179 0.15775856 0.9700641 1.8200045
-0.2275981 -0.032841325 1.0963224 0.3666124 -0.03227027 0.87766725 0.08301264 0.4632169
0.006165519 0.5269461 -0.24565607 -0.67272484 2.1959662 0.14954333 0.22280437 -0.0018548114
0.11472229 1.7310694 0.013439355 0.030410351 0.47395882 1.35766 0.07602614 -0.07420406
0.2225666 0.91420376 1.4883943 0.047383655 0.53356576 -0.9807388 0.14863715 -0.71316004
-0.0018188963 1.9849278 -0.016545283 -0.035368197 -0.5430087 0.21139781 0.45926192 0.4550098
1.6323419 -1.0652546 1.5357145 0.024885481 0.980368 0.81121945 -0.07138411 -1.3120636
0.7059324 0.37414497 0.9543221 0.0009262316 2.0831697 -0.046368636 1.7204882 0.53557456
-0.012982963 -0.76833135 0.971336 -0.08397795 0.977083 -0.37753257 1.1688792 0.1527804
0.5707205 0.6917512 1.1519805 1.2651017 0.7752404 1.3593324 0.28820133 -1.4685038
0.9001099 -0.2899595 -0.05865569 -0.17171103 -0.018603625 0.014306829 -1.1290433 0.8850754
-0.7927827 -0.083937235 0.04795477 0.06600331 -0.7396219 0.7710149 0.022860205 0.7604935
-0.9624557 0.069625065 1.2212392 1.4290625 0.7627724 -0.09699074 0.0042967144 -1.4259672
-0.5621251 -0.025661428 0.28050083 0.10728506 -1.2726245 0.9458617 -0.5752688 1.2999352
-0.067131504 0.33225286 0.8751725 -0.033579253 -0.074540906 0.7601653 -0.32910863 -0.72335136
0.9314836 -1.3228302 1.1548903 0.9915767 0.9770092 0.42325893 1.2462945 0.82345206
-0.12451097 0.42339477 -1.0534772 -0.04874307 0.3362757 0.6789247 0.16789216 0.80132544
0.4835652 0.025559306 0.8386178 0.95634085 0.07184218 0.21652295 -0.8298623 0.8296785
0.029984009 1.3040086 0.18026522 0.6620791 1.0029298 0.21051545 1.6745898 -0.06312516
1.1071955 1.1470724 -0.026860747 -0.022229042 1.1605258 0.8855922 0.039475344 0.11421847
-0.7109834 0.36830324 1.4192151 0.022843422 -0.98783094 -0.40916002 -0.0146194 0.016587876
0.033018354 1.6585524 -0.8155118 -0.028561052 0.55460167 0.88481474 0.89204866 0.54003304
0.8152808 -0.3548931 0.5472688 0.81592363 1.200356 0.7588168 -0.05372384 -0.3569388
0.94909763 0.26162425 -0.22476117 -0.032093607 1.4113165 0.05247744 -1.1217053 -0.13886139
0.029597059 -0.70102984 0.7903277 -0.06431297 1.214672 0.99808407 1.2216086 0.9853187
-0.9414199 0.652752 1.2152208 1.5681909 0.023736728 1.0309998 0.17503367 0.16076417
-0.12218776 -0.23679481 -0.17949063 0.13410576 -0.022080962 -0.022820322 -1.2092797 0.5659051

fcl5.bias f4 [4]
00000000: 0b05 d3bd ac99 1fbe ca64 b33e bf52 923d
-0.10303696 -0.15585965 0.35037833 0.07144689
