p2_continuous-control/implementation/my_actor.pth (torch_old, 88897 bytes, 10 tensors)

fcl1.weight f4 [128, 33]
00000000: 48e0 7e3e b3f8 80bd 1d3f 70bc 954b 87be
00000010: 8c27 8fbe b9be 10bd 56fb f13e da57 383d
00000020: d80c 6bbe 6d77 f53d 846f 8f3c 0dea 7f3c
00000030: bf0f ab3d 428a c63d 8bd3 0cbe 0b84 5f3d
00000040: d0ea 5ebd 95c8 353e b4ec 89be f05b d2be
00000050: 35ad a43d e178 bf3c 309c 9fbd 74f5 123e
00000060: 9693 6bbd cd5c 863d c424 743d bd67 763d
00000070: eb0f cebc 5dcd a33d 6a4f c2bd a4bb 94bd
00000080: 9178 9f3e 7657 d4bd f30d 2b3b ff00 963d
00000090: 4763 bebe 9d9e 343e e4db 28bf 4673 623e
000000a0: 0647 bcbc 48d3 5ebe a026 193e 9928 c23c
000000b0: 478c b63d 1c04 ae3c 3d55 813d ca3a c83d
000000c0: df57 46bd b904 5dbe c025 0abd f5e3 303e
000000d0: 080b 30be 6be1 1d3d 72a7 55bd 65c5 35bd
000000e0: fb8f 7a3d 661f 6a3b cd6a a7bc 0d44 fbbd
000000f0: c83a 1c3e 3c70 d4bd f1c8 37bd 56d4 1abe
00000100: 2583 31bd b3aa 3bbd f60d a53c 5f3f 153e
00000110: f052 bbbd fd9b 9abe e396 763e d2b7 333d
00000120: 28b7 f9be d766 2e3d b275 a2bc 8241 33bc
00000130: e37f 7f3c bcf0 043d 4efe 933c 6cdb 00be
00000140: 437f ae3d b8bb 99bd 9d1f 8b3e 7264 a03e
00000150: 0d91 763b fd53 183e 7e3e e73c 4a82 d8bd
00000160: ea29 083c 8683 1dbd 5773 02bd abc5 8abd
00000170: 85fd 55bb b326 b23d e010 edbd cb59 973d
00000180: e78a 94bd f8b7 76bd 0e76 cebe ce31 863d
00000190: ea99 093d 3ab1 86be b255 8c3d d40c 11bd
000001a0: b3ae 273e 211b 47be 3506 d23d 0bc5 0dbe
000001b0: 916c 593c f304 ee3d 3d9c f1bc ebc2 00be
000001c0: 0c43 05bd 569d 04be 7a5d 0b3c d991 d1be
000001d0: 64a6 adbd 58e7 193d 6a97 07bf 6d96 923c
000001e0: 34c3 0bbe 1b40 9f3d 8dbf ca3d 42b5 eabc
000001f0: b701 15bc 2f7f 613d b4d4 84be b858 7e3c
00000200: ca3f 633d cae0 113e f5c0 943d cc70 48be
00000210: 15e8 ba3a 8083 f23d e3cf 10be 4ecc 02be
00000220: 5bef 433d 54bb 4abf ffb1 843e 5eca 78bb
00000230: d509 a33d bf95 673e d417 aebc 4c3e 683d
00000240: abef e2bc 5f21 84bc 635d 92bc 6198 fe3c
00000250: 7659 023e 2a5d 9e3e fece 003f bf9e 463d
00000260: 37a2 993c 72f0 49bd a81e 82bc 48c7 9c3d
00000270: 38c1 9bbc ffc8 debc 9aef 963d 4064 bfbb
00000280: f8be 18bd 2d76 15bd 4b17 77bd 5f0e a6bd
00000290: 378d ed3e ba01 233d 008e 4f3e c2ab c8bb
000002a0: 5305 15bd a45b 6dbe 0d55 9a3e a9d6 a8bd
000002b0: 53a0 d7bd 4ff9 813e 1fc5 32be 65d5 ad3c
000002c0: 2e68 403d 10ed 963d b145 18bd 1b6c 20be
000002d0: 7c35 86ba c2ed c03e 0770 98bd ad58 9cbd
000002e0: f5e9 913c 4aa4 983c 59f4 d13c 6e90 16be
000002f0: e30f aabb 8855 e5bc 15f2 13bc 7af8 1abe
00000300: 8d63 483e bfb3 19bd f117 48bd 05b0 35be
00000310: aa93 63bd f5de f03e bd14 953c 360b 8f3c
00000320: 2f20 23be 0758 8dbe 0886 04be 9793 503e
00000330: 5978 933c 3f2f 0bbe 7b14 5e3c cb68 2fbe
00000340: d330 84bd f3fa 863d 0377 043d 9b95 e23d
00000350: ee0f f23c 3dab ed3d a876 26be 70e2 98be
00000360: cfaf ee3c 1296 9e3e 968f 7b3c c311 edba
00000370: eebe ab3d 4f85 573c 1332 8cbd b5b7 dd3d
00000380: 7eb7 54be 50ec 483e b638 96bd 3070 bdbb
00000390: e4d1 59be 93d7 66bd bd61 36be 800c fdbd
000003a0: e8fb b7bc 5a8d 033c d47e 313d bd79 c2bd
000003b0: e1e3 d13e af47 f33d cdfb 99bd 84c1 6dbe
000003c0: 0516 08be 0874 36b7 0f4e 3bbc 91d4 dfbc
000003d0: a888 0c3d 9094 5ebd 8133 96bd d4da 61be
000003e0: 4bcb 173f eea3 063d ed33 c1be fe41 e63a
000003f0: 75b9 e33d f9ab 0abc 7f31 123d 065c 913d
0.24890244 -0.062974356 -0.014663485 -0.26424852 -0.2795986 -0.035338137 0.47262067 0.045005657
-0.22954118 0.11985669 0.01750923 0.015619767 0.08352613 0.09694339 -0.13752572 0.054569285
-0.054423153 0.17752297 -0.26938403 -0.41085768 0.08040849 0.02337307 -0.07793462 0.14351445
-0.057513796 0.06560669 0.059605375 0.060157526 -0.025154075 0.07998154 -0.09487803 -0.07262352
0.31146672 -0.10368244 0.0026100844 0.07324409 -0.37185118 0.17638631 -0.65960526 0.22114286
-0.022983085 -0.21760285 0.1495614 0.023701 0.089134745 0.021242194 0.06315086 0.09776838
-0.048423644 -0.21583833 -0.033727407 0.17274459 -0.17191708 0.038545053 -0.05216164 -0.044377703
0.061172467 0.0035724281 -0.020436669 -0.12268839 0.15256798 -0.103729695 -0.044869367 -0.15120062
-0.04333796 -0.04581709 0.020148259 0.14574955 -0.091466784 -0.30197135 0.24080996 0.043876477
-0.4877255 0.042578544 -0.019831512 -0.010940911 0.015594455 0.032456145 0.018065598 -0.12583703
0.08520367 -0.07506508 0.27172557 0.31326634 0.0037623078 0.14875789 0.02822804 -0.10571726
0.008310774 -0.03845551 -0.031848278 -0.067759834 -0.003265233 0.086987875 -0.11575484 0.073901735
-0.07253056 -0.06023404 -0.40324444 0.06552468 0.03359405 -0.26307088 0.068522826 -0.035412624
0.16375236 -0.19443943 0.1025509 -0.13844697 0.013270513 0.11622038 -0.029493446 -0.12574355
-0.032534644 -0.12950644 0.008506173 -0.40931585 -0.08479002 0.037574142 -0.52965415 0.017893994
-0.13648683 0.07775899 0.09899817 -0.028650884 -0.009094647 0.055052932 -0.2594353 0.015524082
0.055480756 0.14245906 0.07263366 -0.19574279 0.001425984 0.11841488 -0.14141802 -0.12773249
0.04783569 -0.7919209 0.2591705 -0.0037962417 0.0796086 0.22615717 -0.021251597 0.056700036
-0.027702173 -0.016129194 -0.017866796 0.03107852 0.12729439 0.30930454 0.50315845 0.048491236
0.018754108 -0.049301572 -0.015883759 0.076551974 -0.019013032 -0.027195452 0.07369919 -0.005840808
-0.037291497 -0.036489654 -0.06032495 -0.0810821 0.463968 0.03979657 0.20269012 -0.0061239908
-0.03638203 -0.2317949 0.30143014 -0.08244068 -0.10528626 0.2538552 -0.17458008 0.021219919
0.046974353 0.07369435 -0.037175838 -0.15666239 -0.0010239328 0.37681395 -0.074432425 -0.07634101
0.017811755 0.018633027 0.02562921 -0.14703533 -0.005189882 -0.027994886 -0.009029885 -0.15133849
0.19569226 -0.037524935 -0.048850957 -0.17742927 -0.055560745 0.47045103 0.018198365 0.0174614
-0.15930246 -0.27606222 -0.12941754 0.20368801 0.018001722 -0.13592242 0.013554688 -0.17129819
-0.06454625 0.065908335 0.03234006 0.11063691 0.029548611 0.11604927 -0.16256201 -0.29860258
0.029136566 0.3097387 0.015354058 -0.0018086958 0.08386026 0.013154342 -0.068454884 0.10826055
-0.20773122 0.19621396 -0.073350355 -0.005781196 -0.21271473 -0.05635793 -0.17810722 -0.123559
-0.022458985 0.008029306 0.043333843 -0.09495876 0.4099417 0.11878907 -0.0751873 -0.23218352
-0.1328965 -1.0875061e-05 -0.011432185 -0.02732304 0.034310013 -0.0543409 -0.07334042 -0.22056133
0.59294575 0.03287118 -0.3773493 0.0017567275 0.111193575 -0.008463853 0.035691734 0.0709763

fcl1.bias f4 [128]
00000000: e974 913d 10e7 dcbc 1402 2abe a8d3 443e
00000010: 13ac e9bd cf0c f6bd a07d d83b 449c 3fbe
00000020: 5ed9 83be b4e4 343e 6285 88be 5073 b5bd
00000030: e694 333e 5f48 8b3d 0b1a f3be 6f0d 3abe
00000040: 773f 04be d1c3 ba3d 1115 61be e928 80be
00000050: a2ca 80be 10ef f0bb 2425 9abd 7389 bdbd
00000060: 1ba3 3f3e 5882 16be e9ff 5fbe d5da 9cbe
00000070: 3c47 51be d27b b3bd d6e0 74bd ba11 c2be
00000080: 7de4 74be 58b7 8cbe 9d35 33be 745f 3fbe
00000090: 9024 2fbe e272 e33c 2ac7 3cbe fe6e 39bd
000000a0: 6061 5fbe 8510 3a3d b369 74be 93f2 d7bd
000000b0: e728 2dbe c366 79bb d8bc fdbd 3cc2 6fb8
000000c0: 162e 4f3e 1f75 0abe 9a8e e13d 5730 213e
000000d0: 5cf8 493d 000e 1b3e 1fbf 0abd 0bbc 35be
000000e0: dfc6 37be 0fb6 d5bd d6b1 27b9 6c5f 84be
000000f0: 25bd 46be 592d d9bd 39db 82be d71c 06bf
00000100: aa7f 3dbd 8be3 a5be f522 52bd 5a23 d1bd
00000110: 587f 0bbe 66c8 70bd 9de2 35be db76 45bb
00000120: 2033 78bd 4911 24be 0d6a c2bd 89a7 1dbe
00000130: 4952 1fbe 7c70 3abe 3467 b43e bcf3 96be
00000140: 31d8 1b3d 2e02 843d 834e 40bb 2397 97bc
00000150: 8c7b 113d db3d bdbe 1da1 58be 0ffa 72be
00000160: b5c4 54be fbd7 67bd ceb1 ffbd 3968 70bc
00000170: 9516 8b3d 5810 1b3e 6799 df3d 7310 85be
00000180: fd10 9f3e 3cbc 3ebe 3844 203d a395 f13d
00000190: a840 dfbd 95ed 41be e373 0a3e 0838 e5bc
000001a0: 4893 663e 9ee3 61be c29b 043d c1d5 9abe
000001b0: f90a 0d3e 537c 0fbe b391 62bd de42 c9be
000001c0: c789 30bd 35f0 02be 42cf e0be f0ec 54bd
000001d0: eb10 233d 9fb8 1ebe 7edc 433e 70c4 533d
000001e0: 35a3 9abb c44f 093e 0f91 1c3c 3372 f63d
000001f0: 348e fabd 14a9 00be eee9 9fbc 8621 c5bb
0.07102377 -0.026965648 -0.16602355 0.19221365 -0.11409774 -0.12014162 0.0066067725 -0.18711954
-0.25751776 0.17665368 -0.26664263 -0.08859885 0.17537269 0.06800913 -0.47480807 -0.18169187
-0.12914835 0.0911938 -0.21980692 -0.25031212 -0.25154597 -0.007352717 -0.07526615 -0.09254732
0.18714564 -0.1469816 -0.21874966 -0.30635706 -0.2043733 -0.08763851 -0.059784733 -0.3790415
-0.23915286 -0.2748363 -0.1750092 -0.18688756 -0.17103791 0.027764741 -0.1843535 -0.045271866
-0.2181449 0.04542591 -0.23868446 -0.10544314 -0.16910134 -0.0038055636 -0.12389535 -5.7162935e-05
0.20232424 -0.1352124 0.11013527 0.15741096 0.04930912 0.1514206 -0.033873674 -0.17747514
-0.17946957 -0.104351155 -0.0001599261 -0.2585405 -0.1940809 -0.106043525 -0.2555788 -0.52387756
-0.046264328 -0.32400164 -0.05130287 -0.10211821 -0.13622797 -0.058784865 -0.17762227 -0.0030130658
-0.06059563 -0.16022219 -0.09492884 -0.15395941 -0.15558733 -0.18206972 0.35234988 -0.2948283
0.038047973 0.06445728 -0.0029343672 -0.018504685 0.035518214 -0.36961254 -0.2115521 -0.23728202
-0.20778163 -0.05660246 -0.124850854 -0.014673286 0.067914166 0.15142953 0.10917931 -0.25989112
0.3106765 -0.18626493 0.03912756 0.11796119 -0.10901004 -0.18938287 0.1352077 -0.02798082
0.22517121 -0.22059485 0.032375105 -0.30241206 0.13773717 -0.1401227 -0.05531473 -0.39308828
-0.043100145 -0.12786944 -0.43908125 -0.051983774 0.039811056 -0.15500115 0.1912708 0.05170101
-0.004719163 0.13409334 0.009556069 0.120335005 -0.12234154 -0.12564498 -0.019520726 -0.006015959

fcl2.weight f4 [128, 128]
00000000: 0d35 8a3e 4f89 753e 6317 2abe 2b52 4d3d
00000010: 6703 9cbc 0875 14bb ea5d efbd bdd0 b23e
00000020: 95bf 803c 25d3 10be b551 ff3d 6905 6cbe
00000030: 6bff 383e 0f55 05be d770 84be 0305 2d3e
00000040: 0597 273d 5248 89bd 6068 9f3d 84e2 9dbd
00000050: 26ac bebe 4f77 06bb 9370 8d3e 540a 733e
00000060: 7e1a 54be 40d3 65bc 9f9e 59be fbff 40be
00000070: 4df9 493d 4cc2 bcbc 557a 1d3e 7151 103d
00000080: 3a4d 0b3e 0995 be3d 1ec8 fc3d 26f2 bb3d
00000090: 81bf 14bd fd1b 5a3d b328 38be 91bd 833d
000000a0: cebe 7dbe 44ef b93e b0fc cdbb e428 55bd
000000b0: 9e6e 44bd cfa3 cebd 8d2d 3e3d 64bf 1b3e
000000c0: 954c c93e 8f34 853e 5cf5 b13d d31b bf3d
000000d0: 444f a63d c7fd 1fbe 39d4 043e db77 9c3e
000000e0: 87e3 c7bd 6c7e 14be 8e07 7b3d 48ff 0c3e
000000f0: c1b8 853e 348d 82be a402 0abe be21 d0bd
00000100: a8dc d23d 7349 603d 6d7b c5bd 0839 10bd
00000110: ec89 cd3d 956b ec3d 0bf8 833d fc99 263e
00000120: 1f66 8abe f0e9 b9be ad0e 1fbe 8809 5ebe
00000130: 2cd2 863e b869 3b3d b4d3 26be 8add 31be
00000140: 794c a0bd 92b4 cdbb 5814 983e 6010 75bd
00000150: e3d2 28bd 919b 6c3e 5c43 42be ffb2 45be
00000160: 7569 cd3d 682e 6cbe 0c72 f63b b6fc c9be
00000170: d781 5fbe 9c3a bd3d 686d dd3d cd11 c43d
00000180: 3da4 7b3c 19ca 28be 172d 8dbe a9f8 6e3e
00000190: c5f8 b73d fd0e 713c 73de 21be 24aa 21be
000001a0: 1b10 ea3d 73a6 443e 68da 4f3e 573b 86be
000001b0: 82bf b83c a6a6 443e f6b0 c03e 592f 923d
000001c0: 56d6 b73d 5706 8fbe 3534 073d 0fb6 0bbe
000001d0: cd0e 063f 4c88 0cbf 02fe fdbd 721d 523e
000001e0: 8c47 f83c 4c97 873c fb4c 7cbb 92b1 1ebe
000001f0: bb10 37be 8a85 113e 101e 1bbe faf8 2fbe
00000200: 793d 6fbe b62f 72be ba42 a6bd 394c b53d
00000210: 9392 d7bc d476 8c3e fd5a 46be 27f7 b63d
00000220: db36 f6bd 628f eebd 57d6 6abe a6ec c9be
00000230: ff4c 063d 759b 4a3d d545 2ebd 0526 ddbe
00000240: 7eaa 983e 6a8b adbd 9ecc 443d 8932 5abe
00000250: 56e2 39bd 4a5f ec3d 11fd 8d3d d3ba 8abd
00000260: ab10 31be 5fa9 1f3e 2112 38be 2fc8 26bd
00000270: e4f3 803e 0795 833d 674d 073e 8eb5 143e
00000280: 7adb 093d b6d4 063e 6753 72be 05ab 8ebe
00000290: 780a 75be 82d2 1fbe e563 8bbd 1554 883e
000002a0: db09 cd3d 4127 013e 42b4 6e3d 61df e2bd
000002b0: 4e50 eabd 7487 ae3d 20bc 85bd 4026 b5bc
000002c0: b91b 10be 9a6a 35ba 87c7 093d 5e94 efbc
000002d0: d3d1 25be c87f b1be 8649 a03e 8806 8abd
000002e0: dff6 91be 7248 dabd 3720 31be ee0b 7cbe
000002f0: 15a7 c9bd eac0 0dbf 5269 e1be 0290 1a3e
00000300: 48f5 1bbe 305b 4f3e 40ea 7cbd f5df 843d
00000310: ac84 bbbe 9513 98be d566 6ebd 46a6 c4bc
00000320: e689 00be bc17 0cbb 405d 89bc 88dd df3b
00000330: 67c9 dfbe 785e 803d 6b68 223e fa5a 4dbe
00000340: 487e 52be 9d96 c03d d7b1 d7bd c1cb d8bd
00000350: 4019 0abf bbe5 3c3e 9e2d a23d 8c5f 7abe
00000360: e908 90be cb0b 1d3c 1848 6e3e 5370 e6bd
00000370: 58d6 08bf 71b6 b9bd c300 c6bc 6c8e 34be
00000380: 290c e23c fe8b 9e3c b420 86be c2ec 3a3d
00000390: 51b8 3b3d f222 da3d 3ff7 ee3d 1d6c 3abe
000003a0: 292d a33d 072c 9cbe e1fd 653e 18ae 1abe
000003b0: a2d0 e1bc 84d1 923e e4b1 2b3e 24ff b6be
000003c0: 060a 50bd f307 08bd 3919 b03d cf70 13bb
000003d0: d4c5 6b3e 0336 b1bd 4962 9e3d 2b70 793e
000003e0: fe8e bf3d a436 3e3e 6ebc 653d 81d9 8a3d
000003f0: 5959 103e 9e7a f9bd 6178 24be b66a 563d
0.269936 0.2397816 -0.16610484 0.05012719 -0.019044591 -0.0022652764 -0.116878346 0.3492488
0.015716353 -0.14143045 0.12466756 -0.23048939 0.18066184 -0.13020729 -0.2586734 0.16896443
0.040915508 -0.06703247 0.0778358 -0.0770922 -0.37240714 -0.002051789 0.2762495 0.23734409
-0.20713231 -0.014027417 -0.21251915 -0.18847649 0.049310017 -0.023041867 0.15378697 0.03523392
0.13603678 0.0930577 0.12342857 0.091770455 -0.036315445 0.053249348 -0.17984276 0.06432641
-0.24779817 0.36315358 -0.006286226 -0.05204095 -0.047957055 -0.10089838 0.04643016 0.15209728
0.3931624 0.26016662 0.08689377 0.09331479 0.081205875 -0.15624152 0.12971582 0.30560192
-0.09760194 -0.14501351 0.0612865 0.13769257 0.2611752 -0.25498354 -0.1347757 -0.10162686
0.10295993 0.054757547 -0.09642682 -0.03521064 0.10036072 0.11543957 0.06443795 0.16269678
-0.27031037 -0.36311293 -0.15532942 -0.21683323 0.26332223 0.045755118 -0.16291696 -0.17369667
-0.07827086 -0.006277629 0.2970302 -0.05983007 -0.041216742 0.23106219 -0.18971008 -0.19306563
0.1002988 -0.23064578 0.0075209197 -0.39450616 -0.21826874 0.092396945 0.10811883 0.09573708
0.015358982 -0.16483344 -0.27573463 0.23337044 0.08982996 0.014713046 -0.15807514 -0.1578756
0.11428853 0.1920412 0.20298159 -0.26217148 0.022552256 0.19204196 0.3763501 0.07137937
0.08976428 -0.27934524 0.033008773 -0.13643669 0.52366334 -0.5489547 -0.12401964 0.20519045
0.030307554 0.016551636 -0.0038498032 -0.15497425 -0.17877476 0.14211097 -0.15148187 -0.17184821
-0.23363294 -0.23651013 -0.08118196 0.08852429 -0.02631501 0.2743441 -0.19370647 0.08933859
-0.120221816 -0.11648442 -0.22933327 -0.3943836 0.032788273 0.04946466 -0.042547066 -0.4319307
0.29817575 -0.08473857 0.0480467 -0.2130834 -0.045381866 0.115416124 0.06933034 -0.06773915
-0.17291515 0.15591954 -0.17975666 -0.040718254 0.25186074 0.06424909 0.1321312 0.14522383
0.033656575 0.1316708 -0.23664628 -0.27864853 -0.23929775 -0.15607646 -0.06806163 0.2662665
0.100116454 0.1261263 0.058277376 -0.110777624 -0.11441098 0.085219294 -0.065300226 -0.022112966
-0.14073075 -0.0006920487 0.03363755 -0.029245552 -0.16193323 -0.34667802 0.31306094 -0.06739527
-0.2850866 -0.10658349 -0.17297445 -0.24613926 -0.098463215 -0.5537249 -0.44025666 0.15093997
-0.15230286 0.20249629 -0.061746836 0.06488029 -0.36624658 -0.2970244 -0.058203537 -0.024005067
-0.12552604 -0.0021376451 -0.016768098 0.0068318285 -0.43708345 0.062680185 0.15860145 -0.20054236
-0.20555985 0.09403727 -0.10531967 -0.10585738 -0.5394478 0.1844701 0.07918857 -0.2445051
-0.28131798 0.009585331 0.23269689 -0.11251893 -0.5345206 -0.09068001 -0.024170285 -0.17632455
0.027593689 0.019353863 -0.26196826 0.045635946 0.045830075 0.106511965 0.11668252 -0.18205304
0.07967598 -0.3050234 0.22460128 -0.15105474 -0.027565304 0.28675473 0.16767079 -0.35741532
-0.05079081 -0.033210706 0.08598561 -0.002249766 0.23024684 -0.0865288 0.0773359 0.24359195
0.093534455 0.18575531 0.056087904 0.06779767 0.14096583 -0.121815905 -0.16061546 0.05234786

fcl2.bias f4 [128]
00000000: 1e96 103d 0816 c7bd 4290 90be ea2e 6b3d
00000010: e40d 95be 5b3b b33c 528b c93d 3405 243e
00000020: b9fb d1bd b15d e1bd 8679 42be 9638 72be
00000030: c917 e2bd 45ce cdbd 3d61 47be 423d ea3c
00000040: 24c1 123d 5afe 61be b374 d7bc 9c84 573d
00000050: 5ee5 92be 9d00 5fbd 2328 783b bb0b 4fbd
00000060: e09b 0d3d 4012 f3bd cf2d e4bc ee88 3bbe
00000070: caf1 b8be 90e9 c3be 5707 0fbe 6e77 88be
00000080: 27da 153d ddfa a6bd 503a a23d 7ebd 4abe
00000090: fada 95be 26a3 88be 2436 b9bd a836 aabe
000000a0: 983e 013e 5118 3fbe c08e ffbd 49e9 d7bd
000000b0: 320f c2bc 84c1 38be 6efb 573d 64fe 4bbe
000000c0: 25bf 863d 139a 0fbe 181b 3d3c 2eba d43d
000000d0: d78a cabd 5910 5abd 0565 52bd 6f34 57be
000000e0: 460b b33c 01a9 46be c065 a33d 4832 74be
000000f0: 69c2 f83d 8f60 97be b203 cebc 2508 f53d
00000100: 21c8 193e ab4e 463d 15f4 85bd c751 ddbd
00000110: 54e6 59be 69ab 2ebe 8901 683b a3a8 28ba
00000120: 319b b9be e339 43be 5aae 51be 0001 983d
00000130: 6580 2abe eb99 93be d286 71bc f0e6 e1be
00000140: ecc8 9cbd 10ff 633d 57aa e1bc aee2 30be
00000150: 8fa1 00be ab25 8dbd 9955 d0bd 4963 24be
00000160: acfb 2e3e df1a 9cbe 93b5 473e b87c 14be
00000170: b227 60be 945b 42be 179f b2be 89fc b0bb
00000180: 1980 f1bc b27a 473e 7c21 eebd fa75 bebd
00000190: 7d03 fd3d 4e45 a33d cb80 7f3b 43dc 52be
000001a0: 5426 ce3d d7b7 59bd e2a5 21bd a2e6 633d
000001b0: 7124 f2bd 9e0d b63d ba87 18bc 4a06 fb3d
000001c0: 5972 f93d 5e9e 83be b8a0 10bd 0bcf 3bbc
000001d0: cf45 ae3c dfd3 4cbd 9962 23bc dd02 12be
000001e0: d954 29bd b959 cebd c5b5 08be f559 833d
000001f0: 718a 85be 2324 c1bd 95e8 593d 97d3 683d
0.035299413 -0.09720999 -0.2823506 0.057417788 -0.2911216 0.021878889 0.09841026 0.1601761
-0.102530904 -0.11004198 -0.1899167 -0.23654398 -0.11039693 -0.100491084 -0.19470687 0.028593663
0.035828725 -0.22069684 -0.026300764 0.0526167 -0.28690618 -0.054443944 0.003786572 -0.050548296
0.034572482 -0.11868715 -0.027853874 -0.18313953 -0.3612197 -0.38264132 -0.13967644 -0.26653618
0.036585 -0.08153317 0.079212785 -0.19798848 -0.29268628 -0.26686972 -0.0904353 -0.33244824
0.12621534 -0.1866162 -0.12478399 -0.105425425 -0.023688886 -0.1804257 0.052730016 -0.19921261
0.06579427 -0.14023618 0.011542104 0.103870735 -0.09889763 -0.053238247 -0.05136587 -0.21016096
0.021855962 -0.19400407 0.07978392 -0.23847306 0.12146456 -0.29565856 -0.025148246 0.11964444
0.1501775 0.048414867 -0.065406956 -0.108066134 -0.2127927 -0.17057575 0.0035401306 -0.000643382
-0.36251214 -0.19065051 -0.20476666 0.07422066 -0.16650541 -0.28828368 -0.014741616 -0.44121504
-0.0765551 0.05566317 -0.027547045 -0.17273971 -0.1256163 -0.0689195 -0.101725765 -0.160535
0.17088193 -0.3048925 0.19502859 -0.14500701 -0.21890143 -0.18980247 -0.34887 -0.0054011983
-0.029480027 0.19480398 -0.116274804 -0.09299846 0.12354181 0.07972203 0.0038986679 -0.20591836
0.10065904 -0.05315384 -0.03946484 0.05563987 -0.11823357 0.08889316 -0.0093097035 0.12257059
0.12180013 -0.25706762 -0.035309523 -0.011462937 0.021273522 -0.050006744 -0.009972238 -0.14258905
-0.041340683 -0.10075707 -0.1335059 0.06413642 -0.26082185 -0.09430721 0.053200323 0.056842413

fcl3.weight f4 [4, 128]
00000000: 7b75 213e 1c86 853e a92e 923e c5eb a2bd
00000010: 6a28 02be 969f f63e e275 55be a8fd b0bc
00000020: b8e0 56be bade d4bd 0fa0 3e3e 5d54 74be
00000030: d9eb eabe 5f06 8cbe d838 2fbe 991b 56be
00000040: 69d5 363e 7410 68bd a8af bbbd 869c 83be
00000050: 1c64 063c 103e a2bc 6bbe 743e 49b1 733e
00000060: 4bad e73e 54bd 45bd d5cb 65be c4a4 e63e
00000070: 72a1 803e 955d 64bd db94 633d 61a1 033f
00000080: a96b 783e 40be 0a3e a3c7 f93e 96b0 d83e
00000090: b5d0 b13c 163b 6cbf 2afd 173d 4c80 073f
000000a0: b2af 873c f10b b7bc a55b 1a3e d546 8bbc
000000b0: 7da4 ebbe 4ff4 6dbc 1d75 61be 4e29 3f3f
000000c0: dd66 1cbe e7e8 123f acea e0bd ad17 13bd
000000d0: 2e0f 39be 3fdb b23e eb1f 35bf 30ec e1be
000000e0: fa6b 94be 9457 153e c994 9abe 7397 2cbe
000000f0: f49f e1bd 45a9 90bd 89df 9b3d 6ede fabe
00000100: d10b 553e d141 0abe b81c 2a3d 83d1 953e
00000110: bed5 07be 9d5b d8be d8b8 103c f80b 963e
00000120: d26b b5bd 51fd bbbd 8445 15bf dd4c 04bf
00000130: f7d5 93bd c3a3 95be 5cb7 cdbe d97a 85be
00000140: 0dc4 883e f742 a1be 8db9 073e 4d5a 423e
00000150: bf4e 993d a042 143f 96d9 c83d 5739 0fbf
00000160: 7bcf 09be 12bc 33bb 8313 c2be a2f5 793e
00000170: 9ba5 293e dfd6 a6be 445d 02be e823 de3e
00000180: b1c0 e6bd 20da d0be 2f18 17bf 0db9 dd3d
00000190: 8a58 d6bd c4f1 21be 0183 4fbe 4c57 4e3e
000001a0: 361e 423e cba8 48bf 0624 dd3d 2541 943e
000001b0: 0bc5 833e 9d53 91be ee5e ed3e 29cb e23e
000001c0: 14e7 803b 545d 88bd 7257 c33e cbe1 eebe
000001d0: 1f91 d03d c0e1 03be b7c8 28bf c8aa 803e
000001e0: 03af 88be a3cc 133e 6b1a f63e 75db 273e
000001f0: c1dd 883e 9a03 2f3c 3a63 d43d feff 2dbf
00000200: df7e 90be 301e 703e 3cdf 603e 23e6 cd3d
00000210: 1c94 b2bd 678b ebbd 7b24 303f 34cb 39bf
00000220: 71e6 a53d 0c6a ca3e a70a 27be 1b3e c2be
00000230: 6505 373d 339f 0e3f 9fab 343f db4c 333f
00000240: 4b1c 933e e422 2dbe b74f 40bf af60 f83d
00000250: 4b41 0f3f 7c78 82be dc41 8fbd e615 7fbc
00000260: aff6 2bbe 4f20 04bf 51aa b93e b991 9fbd
00000270: 354e 8c3f c20d 353d 2f52 7d3d dea3 7bbe
00000280: e7c5 80be 2196 f13d 6eb4 353e 84fb 8a3e
00000290: 755e 5a3e f355 13be 1be8 82be 07d1 cfbe
000002a0: 735c 283f c0f0 2abf 4e89 683f 069a 89be
000002b0: 7f8a b03e b0b5 14bf 3c08 f73e 9cc8 c63d
000002c0: 2143 00be 4366 103e dc2c 93be 2bfd 093e
000002d0: 7c9c 73be 53d2 6e3d 7f8a ac3e ff6d 21bd
000002e0: 1f1a 243f 5985 1c3e 5ed3 333d 2aac e6be
000002f0: eb86 0cbf e5b8 fe3d 7555 dc3d 4b51 b73e
00000300: 44bd 9fbd 4314 343e 5a6c 103f caaf 753e
00000310: 1ecf a6be ab9f a23d 602f 833d 550d 34be
00000320: 52c9 a83e 8ff0 85bf 9b0e e8bd a002 1e3f
00000330: ab41 ccbe aff3 6ebe 4d0a 0a3e acfa a6bd
00000340: ee06 8d3e 3e71 0b3f 0e4e 85be 86ea 4a3f
00000350: 9eab 4ebe 7625 3a3e a9ca 36be 09ab 303d
00000360: 23c7 2abf 5ee3 a43e 5097 5cbe 1f42 9bbe
00000370: 1afb 683e addb 0fbf 7adb d53e 0823 e53d
00000380: 01ce 6a3e 42c6 47bd c1b5 4f3f 3df0 18be
00000390: 72f5 26bf 199f 69bf 61d3 0a3e 06c6 993e
000003a0: 7101 9cbe 696f 9dbd 9b95 5ebe ac82 a93e
000003b0: 7f21 9f3d c881 ed3d 26cb 4bbe 267f 683d
000003c0: 1a1f 893e b9ec 0b3f 2b3e d5bd bff1 7dbe
000003d0: 175f 2f3e afc3 37bf e6e3 efbe 4b84 833e
000003e0: 0013 943e 7bd1 0ebf 2ee9 a4be e9bb cd3d
000003f0: 550f e53e 840d 5bbf 4111 2abf 0c8d 3d3e
0.15767471 0.2607888 0.28551224 -0.07955126 -0.12710729 0.4816863 -0.2084575 -0.021605328
-0.20984161 -0.10394044 0.18615745 -0.23860307 -0.45883062 -0.2734861 -0.17111528 -0.20908965
0.17854847 -0.056656316 -0.09164363 -0.25705355 0.008202579 -0.019804984 0.23900764 0.23798098
0.452494 -0.04827626 -0.22441037 0.4504758 0.25123173 -0.05575331 0.05556188 0.5141812
0.24259819 0.13549137 0.48785123 0.42322224 0.021705965 -0.9227766 0.03710667 0.5293014
0.01656327 -0.022344561 0.15074022 -0.017001549 -0.46023932 -0.01452358 -0.22017331 0.746724
-0.15273614 0.5738663 -0.1098226 -0.03591125 -0.18072197 0.34932896 -0.7075183 -0.4412551
-0.2898863 0.1458419 -0.3019164 -0.16854648 -0.11016837 -0.070635356 0.07610995 -0.48997825
0.20805289 -0.1350167 0.041531295 0.29261407 -0.1326513 -0.42257395 0.008833133 0.29306006
-0.08858456 -0.09179176 -0.583092 -0.51679784 -0.07218545 -0.29226503 -0.40178955 -0.26070288
0.26712075 -0.31496403 0.13254376 0.1897976 0.07485723 0.5791416 0.09807126 -0.5594687
-0.13458054 -0.002742533 -0.3790551 0.24410108 0.1656708 -0.3258581 -0.1273089 0.4338677
-0.11267222 -0.40791416 -0.59021276 0.10826311 -0.10466106 -0.15814883 -0.20264818 0.20150489
0.18956837 -0.7838256 0.107978866 0.2895595 0.2573627 -0.28384104 0.46361488 0.44295624
0.0039337967 -0.06658426 0.38152653 -0.4665664 0.1018393 -0.12879086 -0.65931267 0.25130296
-0.26696023 0.14433531 0.4806703 0.1639231 0.26731685 0.010682011 0.103704885 -0.6796874
-0.28221795 0.23449016 0.21960157 0.10053661 -0.08719656 -0.11501198 0.68805665 -0.7257569
0.08100594 0.39534032 -0.16312657 -0.37938008 0.04468288 0.5571167 0.70574373 0.7003915
0.28732523 -0.16907841 -0.75121635 0.12127816 0.55959004 -0.25482547 -0.069949836 -0.015569186
-0.16793321 -0.516118 0.36262754 -0.07791466 1.0961367 0.044202574 0.061845955 -0.24574229
-0.25150988 0.11796213 0.1774461 0.27145016 0.21325095 -0.14388256 -0.25567707 -0.40589163
0.65766066 -0.66773605 0.9083451 -0.26875323 0.34480664 -0.58089733 0.4824847 0.09706232
-0.12525608 0.1410151 -0.28745162 0.13475482 -0.23790163 0.05830605 0.33699414 -0.03941154
0.6410236 0.15285243 0.043902747 -0.45053226 -0.5489337 0.124376096 0.10758487 0.3580421
-0.077997714 0.17585854 0.5641533 0.2399284 -0.32579893 0.079406105 0.064055204 -0.17583211
0.32966095 -1.0464038 -0.11330911 0.61722755 -0.3989385 -0.23335145 0.13480492 -0.081532806
0.2754435 0.5446967 -0.26036114 0.79264104 -0.20182654 0.18178353 -0.17850746 0.04313186
-0.6671011 0.32204717 -0.21542096 -0.30323884 0.22752038 -0.56194574 0.4176901 0.11188322
0.22930147 -0.048773058 0.8113671 -0.14935394 -0.6521827 -0.9125839 0.13557197 0.30033892
-0.3046985 -0.076872654 -0.21736757 0.33107507 0.07770061 0.115970194 -0.19901714 0.056761883
0.2678154 0.54658085 -0.10412248 -0.2479925 0.17126118 -0.71782964 -0.4685356 0.2568687
0.28920746 -0.5578839 -0.32209152 0.10045607 0.4473826 -0.855675 -0.6643258 0.18510836

fcl3.bias f4 [4]
00000000: a3c0 fc3b 0c64 bd3d 998f 653c cb61 a9bd
0.007713394 0.09247598 0.014011287 -0.08270606

bn1.weight f4 [128]
00000000: 54ce 313f 5c97 403f 299e 4c3f 70c0 5e3f
00000010: 04ee 6a3f 1d25 0d3f 2f6e 5b3f 22e9 273f
00000020: 1bc4 883f bf8a 513f 0ebf 8f3f f51a 163f
00000030: 7497 913f edf8 5f3f 33a7 013f 033c b53f
00000040: d27b 4c3f b525 9b3f 6117 923f f487 873f
00000050: f5f0 403f cfeb 813f 3ae3 343f ef71 823f
00000060: 6a1f 823f 6893 383f 1543 8e3f aa3f 533f
00000070: b9f4 3c3f d211 533f cb01 183f 1ef0 5b3f
00000080: 777c 503f 1a3b 3d3f f135 123f 4928 2c3f
00000090: 117e 823f 25c9 4c3f e91b 843f 9751 653f
000000a0: 4d16 0e3f 076a 0f3f 59c5 403f e6aa 463f
000000b0: 51ab 5b3f 2c1c 963f 37b8 963f c67b 273f
000000c0: aeb9 1e3f 05e2 883f ebb1 303f 0b94 5e3f
000000d0: 4302 373f dbc6 9d3f 2aed 283f 2f96 043f
000000e0: 25f8 453f 4040 4d3f 6e00 823f a6f8 823f
000000f0: 7326 123f 194d 263f db79 563f dc23 223f
00000100: ced5 423f 5e20 6e3f 6d5f 1e3f 14e8 423f
00000110: bc35 723f 4571 253f e544 4e3f d6b1 9f3f
00000120: 0401 ff3e 828d 203f b784 493f e0e9 2e3f
00000130: ac55 973f 7de7 7f3f b942 8c3f fdef 363f
00000140: 1bb4 533f 9f6a 4a3f c1a2 533f 1339 7e3f
00000150: 2677 1b3f f3a1 4d3f 8969 853f ef17 9d3f
00000160: bf88 5a3f f925 483f c73a 1a3f e388 2a3f
00000170: d044 043f 7a96 863f 27fe 513f f048 653f
00000180: 5720 413f 1cae 3a3f deee 8f3f b234 753f
00000190: cffd 523f 2497 2a3f 96b0 933f 378d 153f
000001a0: a000 5b3f 2470 483f 21f8 103f fbb8 7d3f
000001b0: f709 613f c26e 763f 6f01 dd3e 9f22 723f
000001c0: 54c2 2a3f 89be 643f a7ea 5c3f 91f6 3c3f
000001d0: 952c 833f 852e 483f 16f1 743f d7cf 6b3f
000001e0: c6ef 393f b785 643f 3f25 6e3f 302f 693f
000001f0: cced 5f3f 9718 593f 1cfa a23f 69db 953f
0.69455457 0.75230956 0.79928833 0.87012386 0.91769433 0.55134755 0.85715 0.6559011
1.0684847 0.81852335 1.123018 0.58634883 1.1374345 0.87489206 0.5064575 1.4158939
0.79876435 1.2120882 1.1413385 1.0588365 0.7536767 1.0150088 0.7065922 1.019102
1.0165837 0.72099924 1.1114222 0.8251902 0.7381092 0.82449067 0.59377736 0.85913265
0.8143992 0.73918307 0.5711356 0.6724897 1.0194722 0.7999442 1.0321018 0.8957762
0.5550278 0.5602116 0.7530113 0.7760452 0.85808283 1.1727347 1.1774968 0.6542324
0.62002075 1.0693976 0.6902148 0.86944646 0.71487826 1.2326311 0.65986884 0.5179166
0.77331764 0.8017616 1.0156381 1.0232131 0.5708992 0.6496139 0.83779687 0.6333597
0.7610749 0.9301814 0.6186436 0.76135373 0.9461324 0.6462596 0.80573875 1.2476146
0.49805462 0.62715924 0.7871813 0.68325615 1.182302 0.999626 1.0957862 0.71459943
0.82696694 0.7906894 0.8267022 0.9930584 0.6072868 0.8032524 1.0422832 1.2272929
0.8536491 0.7818294 0.6024594 0.6661512 0.516675 1.0514672 0.8202843 0.8956442
0.7543997 0.7292192 1.1244771 0.9578353 0.8241853 0.6663687 1.1538265 0.584186
0.8554783 0.78296113 0.56628615 0.9911038 0.8790583 0.96262753 0.43165156 0.9458408
0.6670277 0.89353234 0.8629555 0.7381373 1.024798 0.78195983 0.9568037 0.92114013
0.7263149 0.8926653 0.93025583 0.9108763 0.87472224 0.84803146 1.2732577 1.1707584

bn1.bias f4 [128]
00000000: 7915 22be 4f95 73be 489e a03d 0178 b3bd
00000010: 1ee5 a2bd 10f9 2ebe f985 01be 4933 21bd
00000020: 2a74 fd3c 9a5c d13d 1a01 1f3e 87d6 4e3e
00000030: 5b5e a13d d075 95bd ee8d 5b3e 1eee 563e
00000040: 47ad 1d3e f4cb 57bc 16ab d6bd 95a9 9e3e
00000050: 4525 b23d 877e 0d3e 4193 bc3d 1340 f63d
00000060: 054d 3cbd 78bb 84bc 0118 d13d 8f9c 06bd
00000070: 1ef6 623e ee8c c73d 935a 893d 5220 2c3c
00000080: 0c9e 5d3d 7114 1c3d 5256 0bbd f76c 313e
00000090: f66b 1bbe c4de ed3d e1a7 c43c 970f 6ebd
000000a0: 58dd 0f3e c4d3 14be 342e 97bd d70f 993e
000000b0: 7e7a bc3c 5027 933d a85f 2e3e afb4 523e
000000c0: 9923 103d 6a5f bcbd 7b5b c33c 78e3 1a3e
000000d0: d4e7 863d 8d6b 283c 9479 8ebe 87f4 3cbe
000000e0: 2954 fa3e 4871 8c3d 03b1 a73e 0657 2f3e
000000f0: 5d5b 493e 2c09 c13e 80b4 823e ce17 e13d
00000100: c8e4 c8bd c189 e83b ebd0 fcbd 4c9d 85be
00000110: d392 913d b65d 0e3d 43a6 2dbd ad04 513d
00000120: 29b5 c3bd b9a8 ccbc 54bd 4f3d 16f3 0c3e
00000130: 703a e13e b77d ffbd 1aaa 3f3e 709c ca3d
00000140: bbf4 2f3e 9ed2 fb3b d1cb 693e 96b8 3bbd
00000150: 121e 3e3e f48d e83d 9ea1 533e c2ac a13e
00000160: 9aff 1f3c 319d 613e aaa7 2abc 405a d33d
00000170: 25d9 e33d 378a e53d 112f 4bbd 227c 9a3d
00000180: e4b0 463e 6e6c b1bd 4e1f b4bd 464b 67be
00000190: 1604 3cbe 00fa 473e 9086 bebe 0e6e c4bd
000001a0: 6f4b 25be 0ffb 853c 7edc aabd 65c6 873c
000001b0: 2b68 153e b9f4 4b3e 2597 273e 51a1 7f3d
000001c0: 6fb6 bf3d 6898 853e 8630 90be 0bcd ecbb
000001d0: f646 e43d 1cc4 d23c 078b 2a3d b4f5 343e
000001e0: 9ebf 253e 89f8 fc3e 25b6 263d 6aa3 d33b
000001f0: 6885 8d3d 9a58 f53d 5dd9 0fbe d682 32be
-0.15828504 -0.23787425 0.0784269 -0.08763123 -0.07953857 -0.17087197 -0.12648763 -0.03935555
0.03093918 0.102227405 0.15527764 0.20199023 0.07879325 -0.072978616 0.2144086 0.20989272
0.15398131 -0.013171185 -0.10481851 0.30988756 0.08698515 0.13817798 0.09207774 0.1202394
-0.04597189 -0.016202673 0.102096565 -0.03286415 0.22164199 0.09743677 0.06706729 0.010505753
0.054105803 0.038105432 -0.03401787 0.17326723 -0.15177903 0.11614755 0.024005832 -0.058120336
0.1404928 -0.14533907 -0.073818594 0.29894897 0.023007628 0.07185233 0.17028677 0.20576738
0.0351902 -0.09197886 0.023847332 0.15125835 0.065871865 0.010279548 -0.27827132 -0.18452655
0.48892334 0.06857544 0.32752237 0.1712304 0.19663759 0.3770231 0.25528336 0.109908685
-0.098092616 0.0070964997 -0.123445354 -0.2609657 0.071080826 0.03475734 -0.042394888 0.05102985
-0.09556038 -0.024982797 0.050717667 0.13764605 0.43989897 -0.1247515 0.18717232 0.09893119
0.17183201 0.0076850196 0.22831656 -0.04583033 0.18566158 0.113552004 0.20667121 0.31577116
0.00976553 0.2203262 -0.010415951 0.10319948 0.111254014 0.11208003 -0.049605433 0.07543208
0.19403416 -0.086632594 -0.087950334 -0.22587308 -0.18360934 0.19528961 -0.37212038 -0.09591304
-0.16142057 0.016355066 -0.08342837 0.016574094 0.14590518 0.19917573 0.16366251 0.062409703
0.09360968 0.2609284 -0.2816202 -0.0072265915 0.11146347 0.025728278 0.041636493 0.17671853
0.16186377 0.49408367 0.04070105 0.0064586895 0.06910211 0.1197979 -0.14047761 -0.17432722

bn1.running_mean f4 [128]
00000000: a016 4e3f 8798 bd3d f99d 343e 8148 be3f
00000010: 5027 a53d d997 5c3e d5c9 8d3d 1818 a23e
00000020: 5696 053f 26d6 283f 8ef9 083e d1a8 103f
00000030: b753 263f 9edc af3e f51e be3d af3b 813d
00000040: 3200 be3e c0b1 843f 3278 4f3e 271c d23d
00000050: 5db0 293f 04f5 673f e40d 933e 474a 4e3d
00000060: 5d98 e43e 7d8c a53e e1ef ef3d 2f96 cb3d
00000070: 109a e93c d11e 5f3e f245 073e 822d ad3e
00000080: d5ca 313d 3966 cc3c 5a2c 973d 0a7b d93e
00000090: 3240 5e3e 39fd a03c 0c27 203e ef17 fa3d
000000a0: 12d5 273e 5f45 783e ad28 b73e d3bb 9b3e
000000b0: 543c bc3d 627f 143d 5d00 c93e 588f eb3e
000000c0: 63fe ff3d 9c5b 553d 3e2a 843f aa81 363f
000000d0: 022a cd3e c390 623f 7e46 dc3e 18a2 8d3e
000000e0: 4d99 243f 1df8 9c3d c78d 733f 2edd d03d
000000f0: efa8 703f f344 fb3e 7d2e 0c3e 5d7d 493d
00000100: 5855 593f 05dc 103d 5802 a83d 0975 593e
00000110: 445b 553e d223 7d3f fdb8 d63d 0c12 bf3e
00000120: df7e 963e 0d5c 723d ec65 333e 6aed 713e
00000130: 29b1 a33d 4eb4 a23e dab1 973f ce24 353e
00000140: 4fe2 443f 42ae 543f 1f72 ad3e 8b7a 783e
00000150: b371 bd3e d875 ec3e 1616 1b3e c2b5 ff3e
00000160: ddeb 303d be7c d83e d3f6 de3d d8bf 393e
00000170: 04bb 513f fde3 033e 33cb ad3e 35eb 133e
00000180: d4b1 483f 4743 9d3e d330 e03d 606d 193f
00000190: 9828 143f f7fa 823e f8a4 be3e c137 393e
000001a0: 2043 ac3e ea6c 8a3d aed0 b23e 27b1 b43c
000001b0: 24f3 0b3f e8b3 9e3d a0c3 963c e6db b23e
000001c0: 7d1a 2a3f d03f c63d 46e9 173e 0e4c 4d3f
000001d0: 62c3 af3e 667d 273e c684 793f 729b 1c3f
000001e0: 182d 623f 703a 033f 240e 6d3e 27f4 d53e
000001f0: 108f a33d 93a7 bf3d 68b2 193e 1c4f 0f3f
0.80503273 0.09257608 0.17638387 1.4865876 0.08064139 0.215423 0.06923262 0.31659007
0.5218252 0.65951765 0.13376448 0.56507593 0.6497149 0.34348005 0.09283248 0.06310212
0.37109524 1.0366745 0.20260695 0.10259276 0.66284734 0.9060824 0.28721535 0.050363805
0.44647494 0.32333747 0.11715675 0.099407546 0.028515846 0.217891 0.13210276 0.33823782
0.043406326 0.024951087 0.07381506 0.42476684 0.21704176 0.019651996 0.15639895 0.12211596
0.16389874 0.24245213 0.3577322 0.30416736 0.09191194 0.036254294 0.3925809 0.460078
0.12499692 0.05208932 1.0325391 0.712916 0.40071112 0.8850214 0.4302253 0.2766273
0.6429642 0.07664511 0.9513821 0.10198437 0.9400777 0.49076042 0.13689609 0.04919182
0.8489585 0.035366077 0.08203572 0.21236052 0.20835596 0.9888278 0.104845025 0.37318456
0.2939367 0.059169818 0.17519349 0.23625723 0.07992775 0.31778187 1.1851151 0.17689821
0.7690782 0.83078396 0.3387613 0.24265496 0.37000808 0.46183658 0.15145144 0.49943358
0.043193687 0.4228267 0.10886922 0.18139589 0.8192599 0.1287994 0.3394409 0.14445193
0.78396344 0.3071539 0.109468125 0.5993252 0.5787444 0.25582096 0.37235236 0.18087675
0.33644962 0.06759055 0.34924835 0.02205713 0.5466788 0.07749158 0.018403828 0.34933394
0.6644667 0.0968014 0.1483508 0.80194175 0.34328753 0.1635643 0.9746822 0.6117469
0.8835006 0.51261044 0.23149925 0.41787836 0.079862714 0.09358134 0.15009463 0.55980086

bn1.running_var f4 [128]
00000000: 2600 303f e26f 883d 1800 0d3e 4b85 0f3f
00000010: ded9 363d 8e70 1c3e 7155 613d b92b 5c3e
00000020: 7dd1 193f ebc7 843e 3771 833d 6030 e93e
00000030: d82b 373f e8f0 693e 6b07 553d 0e4d 013d
00000040: f198 1a3e 91d0 323e 174e dd3d 85e6 3a3d
00000050: dd31 323f 3609 913f f5b5 303e 679e 023d
00000060: 8add 773e a4d0 4d3e c79b ae3d b7cd 7a3d
00000070: 76e0 ac3c 0e16 0d3e 25ac 7f3d 735d 7a3e
00000080: 9510 903c 7790 233c 71e8 393d 2c07 883e
00000090: 1f35 1e3e bc5e 433c 25b2 d93d 3ec9 9f3d
000000a0: b7fa da3d a8fb 063e ee17 c53e 0cfa 663e
000000b0: cd2d 863d 1d71 cd3c 9c05 413e ba43 b13e
000000c0: 0be7 ba3d 1347 873c 4b78 b33f 4a3f 073f
000000d0: 8754 b63e f53d b93e bfe3 d43e 53ca 323e
000000e0: 658b d33e 0eae 333d b2fb 103f 6ae4 433d
000000f0: 7360 973f 2d70 d43e 2599 923d 728b d03c
00000100: cb70 363f 68e3 953c 691f 333d 9de2 163e
00000110: 495a 073e 2b02 643f cfb8 5b3d 34e9 383e
00000120: fdc7 533e 1ff5 1b3d 448d fb3d 880d 6d3e
00000130: 5e40 363d 0b62 843e 89a9 1c3e db77 8b3d
00000140: 450a e13d af4c 2b3e 58a4 773e edac 683e
00000150: 8578 9c3e 50e4 903e e361 d63d 7900 a63e
00000160: d14b a63c 3013 8c3e e9a0 bd3d 0c74 ea3d
00000170: ead6 d63e c509 da3d 221b 113e 8a12 0c3e
00000180: 2ce4 e13e 5c33 8f3e 1984 9a3d 003c a23e
00000190: d441 143f 1771 213e 76c4 723e 59b6 bb3d
000001a0: fb0b 853e 89e3 6d3d 02ae 583e bca3 383c
000001b0: 1dbc 4d3e 57b9 5a3d a576 823c fcca 943e
000001c0: 0c39 093f 16a5 5b3d 2788 b33d 1178 523e
000001d0: f8ff 4b3e e525 c93d 80c3 863f c92c be3e
000001e0: 6c71 983e e8a5 023f d527 1a3e 462d 803e
000001f0: 5856 183d 9dfe 613d e16b ae3d ef0f c63e
0.68750226 0.06661965 0.13769567 0.56062764 0.044641368 0.15277311 0.055013124 0.21501054
0.6008528 0.25933775 0.064180784 0.4554472 0.71551275 0.22845805 0.052009027 0.031567626
0.15097405 0.17462374 0.1080591 0.045629997 0.69607335 1.1330936 0.17256911 0.031889345
0.24205604 0.20099121 0.08525806 0.06123134 0.021103125 0.13777944 0.06242003 0.2444971
0.017586032 0.009983174 0.04538769 0.26567972 0.15449952 0.011924442 0.106296815 0.07802056
0.10692351 0.13181937 0.3849482 0.22556323 0.065517046 0.02507835 0.18849796 0.34621984
0.09126099 0.016513383 1.4021086 0.52830946 0.35611364 0.36180082 0.41580006 0.17459993
0.41317287 0.043867163 0.56634057 0.047825254 1.1826309 0.41491833 0.07158116 0.025457118
0.7126586 0.018296912 0.043731127 0.14734884 0.13218035 0.8906581 0.053643044 0.1805771
0.20681758 0.038075563 0.12282804 0.23149693 0.04449498 0.2585605 0.15299048 0.0680997
0.10988287 0.16728471 0.24183786 0.22722216 0.305607 0.2829919 0.10467889 0.32422236
0.020299824 0.2735839 0.09259207 0.114479154 0.4196084 0.10646395 0.14170507 0.13678947
0.44119394 0.27968872 0.07544727 0.316864 0.57912946 0.15765797 0.23707756 0.091656394
0.25985703 0.058078323 0.21160129 0.011269506 0.20091291 0.05339941 0.015925715 0.29061115
0.5360267 0.053624235 0.087662034 0.20553614 0.19921863 0.09821681 1.0528412 0.37143543
0.29774034 0.510344 0.15054257 0.2503454 0.03719172 0.05517446 0.0851667 0.3868403
