p2_continuous-control/implementation/my_critic.pth (torch_old, 89396 bytes, 9 tensors)

fcl1.weight f4 [128, 33]
0.044378392 -0.082765356 0.10055282 0.19271868 -0.0024536045 -0.04474195 -0.03731879 0.012016813
0.11789392 0.17296197 -0.06363072 -0.039411865 0.14820836 -0.04836896 -0.078947484 -0.052457914
0.6603864 0.24869093 0.14766349 -0.14120072 0.041494984 0.111325495 0.038805507 -0.15403779
-0.0704827 0.032459285 0.023758003 0.045177538 0.044420734 -0.032246154 0.069289416 0.030339547
0.4109882 0.11145029 0.03610619 0.014250678 -0.24289651 0.12816443 -0.37303805 -0.1562878
0.036301367 -0.012316378 -0.08321324 0.043598287 0.0048248377 0.0009086344 -0.009694735 -0.031266008
-0.036995213 -0.02754125 -0.15020318 0.17433628 0.0044157887 -0.0064733205 0.00855307 -0.020249542
2.7004476e-06 -0.03302706 -0.023540758 -0.047147132 0.063113004 -0.06244628 -0.011298083 -0.11624254
-0.00993944 0.94670594 0.09522865 0.09907718 -0.04851125 -0.15132123 -0.29403186 -0.052398965
-0.6057549 0.027300788 -0.0028823712 -0.07232605 -0.00055080483 0.027638853 0.027197002 -0.10320205
-0.051640254 0.1683405 -0.055615388 -0.00652011 0.37752017 0.13314837 0.013529413 -0.026337292
-0.0017992636 -0.071577966 0.008295071 0.038606167 0.076129794 0.015688185 -0.057995867 -0.03318392
0.022799809 0.08426701 0.6334076 -0.08921038 0.048185743 -0.16420718 0.1596533 -0.31338957
-0.34292686 0.5996631 -0.012775648 0.09282102 -0.00056022406 0.0010373307 0.0037986978 -0.006027246
0.011350056 -0.06611296 0.0385989 -0.27703846 0.079000495 0.4380001 -0.03574495 0.002818436
0.003390315 -0.048637897 0.011149209 -0.031551134 -0.009899451 -0.00018634484 0.07801118 0.123694606
0.06406779 -0.21455167 0.04519058 0.523613 -0.065721475 -0.0048541343 0.050840043 0.004751492
-0.027788263 -0.05882105 -0.12567021 0.029426325 0.002214136 0.07296292 -0.024788862 0.01800947
0.014822058 0.061354343 0.022307778 -0.020234 -0.30273676 -0.23350058 -0.16199407 0.23870812
-0.004059695 0.0017218001 0.00032874482 0.010290671 0.0011324487 0.0004901246 -0.099599786 -0.013970249
0.008065199 0.0028184652 -0.007941458 -0.08493044 1.1510757 0.007407493 0.024553014 0.050506443
0.08187009 0.09009862 0.08923372 -0.21335532 0.06824318 -0.0944989 0.23405087 -0.011493569
0.018658191 -0.003565351 -0.13561854 -0.08417081 -0.035599764 0.3881102 0.15104699 0.087487794
-0.054583743 0.005777048 0.0010859234 -0.08942766 -0.019535704 -0.023482835 -0.014946793 0.16032733
0.1688606 -0.008478122 0.08200831 -0.053003702 -0.080153055 0.6969928 -0.14583148 -0.09157643
-0.10126649 -0.07763769 -0.061586026 -0.10817069 0.40780175 0.12118001 -0.21798305 -0.033484537
-0.008035052 -0.037020687 -0.070627384 -0.019385595 -0.1676102 -0.10088754 0.11384833 0.10643106
0.3192648 -0.46945244 -0.03700143 -0.06859021 0.032361448 0.032269195 -0.022717971 -0.014561155
-0.005748418 0.23116016 0.11480414 -0.05496695 -0.1808008 -0.0067930073 -0.119785294 -0.039766546
0.07924318 -0.084808275 -0.08327133 -0.22507435 -0.44485137 0.41369912 0.11088555 0.028385917
0.05725051 -0.0019188278 -0.0067157336 -0.02462668 -0.11794943 -0.008863951 0.067448266 -0.12718032
0.011995604 0.1568976 0.14929532 0.013060164 0.0336296 -0.046892866 -0.0024292436 -0.06895669
00000000: 1ec6 353d e280 a9bd a3ee cd3d 0c58 453e
00000010: a7cc 20bb 5643 37bd 96db 18bd 2be2 443c
00000020: 5e72 f13d f11c 313e d350 82bd 566e 21bd
00000030: efc3 173e 881e 46bd 38af a1bd 1cde 56bd
00000040: 150f 293f d6a8 7e3e 1935 173e ec96 10be
00000050: a5f6 293d 9ffe e33d 86f2 1e3d 15bc 1dbe
00000060: 3c59 90bd 07f4 043d 25a0 c23c 150c 393d
00000070: 84f2 353d 8b14 04bd 9ce7 8d3d a48a f83c
00000080: 0c6d d23e 0d40 e43d 16e4 133d ad7b 693c
00000090: ddb9 78be 893d 033e d8fe bebe e909 20be
000000a0: beb0 143d a2ca 49bc b46b aabd 1e94 323d
000000b0: ac19 9e3b 6c31 6e3a aad6 1ebc c910 00bd
000000c0: 4b88 17bd 309e e1bc ddce 19be 3685 323e
000000d0: 52b2 903b 261e d4bb 2d22 0c3c 5ee2 a5bc
000000e0: 5639 3536 6247 07bd 8cd8 c0bc 5a1d 41bd
000000f0: 6441 813d acc7 7fbd 981b 39bc 9210 eebd
00000100: 08d9 22bc 525b 723f 3d07 c33d fae8 ca3d
00000110: bcb3 46bd f4f3 1abe 588b 96be 4ca0 56bd
00000120: c112 1bbf e7a5 df3c 2ae6 3cbb ae1f 94bd
00000130: e363 10ba e06a e23c 3fcc de3c 995b d3bd
00000140: bb84 53bd 7461 2c3e f6cc 63bd a6a6 d5bb
00000150: 534a c13e 0c58 083e 79aa 5d3c 4ec1 d7bc
00000160: 45d5 ebba 7897 92bd 0de8 073c 8021 1e3d
00000170: f0e9 9b3d 8284 803c 138d 6dbd ddeb 07bd
00000180: aac6 ba3c 2f94 ac3d 0027 223f efb3 b6bd
00000190: 6a5e 453d ed25 28be 287c 233e 9974 a0be
000001a0: 1c94 afbe 8583 193f f450 51bc f218 be3d
000001b0: 00dc 12ba 0bf7 873a 93f3 783b 3480 c5bb
000001c0: 96f5 393c 3b66 87bd e119 1e3d fcd7 8dbe
000001d0: 03cb a13d 8d41 e03e 4c69 12bd 82b5 383b
000001e0: 0c30 5e3b 8838 47bd 2cab 363c c33b 01bd
000001f0: 4f31 22bc 9065 43b9 53c4 9f3d 9953 fd3d
00000200: f935 833d 6fb3 5bbe c219 393d 800b 063f
00000210: fb98 86bd 6e0f 9fbb a63d 503d 67b2 9b3b
00000220: 36a4 e3bc 57ee 70bd b1af 00be 7a0f f13c
00000230: 0a1b 113b 956d 953d 0312 cbbc 9988 933c
00000240: 38d8 723c b14e 7b3d cdbe b63c c6c1 a5bc
00000250: 5000 9bbe c71a 6fbe c6e1 25be e76f 743e
00000260: 3107 85bb 06ae e13a 625b ac39 349a 283c
00000270: ac6e 943a b57b 003a f9fa cbbd 79e3 64bc
00000280: e523 043c 00b6 383b e41c 02bc 03f0 adbd
00000290: 7356 933f 8eba f23b 6723 c93c d8df 4e3d
000002a0: 81ab a73d a085 b83d 2bc0 b63d d179 5abe
000002b0: 15c3 8b3d a488 c1bd 08ab 6f3e 864f 3cbc
000002c0: 10d9 983c aaa8 69bb 96df 0abe bf61 acbd
000002d0: 0fd1 11bd 61b6 c63e 10ac 1a3e cd2c b33d
000002e0: 3493 5fbd 644d bd3b 8b55 8e3a d925 b7bd
000002f0: 5709 a0bc 135f c0bc 65e3 74bc d92c 243e
00000300: cbe9 2c3e d2e7 0abc f9f3 a73d 691a 59bd
00000310: 4927 a4bd 1f6e 323f d954 15be 6c8c bbbd
00000320: ce64 cfbd 8200 9fbd a141 7cbd 9888 ddbd
00000330: 64cb d03e 3a2d f83d f336 5fbe 1527 09bd
00000340: 73a5 03bc 01a3 17bd 17a5 90bd 8ace 9ebc
00000350: 02a2 2bbe 209e cebd 5029 e93d 87f8 d93d
00000360: ad76 a33e 125c f0be d08e 17bd 0679 8cbd
00000370: 708d 043d b42c 043d 0a1b babc e991 6ebc
00000380: 3a5d bcbb 40b5 6c3e 6f1e eb3d 0625 61bd
00000390: d823 39be e097 debb fe51 f5bd 3fe2 22bd
000003a0: 404a a23d f6af adbd 298a aabd e479 66be
000003b0: 8fc3 e3be 5fd0 d33e f717 e33d 9589 e83c
000003c0: 837f 6a3d 2d81 fbba a80f dcbb e4bd c9bc
000003d0: 798f f1bd 1b3a 11bc 5122 8a3d 8f3b 02be
000003e0: 3689 443c c4a9 203e dfe0 183e 4cfa 553c
000003f0: 31bf 093d bc12 40bd f233 1fbb 2a39 8dbd

fcl1.bias f4 [128]
0.13212971 0.009429502 -0.08315527 -0.16158183 0.0142346 -0.065231 -0.047481433 -0.22554593
-0.23850967 0.047823746 -0.076517604 0.018647464 0.25001875 -0.19671397 -0.14177099 0.09190627
-0.4976524 -0.11660334 -0.23078145 0.07086884 -0.03120464 -0.00026431246 -0.31788304 -0.2806985
0.036987413 -0.123451844 -0.1338234 -0.22597933 -0.19709145 -0.05865923 0.24839249 -0.034869235
-0.036552787 -0.2449814 -0.1874733 -0.09239298 -0.2006594 0.11911048 -0.00059122895 0.046162084
-0.07429043 0.04035521 0.088238694 0.027520925 -0.1675814 -0.0865029 -0.2679881 -0.14538893
-0.10362632 0.012053503 0.0059621786 0.010088468 -0.09651215 -0.32882082 -0.11333346 -0.16769166
0.0033947674 -0.21556892 -0.023548188 -0.22191922 0.04686079 -0.0415607 -0.026151236 -0.20109348
-0.105874404 -0.14521982 -0.17786331 -0.01513375 -0.17434105 -0.0041630976 -0.07610457 -0.3087037
-0.13075088 -0.16270046 -0.16689765 -0.031777404 0.046008628 -0.18259776 0.17395829 -0.10331981
-0.18144764 -0.24207588 0.13717926 0.09800692 -0.0057257996 -0.050122947 -0.1871153 -0.04690813
-0.076755814 -0.22594157 -0.17675741 0.17241846 -0.14298415 -0.13964947 0.081553474 -0.13288008
-0.013839752 -0.0931467 0.26734787 -0.17332073 -0.27726144 -0.37401634 -0.15300824 -0.1510285
0.121577434 -0.17148808 0.18305461 -0.40460992 0.03040441 0.05122761 -0.21103069 -0.21509545
0.02479788 -0.121117935 -0.05307004 -0.24939021 -0.15433641 0.008593347 -0.070034884 -0.09617258
-0.26780495 0.042879656 -0.093279675 0.088312894 -0.14438336 -0.06313444 0.16994293 -0.03061247
00000000: 034d 073e 337e 1a3c 4f4d aabd b575 25be
00000010: 3d38 693c d597 85bd e47b 42bd 83f5 66be
00000020: e13b 74be d5e2 433d 43b5 9cbd 91c2 983c
00000030: 7502 803e 636f 49be 6a2c 11be 5b39 bc3d
00000040: 4ccc febe bbcd eebd f951 6cbe af23 913d
00000050: e0a0 ffbc 6b93 8ab9 91c1 a2be b7b7 8fbe
00000060: 1d80 173d 52d4 fcbd 0009 09be 2067 67be
00000070: 57d2 49be a944 70bd 9a5a 7e3e 0bd3 0ebd
00000080: 60b8 15bd 67dc 7abe 00f9 3fbe 8838 bdbd
00000090: a879 4dbe 32f0 f33d b4fc 1aba 7414 3d3d
000000a0: 9525 98bd 814b 253d 7db6 b43d 9073 e13c
000000b0: 759a 2bbe 6f28 b1bd bc35 89be d6e0 14be
000000c0: 093a d4bd 0e7c 453c 615e c33b 1a4a 253c
000000d0: 29a8 c5bd 345b a8be 601b e8bd 5db7 2bbe
000000e0: bf7a 5e3b 19be 5cbe 21e8 c0bc cb3e 63be
000000f0: 1af1 3f3d 8d3b 2abd 1e3b d6bc 73eb 4dbe
00000100: aed4 d8bd 81b4 14be cd21 36be 8cf3 77bc
00000110: 7686 32be 986a 88bb b6dc 9bbd 690e 9ebe
00000120: 8fe3 05be f39a 26be 38e7 2abe 0629 02bd
00000130: 8b73 3c3d e8fa 3abe 1f22 323e 5699 d3bd
00000140: 69cd 39be bde2 77be b878 0c3e dab7 c83d
00000150: 7d9f bbbb b84d 4dbd 279b 3fbe bd22 40bd
00000160: 2732 9dbd 3a5d 67be e5ff 34be 778e 303e
00000170: 706a 12be 4500 0fbe 8205 a73d b711 08be
00000180: 21c0 62bc b2c3 bebd d2e1 883e fd7a 31be
00000190: 36f5 8dbe 127f bfbe 31ae 1cbe 37a7 1abe
000001a0: 97fd f83d 929a 2fbe ab72 3b3e 0829 cfbe
000001b0: ab12 f93c 0bd4 513d 6e18 58be fb41 5cbe
000001c0: ec24 cb3c ae0c f8bd f85f 59bd 2660 7fbe
000001d0: 5d0a 1ebe 1ccb 0c3c 736e 8fbd 21f6 c4bd
000001e0: bb1d 89be 94a2 2f3d 6a09 bfbd 64dd b43d
000001f0: 3bd9 13be a14c 81bd 8505 2e3e 01c7 fabc

fcl2.weight f4 [128, 132]
0.07369967 -0.19247743 -0.04480645 0.07993699 -0.20070344 0.09638783 0.17335077 -0.14086154
-0.04549872 -0.015008878 -0.050208397 -0.08265159 -0.050824642 0.10651897 0.013334834 0.027273472
-0.11346402 0.038356267 0.01104087 -0.10602316 0.082727484 -0.11942406 0.078627124 0.031884953
0.12240867 0.17602937 -0.01510904 0.11195645 0.030646786 -0.037199605 -0.06966796 -0.04204499
0.059218813 0.11732589 0.09196989 -0.06142482 -0.10906261 0.127099 -0.06778334 0.06473874
-0.067536406 -0.16643117 0.06959664 -0.0072801276 -0.062897064 0.013116544 0.0082330685 -0.22825395
0.1117182 0.013093603 -0.0971768 -0.1290368 0.11932282 -0.24177895 -0.01963866 -0.10378522
-0.034619246 0.03406095 -0.1822108 0.02960221 -0.048036624 -0.06646767 -0.065466344 -0.027946793
-0.03482589 -0.18502419 0.14289585 0.020150792 0.05756173 0.13748778 -0.037890986 0.030816877
-0.002375779 0.021462936 0.081756465 -0.221098 -0.051188722 -0.0045828493 -0.021095587 0.06242101
0.016212584 -0.061699025 -0.0013891556 -0.071213536 0.17515635 -0.03334152 0.08007727 -0.061810557
-0.15498497 0.09044757 0.008496901 -0.06708454 0.058197126 0.1826374 -0.0146571025 0.04493298
-0.15253678 -0.150966 0.047057904 0.024512978 -0.019519662 -0.15547414 -0.03333544 0.11221606
-0.047817066 -0.033711087 0.1484696 -0.04104864 -0.011796915 -0.022918042 -0.18467006 -0.03442012
0.071151815 0.08252914 -0.0013448647 0.006215455 -0.07137706 0.06637151 -0.063592575 0.050925
0.12251634 0.16583371 0.14047909 -0.09243669 -0.099502966 -0.05542038 0.124952674 0.061784003
-0.0286138 -0.010293341 -0.04047568 0.022072112 -0.10123875 -0.13489465 0.024966558 0.024968522
-0.2767544 0.0059323083 -0.04238195 0.021315768 0.18936567 -0.06744642 0.11862712 0.03158278
-0.0788386 0.07357095 -0.10367401 -0.009352054 -0.04388791 -0.024777042 -0.006301852 0.14196531
-0.068126954 -0.20397414 -0.06866619 0.020618584 -0.03931835 0.042245254 -0.0917272 -0.25003904
0.10316346 0.01615582 -0.11255516 0.019610344 0.053125683 -0.087629855 -0.17947748 0.060872104
0.117338 0.081201434 0.12740761 0.003259207 -0.0877896 -0.18869664 -0.0031296732 0.004627584
-0.19343399 0.07358226 -0.017827528 -0.17489727 -0.13358109 0.0899144 0.0862327 -0.040530108
0.018686794 -0.15824458 0.03383151 -0.08621387 -0.082434125 -0.054679 -0.009719413 0.019700006
-0.041292794 0.015742233 -0.012843672 -0.06285614 -0.067551844 0.037769206 -0.020509603 0.07683833
0.06266158 -0.051975936 0.014004037 0.034882385 -0.0760373 -0.056788962 -0.14896463 -0.026407134
0.12642337 -0.004455375 -0.041325793 0.119465224 -0.08320004 0.11151022 -0.08146853 -0.06963172
-0.15746906 -0.058434274 0.028586801 -0.16863662 -0.040465947 -0.15418293 -0.22181872 0.12553218
-0.16571479 -0.21912947 -0.054242607 -0.018611476 -0.015396212 0.09866162 0.0034896468 0.06703621
0.09672746 0.03462896 -0.011833149 0.020247787 -0.13099132 0.064964585 0.0048983954 0.008748694
0.09089179 -0.12654404 0.025415238 -0.058577284 -0.044390894 0.03568504 0.08414921 -0.040093362
0.052106325 0.08273268 0.14632481 0.063382976 0.018938549 0.05074281 0.06454004 0.019245772
00000000: daef 963d ce18 45be f886 37bd 01b6 a33d
00000010: 3485 4dbe fc66 c53d dd82 313e 023e 10be
00000020: de5c 3abd cce7 75bc 52a7 4dbd 3d45 a9bd
00000030: 802d 50bd 9e26 da3d 597a 5a3c 9e6c df3c
00000040: d35f e8bd 761b 1d3d c4e4 343c ac22 d9bd
00000050: 076d a93d 9a94 f4bd 4207 a13d cc99 023d
00000060: 66b1 fa3d 0b41 343e e88b 77bc 6c49 e53d
00000070: f80e fb3c 9d5e 18bd 13ae 8ebd 5e37 2cbd
00000080: 6d8f 723d 8e48 f03d b65a bc3d 9898 7bbd
00000090: 385c dfbd 3e26 023e fed1 8abd bf95 843d
000000a0: 8750 8abd ef6c 2abe af88 8e3d 238e eebb
000000b0: 2dd0 80bd c6e6 563c fee3 063c 67bb 69be
000000c0: 83cc e43d 8d86 563c a104 c7bd 3922 04be
000000d0: 865f f43d e794 77be 41e1 a0bc 588d d4bd
000000e0: e9cc 0dbd 7f83 0b3d 7895 3abe 5580 f23c
000000f0: 0dc2 44bd 3420 88bd 3813 86bd acf0 e4bc
00000100: 98a5 0ebd fb76 3dbe 4a53 123e 4613 a53c
00000110: d9c5 6b3d 99c9 0c3e 9433 1bbd ad73 fc3c
00000120: f5b2 1bbb 0ad3 af3c ef6f a73d 8467 62be
00000130: 44ab 51bd ba2b 96bb a7d0 acbc 2cad 7f3d
00000140: 41d0 843c 1eb8 7cbd 5414 b6ba 67d8 91bd
00000150: 305c 333e 1e91 08bd 8dff a33d 112d 7dbd
00000160: 61b4 1ebe 933c b93d 9636 0b3c 9f63 89bd
00000170: 1c60 6e3d 4c05 3b3e 5824 70bc a50b 383d
00000180: 9a32 1cbe d596 1abe cabf 403d 71cf c83c
00000190: b3e7 9fbc 9d34 1fbe be8a 08bd 89d1 e53d
000001a0: d4db 43bd a314 0abd 6a08 183e 9e22 28bd
000001b0: d947 41bc 9ebe bbbc 261a 3dbe 1dfc 0cbd
000001c0: 0bb8 913d 0a05 a93d 2c46 b0ba 04ab cb3b
000001d0: 232e 92bd c9ed 873d d33c 82bd bc96 503d
000001e0: d9e9 fa3d 50d0 293e c0d9 0f3e 734f bdbd
000001f0: 36c8 cbbd 7b00 63bd 30e7 ff3d 3911 7d3d
00000200: 7d67 eabc 67a5 28bc d4c9 25bd 93d0 b43c
00000210: 4356 cfbd d321 0abe ab86 cc3c c98a cc3c
00000220: c1b2 8dbe cf63 c23b b298 2dbd 689e ae3c
00000230: 13e9 413e 5921 8abd c7f2 f23d f25c 013d
00000240: 2276 a1bd 5eac 963d 0a53 d4bd 5c39 19bc
00000250: cfc3 33bd 39f9 cabc c47f cebb 5b5f 113e
00000260: 2586 8bbd 99de 50be dca0 8cbd 4ee8 a83c
00000270: 470c 21bd 5c09 2d3d 78db bbbd 1e05 80be
00000280: 5d47 d33d 3659 843c 5283 e6bd dfa5 a03c
00000290: 519a 593d 4877 b3bd f2c8 37be 0755 793d
000002a0: e84e f03d f04c a63d 2477 023e 6b98 553b
000002b0: 09cb b3bd b139 41be 341b 4dbb fda2 973b
000002c0: 8f13 46be 4cb2 963d 090b 92bc 4518 33be
000002d0: 7bc9 08be 0a25 b83d c59a b03d e602 26bd
000002e0: 0c15 993c de0a 22be e992 0a3d e690 b0bd
000002f0: 39d3 a8bd 16f7 5fbd 2c3e 1fbc e861 a13c
00000300: a222 29bd dbf5 803c 446e 52bc b8ba 80bd
00000310: 9f58 8abd e2b3 1a3d c103 a8bc 6a5d 9d3d
00000320: b754 803d b8e4 54bd 3071 653c d5e0 0e3d
00000330: 72b9 9bbd 8b9b 68bd 2f8a 18be c653 d8bc
00000340: 2175 013e 65fe 91bb 3c45 29bd 2faa f43d
00000350: c864 aabd 785f e43d f9d8 a6bd 139b 8ebd
00000360: 923f 21be c758 6fbd de2e ea3c 14af 2cbe
00000370: 9fbf 25bd 21e2 1dbe 7224 63be 828b 003e
00000380: 23b1 29be 7a63 60be 7f2d 5ebd 1877 98bc
00000390: 6540 7cbc 1a0f ca3d 8fb2 643b 484a 893d
000003a0: 0c19 c63d 19d7 0d3d d3df 41bc b0de a53c
000003b0: 9722 06be 270c 853d b882 a03b af56 0f3c
000003c0: 7a25 ba3d c394 01be 9e33 d03c bcee 6fbd
000003d0: 3ad3 35bd 7a2a 123d 6c56 ac3d f038 24bd
000003e0: 716d 553d c06f a93d 2cd6 153e efce 813d
000003f0: 0425 9b3c b1d7 4f3d 922d 843d 4fa9 9d3c

fcl2.bias f4 [128]
0.2789759 -0.14400072 0.2594167 -0.13069862 -0.23827086 0.05027182 0.06997671 0.12923613
-0.13983634 -0.070312284 -0.24923459 -0.11394033 0.12935778 -0.14649805 -0.13687593 -0.23664922
0.34747812 0.08677169 0.04598622 -0.13879408 -0.24539565 -0.036466584 0.1167723 -0.32935458
0.1988441 -0.2350466 -0.2522233 -0.24992688 0.059414778 -0.075215645 -0.07909827 -0.21540558
0.16308533 -0.079012625 -0.16970623 -0.16278034 -0.3880788 0.053279005 -0.14464657 0.1708717
-0.18583967 -0.15363732 -0.13194777 0.20417625 -0.14065269 -0.05848283 -0.21181996 0.11964815
-0.2436312 -0.24355444 -0.22116151 -0.038562376 0.23801652 -0.1866014 0.03496064 0.15685655
-0.28850755 -0.02361179 0.20741433 0.32915512 -0.06740307 0.33047956 0.09321345 -0.105799295
0.07446834 -0.17471191 -0.16527517 -0.050738115 -0.11530845 -0.17673543 -0.30023316 -0.24859881
0.002271008 0.10145153 0.14084506 -0.22426017 0.3006116 -0.27889562 -0.15503144 -0.22118497
0.27121842 -0.101175375 0.06464037 -0.16202733 -0.21936871 -0.24932735 0.14927563 -0.28056327
0.054154526 0.17042641 -0.28519925 0.1435196 -0.27087834 -0.12666172 -0.1941671 -0.24529019
0.18991937 -0.27127472 0.08763753 0.025505016 -0.1822227 0.2688464 -0.2246096 -0.37062675
0.009510104 -0.25413403 0.28963032 -0.029178042 -0.12629059 -0.31466922 -0.03550838 -0.09118755
0.2352526 -0.2190329 -0.22724426 0.017128862 -0.2061245 -0.20327497 -0.18061453 0.15880892
0.07147198 -0.18480693 0.29061577 0.18751962 -0.19329044 0.20393407 -0.007163293 0.11110957
00000000: eed5 8e3e ed74 13be 44d2 843e dcd5 05be
00000010: 47fd 73be d3e9 4d3d f34f 8f3d 7a56 043e
00000020: 4231 0fbe e3ff 8fbd 5a37 7fbe 8c59 e9bd
00000030: 5e76 043e 9603 16be 3429 0cbe 2c54 72be
00000040: a7e8 b13e 5bb5 b13d 0c5c 3c3d 0920 0ebe
00000050: ff48 7bbe fc5d 15bd 5126 ef3d 2aa1 a8be
00000060: ca9d 4b3e 0eb0 70be 6a23 81be d5ec 7fbe
00000070: e95c 733d a90a 9abd 46fe a1bd 4893 5cbe
00000080: d7ff 263e 5fd1 a1bd 78c7 2dbe e4af 26be
00000090: 44b2 c6be 163b 5a3d 3b1e 14be fef8 2e3e
000000a0: c14c 3ebe 1a53 1dbe 511d 07be 9413 513e
000000b0: 4207 10be b18b 6fbd 55e7 58be 170a f53d
000000c0: 757a 79be 5666 79be 2a78 62be 95f3 1dbd
000000d0: 9aba 733e 7014 3fbe e332 0f3d 019f 203e
000000e0: 43b7 93be 836d c1bc 6c64 543e 0587 a83e
000000f0: 9f0a 8abd 9e34 a93e b1e6 be3d 4dad d8bd
00000100: db82 983d aee7 32be e53d 29be c5d2 4fbd
00000110: d626 ecbd 22fa 34be 29b8 99be b090 7ebe
00000120: 31d5 143b d2c5 cf3d b039 103e 75a4 65be
00000130: c3e9 993e 68cb 8ebe 90c0 1ebe 507e 62be
00000140: 24dd 8a3e 0935 cfbd 2c62 843d 7eea 25be
00000150: 31a2 60be ab4f 7fbe b6db 183e fda5 8fbe
00000160: 23d1 5d3d 4384 2e3e a305 92be cdf6 123e
00000170: 91b0 8abe 9cb3 01be bed3 46be 5a2d 7bbe
00000180: 397a 423e 85e4 8abe 4e7b b33d e5ef d03c
00000190: 9698 3abe 3ca6 893e 0f00 66be cac2 bdbe
000001a0: 44d0 1b3c db1d 82be 6d4a 943e ca06 efbc
000001b0: 5252 01be 531c a1be 3c71 11bd 8ac0 babd
000001c0: 0fe6 703e 294a 60be b8b2 68be d451 8c3c
000001d0: 4d12 53be 5027 50be 04f3 38be ce9e 223e
000001e0: e75f 923d 073e 3dbe 97cb 943e 2505 403e
000001f0: eeed 45be 18d4 503e 0fba eabb 6a8d e33d

fcl3.weight f4 [1, 128]
0.09034171 -0.07796466 0.09064701 0.27259555 -0.13410085 0.08777582 0.16481456 0.11919903
0.23724468 0.32783166 -0.15529062 -0.06384714 0.094541244 0.14778233 -0.12714586 -0.07857008
0.0926592 0.08897878 0.1466527 0.15469821 0.3053404 0.13082252 0.11119061 -0.12190258
0.110379934 -0.25287622 -0.17122258 -0.1367024 0.09836348 -0.069169976 0.10118409 -0.09713475
0.11622256 -0.12639727 0.35012525 -0.18417908 -0.28940266 0.1650157 0.2128045 0.122912884
-0.069316685 -0.121559374 -0.14267325 0.0961788 -0.08240284 -0.06748082 -0.10141217 0.09352018
-0.16041718 -0.13037731 -0.06975625 0.17126799 0.094479255 0.1319902 0.13368766 0.09709061
-0.13672858 0.08869489 0.0975191 0.11876329 -0.050886746 0.09298308 0.09002677 0.11005449
0.09001071 -0.13643812 -0.14244887 0.16986613 -0.10740464 -0.13594991 -0.16940899 -0.12581968
0.12991138 0.11141943 0.10863415 -0.06544264 0.087516636 -0.12737548 -0.11124725 -0.1990965
0.09398928 0.16580838 0.12713867 -0.10601102 -0.05517356 -0.30238536 0.09607964 -0.119128935
0.10344163 0.103850536 -0.12344391 0.106901474 -0.16048227 -0.1001103 -0.21504983 -0.13949269
0.07774541 -0.11801589 0.104858495 0.12781565 -0.12161571 0.09878371 -0.13347805 -0.11693751
0.15223113 -0.06372196 0.12051274 0.10491766 0.20641048 -0.12947914 0.108924925 -0.13360682
0.08603525 -0.14445576 -0.1884034 0.12027302 -0.16596076 -0.16247489 -0.14908195 0.10996366
0.0885282 -0.16355225 0.10648607 0.085505165 -0.09430282 0.10302045 0.114372216 0.08741661
00000000: 1305 b93d f0ab 9fbd 24a5 b93d a591 8b3e
00000010: bc51 09be cfc3 b33d 26c5 283e 9f1e f43d
00000020: 45f0 723e 8dd9 a73e 8104 1fbe 4ac2 82bd
00000030: d79e c13d 4054 173e 8632 02be 5ae9 a0bd
00000040: 1bc4 bd3d 823a b63d 202c 163e 3569 1e3e
00000050: 9455 9c3e 57f6 053e e7b7 e33d 0fa8 f9bd
00000060: e00e e23d fe78 81be f954 2fbe b7fb 0bbe
00000070: cb72 c93d fda8 8dbd 9b39 cf3d 95ee c6bd
00000080: 1806 ee3d 496e 01be 9e43 b33e 7199 3cbe
00000090: 962c 94be e0f9 283e 6ce9 593e c0b9 fb3d
000000a0: e8f5 8dbd 1ff4 f8bd f018 12be 64f9 c43d
000000b0: d2c2 a8bd 6233 8abd 2fb1 cfbd 8287 bf3d
000000c0: 6744 24be a181 05be 5ddc 8ebd e060 2f3e
000000d0: 577e c13d 7028 073e 6be5 083e 71d7 c63d
000000e0: 9402 0cbe aba5 b53d 18b8 c73d 2b3a f33d
000000f0: 9f6e 50bd ea6d be3d f55f b83d 4064 e13d
00000100: 8957 b83d 6fb6 0bbe 1ede 11be 63f1 2d3e
00000110: f7f6 dbbd 7436 0bbe 8d79 2dbe e0d6 00be
00000120: 7d07 053e df2f e43d 957b de3d ca06 86bd
00000130: ec3b b33d b86e 02be 99d5 e3bd f4df 4bbe
00000140: 747d c03d acc9 293e a430 023e 4e1c d9bd
00000150: acfd 61bd 41d2 9abe 67c5 c43d dff9 f3bd
00000160: 35d9 d33d 97af d43d 29d0 fcbd 29ef da3d
00000170: 7755 24be a106 cdbd 0636 5cbe 2cd7 0ebe
00000180: fc38 9f3d 51b2 f1bd 0dc0 d63d 1be2 023e
00000190: a811 f9bd 1d4f ca3d 78ae 08be ef7c efbd
000001a0: 7ae2 1b3e a980 82bd 62cf f63d 12df d63d
000001b0: 455d 533e 2e96 04be 0814 df3d 3ad0 08be
000001c0: 4033 b03d 36ec 13be d2ec 40be b351 f63d
000001d0: 9ef1 29be d15f 26be f0a8 18be a134 e13d
000001e0: 464e b53d 3e7a 27be 5e15 da3d 551d af3d
000001f0: d621 c1bd 63fc d23d fb3b ea3d 7b07 b33d

bn1.weight f4 [128]
0.32210848 0.73326296 0.74987996 0.72904396 0.80549854 0.4505531 0.35487986 0.07348261
0.38123235 1.0309824 0.5493144 0.64297885 0.6237439 0.4950298 0.5265289 0.61215895
0.27412271 0.48303086 0.37571296 0.31603774 0.6330232 0.58922464 0.25098696 0.41102996
0.7084862 0.3619484 0.56209236 0.46147463 0.38463748 0.4350026 0.5698464 0.5478071
0.7949682 0.41492984 0.48495516 0.4217242 0.8240125 0.4979157 0.77149636 0.8134713
0.42205337 0.51689655 0.76668197 0.4613865 0.3961217 0.81914455 0.39531624 0.48807457
0.5253842 0.45866808 0.64043385 0.56831133 0.34986207 0.68993086 0.94114935 0.48959845
0.46677193 0.5142056 1.0217804 0.2907832 0.7222354 0.49254647 0.4731928 0.47091025
0.61214393 0.46531093 0.6377028 0.37810966 0.4888593 0.38168275 0.53856945 0.5067018
0.3721147 0.5765662 0.6266012 0.3306036 0.372595 0.345624 0.46695048 0.5884869
0.7066184 0.34906355 0.4383275 0.63130736 0.40689856 0.53343606 0.45978725 0.7596945
0.5661262 0.45005807 0.42421904 0.62027085 0.43884382 0.6557614 0.7337619 0.7397141
0.5198147 0.61008793 0.6243191 0.48365667 0.65376735 0.33423054 0.31775358 0.64147073
0.40938774 0.8248167 0.45001966 0.4125426 0.3326397 0.73110044 0.39974368 0.50021726
0.3645804 0.32648265 0.6415104 0.2819542 0.36402714 0.69123816 0.33228445 0.79407126
0.23909122 0.37578002 0.2876425 0.63010675 0.5905855 0.40389606 0.39263874 0.51326525
00000000: 67eb a43e 1fb7 3b3f 22f8 3f3f a0a2 3a3f
00000010: 2735 4e3f e5ae e63e d0b2 b53e 0d7e 963d
00000020: e330 c33e 3bf7 833f de9f 0c3f 439a 243f
00000030: aead 1f3f 8c74 fd3e 99ca 063f 73b6 1c3f
00000040: d059 8c3e d24f f73e 735d c03e b3cf a13e
00000050: cf0d 223f 6dd7 163f 5d81 803e 8572 d23e
00000060: 5a5f 353f 4d51 b93e 49e5 0f3f 6746 ec3e
00000070: 34ef c43e a9b8 de3e 74e1 113f 163d 0c3f
00000080: 0983 4b3f af71 d43e 0b4c f83e 3cec d73e
00000090: 7cf2 523f ceee fe3e c980 453f a83f 503f
000000a0: 6117 d83e 5553 043f 4545 443f da3a ec3e
000000b0: 77d0 ca3e 75b3 513f e466 ca3e e9e4 f93e
000000c0: 947f 063f 8bd6 ea3e 79f3 233f da7c 113f
000000d0: 1f21 b33e 4f9f 303f 2aef 703f a6ac fa3e
000000e0: bbfc ee3e faa2 033f b3c9 823f 89e1 943e
000000f0: 6be4 383f 0d2f fc3e 5446 f23e 261b f13e
00000100: 77b5 1c3f 3c3d ee3e 7e40 233f 9797 c13e
00000110: c44b fa3e ec6b c33e b0df 093f 36b7 013f
00000120: d185 be3e d899 133f f068 203f e044 a93e
00000130: c6c4 be3e a1f5 b03e 2214 ef3e 14a7 163f
00000140: f2e4 343f 75b8 b23e 766c e03e 5c9d 213f
00000150: 0255 d03e 448f 083f 3c69 eb3e 577b 423f
00000160: a6ed 103f 036e e63e 3d33 d93e 12ca 1e3f
00000170: 23b0 e03e fbdf 273f d2d7 3b3f e75d 3d3f
00000180: 9412 053f b92e 1c3f 60d3 1f3f d9a1 f73e
00000190: 4c5d 273f 4420 ab3e 99b0 a23e 6d37 243f
000001a0: 459b d13e 3027 533f fa68 e63e c938 d33e
000001b0: c04f aa3e 6629 3b3f 34ab cc3e 3d0e 003f
000001c0: 48aa ba3e bc28 a73e 073a 243f 4d5c 903e
000001d0: c461 ba3e fcf4 303f 3021 aa3e 4148 4b3f
000001e0: 54d4 743e 3d66 c03e e145 933e ad4e 213f
000001f0: 9c30 173f 77cb ce3e f207 c93e 5a65 033f

bn1.bias f4 [128]
0.32353494 -0.06047371 0.07373247 -0.08289032 0.022710696 0.05730675 0.0524516 -0.30927494
-0.11630404 0.10537191 0.18789956 0.074629925 0.052359313 0.012388194 0.052031424 -0.042510867
-0.23504409 -0.101224564 -0.13969873 0.16635792 0.19956332 -0.1769478 -0.0027191632 0.1443796
0.14617552 0.0734144 -0.0132286195 0.14336012 -0.09219009 -0.068498135 -0.23280782 0.15869108
0.092238955 0.13258569 -0.002605982 0.03102922 0.05311914 -0.09731821 -0.004253389 -0.10043582
0.10208826 -0.08054632 -0.03128431 -0.07894245 0.12003024 0.18911326 -0.102441 -0.03780837
-0.015690401 0.111913994 0.053118214 0.080537744 -0.09131416 0.044327937 0.040896833 -0.23336366
0.03178209 0.031741712 0.051536165 0.033905495 0.12566206 0.012051661 0.0073878868 -0.11086651
0.3613138 0.040445644 0.22981353 -0.07560756 -0.07185893 0.022280823 -0.05927732 -0.055164244
-0.10052969 0.23616846 0.1001083 -0.08637761 -0.044352647 0.07026661 0.22446887 0.1500982
-0.1513056 0.23395082 -0.02779817 -0.010546614 0.14006153 -0.075648084 0.058222402 0.038707253
-0.14386493 0.0073321094 -0.009781143 0.040018663 0.1375689 0.20576566 0.19731267 0.052525833
0.052243955 0.034730397 -0.18825741 -0.022322882 -0.14558673 -0.026666034 0.01685446 0.13822612
0.14343601 -0.0944247 0.12270007 -0.14720017 -0.04748911 -0.035523623 0.12236299 -0.0076477667
0.08538496 0.22599527 0.12870376 0.12329246 0.021545293 -0.052894276 0.0044014268 0.03925697
-0.035522193 -0.04360825 -0.010514665 -0.15579128 -0.17425825 0.115014724 0.035726 -0.08044193
00000000: 5fa6 a53e 48b3 77bd 0d01 973d 66c2 a9bd
00000010: c80b ba3c 7cba 6a3d 7dd7 563d 4959 9ebe
00000020: d030 eebd 3acd d73d be68 403e 93d7 983d
00000030: b876 563d daf7 4a3c e71e 553d e01f 2ebd
00000040: 66af 70be d34e cfbd 2f0d 0fbe bb59 2a3e
00000050: 545a 4c3e ce31 35be fd33 32bb 3fd8 133e
00000060: 09af 153e 4a5a 963d dabc 58bc ffcc 123e
00000070: 28ce bcbd c048 8cbd 2c65 6ebe ea7f 223e
00000080: c7e7 bc3d 8bc4 073e 1fc9 2abb fe30 fe3c
00000090: 7593 593d c54e c7bd 0360 8bbb 4cb1 cdbd
000000a0: a613 d13d 78f5 a4bd fa23 00bd 94ac a1bd
000000b0: 6ad2 f53d e8a6 413e 96cc d1bd f3dc 1abd
000000c0: 2889 80bc 2a33 e53d 7c92 593d f9f0 a43d
000000d0: eb02 bbbd 3691 353d 7083 273d e2f6 6ebe
000000e0: f02d 023d 9903 023d 9617 533d 7de0 0a3d
000000f0: 8ead 003e 5474 453c 1616 f23b fb0d e3bd
00000100: 1ffe b83e 55aa 253d 3d54 6b3e 23d8 9abd
00000110: c62a 93bd 4686 b63c c6cc 72bd e7f3 61bd
00000120: 83e2 cdbd 25d6 713e 9505 cd3d bfe6 b0bd
00000130: 1fab 35bd f1e7 8f3d 2bdb 653e 58b3 193e
00000140: dbef 1abe ce90 6f3e fdb8 e3bc b5cb 2cbc
00000150: 4a6c 0f3e 62ed 9abd 9d7a 6e3d 7f8b 1e3d
00000160: 5451 13be 3142 f03b 1641 20bc 9cea 233d
00000170: ddde 0c3e 3cb4 523e 550c 4a3e 5425 573d
00000180: c2fd 553d 7641 0e3d 8dc6 40be 7ade b6bc
00000190: b014 15be ba72 dabc 5d12 8a3c 268b 0d3e
000001a0: e4e0 123e bd61 c1bd 2d4a fb3d a4bb 16be
000001b0: f183 42bd 3881 11bd 7399 fa3d 1e9a fabb
000001c0: 4fde ae3d 4e6b 673e ebca 033e c280 fc3d
000001d0: c17f b03c aba7 58bd d839 903b ebcb 203d
000001e0: b87f 11bd 909e 32bd b445 2cbc c087 1fbe
000001f0: c170 32be d78c eb3d 6d55 123d bdbe a4bd

bn1.running_mean f4 [128]
0.8716385 0.15011008 0.04970751 0.27129894 0.23963265 0.26462606 0.697384 0.042149264
0.1715723 0.31689537 0.06642053 0.17881909 0.08976787 0.21271217 0.2245513 0.15984958
0.1760448 0.30688068 0.05369979 0.26773894 0.18771113 0.06485431 0.07058635 0.026187062
0.48541468 0.013120367 0.013213592 0.027225805 0.3093519 0.038102996 0.74552435 0.5549013
0.34575528 0.10875735 0.14395931 0.03312789 0.17187111 0.32250276 0.41224933 0.2636846
0.3067505 0.035707746 0.1980956 0.0873522 0.23685056 0.1436734 0.13280955 0.052095167
0.18666689 0.2008251 0.096686855 0.19642895 0.10831603 0.2671938 0.114690304 0.46085986
0.2715508 0.08781004 0.20120718 0.14100018 0.039747924 0.23999481 0.08682579 0.23087923
0.2916486 0.17049468 0.27974382 0.02611927 0.26751065 0.033639234 0.24803041 0.12872432
0.042637423 0.30113497 0.2412703 0.036976155 0.37830237 0.24495405 0.73505324 0.24680835
0.1211233 0.21867245 0.14375515 0.4108271 0.42862624 0.10511553 0.074550584 0.11261416
0.3819282 0.28096732 0.06284437 0.48202407 0.14450878 0.24307337 0.3718633 0.36595628
0.093216 0.9568811 0.44484472 0.13963415 0.045619164 0.12696943 0.11711146 0.2097556
0.31530786 0.17808965 0.93673325 0.13553135 0.2471616 0.16301766 0.03053606 0.20339344
0.086549476 0.563069 0.08415921 0.031738617 0.10339583 0.13641399 0.062328305 0.31014478
0.02181614 0.2411716 0.25403735 0.25555807 0.019148702 0.24978296 0.10271742 0.028916555
00000000: b323 5f3f 75b6 193e 1a9a 4b3d b2e7 8a3e
00000010: 4362 753e 117d 873e c287 323f b5a4 2c3d
00000020: a6b0 2f3e 1c40 a23e 7d07 883d 5a1c 373e
00000030: 38d8 b73d 38d1 593e c7f0 653e 9caf 233e
00000040: 1745 343e 771f 9d3e 50f4 5b3d 1415 893e
00000050: 5937 403e 56d2 843d 948f 903d 4086 d63c
00000060: 4688 f83e cff6 563c d27d 583c a708 df3c
00000070: 5f63 9e3e e311 1c3d afda 3e3f 030e 0e3f
00000080: d606 b13e 2cbc de3d 126a 133e 1cb1 073d
00000090: fbfe 2f3e 151f a53e 5812 d33e ab01 873e
000000a0: 670e 9d3e 4942 123d 93d9 4a3e b6e5 b23d
000000b0: f488 723e 1f1f 133e 3aff 073e be61 553d
000000c0: 9b25 3f3e 18a5 4d3e c203 c63d ac24 493e
000000d0: cbd4 dd3d a0cd 883e c0e2 ea3d d3f5 eb3e
000000e0: b508 8b3e c0d5 b33d 4109 4e3e 5a62 103e
000000f0: b8ce 223d 33c1 753e b8d1 b13d 9b6b 6c3e
00000100: f752 953e 2896 2e3e 953a 8f3e 14f8 d53c
00000110: 28f7 883e 4bc9 093d affb 7d3e 4fd0 033e
00000120: 94a4 2e3d 5d2e 9a3e 900f 773e 4f74 173d
00000130: d9b0 c13e 3cd5 7a3e 732c 3c3f 54bb 7c3e
00000140: 7e0f f83d aceb 5f3e 8d34 133e ee57 d23e
00000150: e674 db3e d046 d73d faad 983d 41a2 e63d
00000160: 188c c33e f3da 8f3e 8db4 803d dccb f63e
00000170: 1cfa 133e 3ae8 783e de64 be3e 9f5e bb3e
00000180: 08e8 be3d 29f6 743f b0c2 e33e 41fc 0e3e
00000190: 29db 3a3d 4604 023e 22d8 ef3d 2cca 563e
000001a0: 0870 a13e 225d 363e c0cd 6f3f bbc8 0a3e
000001b0: ee17 7d3e 1aee 263e c226 fa3c 5f46 503e
000001c0: da40 b13d 4a25 103f aa5b ac3d 5a00 023d
000001d0: 31c1 d33d 1cb0 0b3e f74b 7f3d 4ccb 9e3e
000001e0: c3b7 b23c b0f5 763e 2f11 823e 82d8 823e
000001f0: bddd 9c3c 1bc7 7f3e 835d d23d 69e2 ec3c

bn1.running_var f4 [128]
0.3243253 0.08542716 0.028713379 0.15270218 0.1559966 0.16348402 0.29511395 0.026489176
0.09239371 0.2278548 0.062339373 0.08768285 0.063946255 0.09918773 0.10982967 0.09364387
0.10953244 0.13628428 0.037422474 0.14798963 0.113431714 0.04218548 0.045793932 0.017990593
0.16984941 0.008572666 0.006153339 0.014411941 0.15679277 0.019661944 0.21766822 0.5501592
0.2612018 0.08313695 0.050316986 0.016222296 0.097443335 0.17262483 0.28495485 0.08351885
0.13155968 0.023945404 0.13796958 0.055927843 0.13381152 0.048258014 0.056961652 0.028308969
0.112721235 0.08849377 0.03960946 0.12843628 0.061550207 0.16681516 0.055706568 0.50721675
0.18614978 0.038498756 0.11381002 0.06553803 0.019802105 0.09579157 0.052672382 0.12283335
0.09982897 0.13056117 0.16743036 0.016188515 0.22106083 0.01872092 0.1639226 0.08325021
0.016296685 0.10111977 0.14226183 0.012107007 0.19158009 0.10160308 0.2347109 0.05851585
0.060232263 0.1281853 0.07577772 0.25623277 0.1434834 0.04558664 0.022453597 0.07370998
0.33536613 0.16157313 0.057302725 0.21740447 0.058365148 0.08200619 0.25565472 0.28668052
0.054815315 1.3082097 0.1862283 0.08111249 0.016278792 0.060855668 0.050294366 0.08636651
0.13865836 0.094203845 0.46921912 0.06973424 0.14361535 0.09885363 0.015658768 0.12016429
0.057629243 0.43932635 0.03978814 0.019419078 0.049063507 0.0830893 0.041944515 0.15265623
0.010741721 0.17900676 0.14627333 0.1121995 0.009968943 0.12522686 0.046871495 0.017730435
00000000: f70d a63e 6ff4 ae3d 5238 eb3c f65d 1c3e
00000010: 93bd 1f3e 5b68 273e 2d19 973e d4ff d83c
00000020: ea38 bd3d c552 693e 9257 7f3d 1193 b33d
00000030: 41f6 823d f022 cb3d 61ee e03d 5bc8 bf3d
00000040: 8b52 e03d 1b8e 0b3e 4f48 193d 988a 173e
00000050: e34e e83d afca 2c3d 6b92 3b3d 0261 933c
00000060: 01ed 2d3e 5e74 0c3c f3a1 c93b 1020 6c3c
00000070: 498e 203e 1612 a13c 6be4 5e3e 3cd7 0c3f
00000080: 3ebc 853e b543 aa3d 2f19 4e3d 9fe4 843c
00000090: 5f90 c73d 90c4 303e 9ae5 913e ee0b ab3d
000000a0: 95b7 063e 2729 c43c e647 0d3e 9814 653d
000000b0: e305 093e 32aa 453d 9f50 693d 36e8 e73c
000000c0: 64da e63d 393c b53d 873d 223d cd84 033e
000000d0: 121c 7c3d 98d1 2a3e 922c 643d f5d8 013f
000000e0: 0c9e 3e3e dfb0 1d3d 3a15 e93d cd38 863d
000000f0: 0638 a23c 5f2e c43d ffbe 573d 0d90 fb3d
00000100: 2273 cc3d d4b1 053e dd72 2b3e c79d 843c
00000110: c55d 623e 9d5c 993c 53db 273e 167f aa3d
00000120: a080 853c e217 cf3d 16ad 113e 785c 463c
00000130: 922d 443e 4715 d03d 0e58 703e 51ae 6f3d
00000140: 1bb6 763d 0243 033e 5931 9b3d f130 833e
00000150: 50ed 123e 0eb9 3a3d 9bf0 b73c 42f5 963d
00000160: 1cb5 ab3e 6d73 253e 43b6 6a3d 479f 5e3e
00000170: 4b10 6f3d ddf2 a73d 2de5 823e cac7 923e
00000180: 0686 603d 6a73 a73f a2b2 3e3e 4e1e a63d
00000190: 1a5b 853c cb43 793d 7701 4e3d ede0 b03d
000001a0: 75fc 0d3e f2ed c03d 7d3d f03e d3d0 8e3d
000001b0: e70f 133e c673 ca3d d146 803c b218 f63d
000001c0: a40c 6c3d 62ef e03e e4f8 223d c214 9f3c
000001d0: d1f6 483d b92a aa3d 03ce 2b3d ea51 1c3e
000001e0: 0bfe 2f3c 8c4d 373e adc8 153e dac8 e53d
000001f0: c754 233c 783b 003e 53fc 3f3d 6b3f 913c
