p3_collab-compet/implementation/my_actor_0.pth (torch_old, 531467 bytes, 10 tensors)

fcl1.weight f4 [400, 24]
0	0xbd403a67	-0.046930697
1	0xbd57e6fe	-0.052710526
2	0xbc0f1f57	-0.008735499
3	0xbd74b1f2	-0.059740014
4	0xbdde0601	-0.10840989
5	0x3c88d54d	0.016703272
6	0x3c75462e	0.014970345
7	0x3b39730b	0.002829733
8	0x3d51a16b	0.05117933
9	0xbde7c20c	-0.113163084
10	0xbd16cf6a	-0.0368189
11	0xbd25feba	-0.04052613
12	0xbe1c6a7a	-0.15274993
13	0x3da46161	0.08026386
14	0x3cab8ef4	0.020942189
15	0xbc4aa6ec	-0.012368899
16	0x3c7a777f	0.015287279
17	0xbdd0c85a	-0.10194464
18	0xbd339087	-0.043839004
19	0xbd941c19	-0.07231922
20	0xbe06d80a	-0.1316835
21	0x3d8598c7	0.065232806
22	0x3d0fd459	0.03511462
23	0xbd20c3fb	-0.0392494
24	0xbbb2abac	-0.005452594
25	0xbd2f7f90	-0.042846262
26	0xbd1ce108	-0.038300544
27	0x3de8ea33	0.11372795
28	0x3d993132	0.074800864
29	0xbe126689	-0.14296927
30	0xbd371cb4	-0.044705108
31	0x3ddf3b34	0.10899964
32	0xbd0b917f	-0.034074303
33	0xbcdaa491	-0.0266898
34	0x3ca25781	0.019817116
35	0xbb3b0310	-0.002853576
36	0xbd55943f	-0.05214333
37	0xbd159cc5	-0.03652646
38	0xbc89fa11	-0.016842874
39	0xbc120fd3	-0.008914906
40	0x3d1acb27	0.037791397
41	0xbd82a16a	-0.063784435
42	0xbb6deab7	-0.003630323
43	0x3d834661	0.06409908
44	0xbc9c546d	-0.019083226
45	0xbd1f6a36	-0.03891965
46	0xbc396c7a	-0.011317367
47	0x3da58fae	0.08084045
48	0xbbe52ced	-0.006993881
49	0x3d1b2dce	0.03788548
50	0x3b979a66	0.00462656
51	0x3b8b2ac3	0.004247041
52	0xbc745e9b	-0.014915134
53	0xbdc9998a	-0.098437384
54	0x3c1549b6	0.009111812
55	0x3c768c3f	0.015048086
56	0x3cc6f24f	0.024285464
57	0x3d794e0c	0.060865447
58	0x3c001780	0.007818103
59	0xbd1c96cc	-0.03822975
60	0xbc755221	-0.014973194
61	0xbe2226f9	-0.1583518
62	0xb958faaa	-0.00020692745
63	0xb9214087	-0.00015378195
64	0xbd2bf73f	-0.04198384
65	0x3d858aca	0.065206125
66	0xbd08de80	-0.033415318
67	0x3ce44172	0.027863238
68	0x3cb34be2	0.02188677
69	0xbebabcb5	-0.36472097
70	0x3cdc2688	0.026873842
71	0xbc5cc011	-0.013473527
72	0x3cdc7328	0.02691038
73	0x3d04f746	0.03246238
74	0x3ce094a6	0.027414631
75	0x3d639bc3	0.055568468
76	0x3d6b2746	0.0574105
77	0xbdfc51c7	-0.12320285
78	0xbc841829	-0.016124802
79	0x3d8e9ff8	0.06964105
80	0x3d8df964	0.06932333
81	0xbc2c241b	-0.010506655
82	0xba40c3bf	-0.0007353387
83	0xbb7b681b	-0.0038361612
84	0x3dae2649	0.08503396
85	0xbdaab5cf	-0.083354585
86	0x3d028ad3	0.031870674
87	0xbb57e702	-0.0032944088
88	0x3cce4dc6	0.02518357
89	0xbc5f23a1	-0.013619334
90	0xbbfc83aa	-0.0077061253
91	0xbd804b6f	-0.06264388
92	0x3b14e4a6	0.0022719293
93	0x3dba6602	0.09101488
94	0x3d21b521	0.03947938
95	0xbdb5d878	-0.08879179
96	0x3ce00901	0.027348043
97	0xbc8f42ba	-0.017487872
98	0x3bcf99a4	0.006335454
99	0x3db63826	0.08897428
100	0xbcff24fe	-0.031145569
101	0x3d1cf8ff	0.0383234
102	0xbb503f20	-0.0031775907
103	0x3e181e4c	0.14855307
104	0xbcc300ab	-0.02380403
105	0x3d7ddfed	0.06198113
106	0x3cfded3a	0.030996908
107	0x3db0f06c	0.08639607
108	0xbd644097	-0.05572566
109	0x3e06f3aa	0.13178888
110	0xbcc25c91	-0.02372578
111	0x3d4da54d	0.05020647
112	0xbc8c1634	-0.017100431
113	0x3d0f59d0	0.03499776
114	0xbbeffe68	-0.0073240288
115	0x3e009972	0.12558535
116	0x3d3dd836	0.046348773
117	0x3e2af094	0.16693336
118	0x3c392ac0	0.011301696
119	0x3df7845f	0.12085795
120	0xbc52fd24	-0.012877736
121	0xbce58707	-0.028018488
122	0x3c5642e9	0.013077476
123	0xbd688900	-0.05677128
124	0x3cc196b1	0.023631426
125	0x3e09bf23	0.13451819
126	0xbd662ff8	-0.05619809
127	0xbd57a373	-0.05264611
128	0x3d452ca0	0.04813826
129	0xb95d1397	-0.000210835
130	0x3cbd85d0	0.023135096
131	0xbc25b153	-0.010113078
132	0xbd73aeea	-0.059492983
133	0x3d50fe3c	0.051023707
134	0xbd5c8f5c	-0.053847656
135	0xbdbcdcb5	-0.09221784
136	0x3cdb3359	0.026757883
137	0x3d30bb0a	0.043147124
138	0x3ce9c086	0.028534185
139	0xbd7c95d4	-0.061666325
140	0xbd625645	-0.055258054
141	0xbcbd72f4	-0.023126103
142	0x3d17b8eb	0.037041586
143	0x3bc0988d	0.0058775605
144	0x3d441312	0.04786975
145	0xbddd21dd	-0.107974745
146	0x3b629422	0.0034573157
147	0xbca82bf8	-0.020528778
148	0xbc0d5041	-0.008625091
149	0xbd5733dc	-0.05253969
150	0x3b898c8f	0.004197664
151	0x3c3913bd	0.01129621
152	0x3d33f08e	0.043930583
153	0xbdf1f3e2	-0.11814095
154	0x3c88f44c	0.016718052
155	0x3d7e6304	0.062106147
156	0xbdc53eab	-0.096310936
157	0xbcf48cd6	-0.029852312
158	0xbc10fadf	-0.008848875
159	0x3d5cdce8	0.05392161
160	0x3d413bae	0.047176056
161	0xbe0d02f6	-0.13770661
162	0x3c21b6ce	0.009870244
163	0x3e11b24f	0.14228176
164	0xbdc24dd0	-0.09487498
165	0xbd0b8c1b	-0.03406916
166	0xbc88f101	-0.016716482
167	0x3db4a8e0	0.08821273
168	0x3ce301f9	0.027710902
169	0x3d2e8860	0.042610526
170	0x3b201561	0.0024426805
171	0xbc2151f4	-0.009846199
172	0x3cd49bdb	0.025953224
173	0xbdf47198	-0.11935729
174	0xbb88e685	-0.0041778707
175	0xb9aafe3d	-0.0003261435
176	0x3d4a183b	0.049339514
177	0x3b963eb1	0.00458511
178	0xbd2f89b6	-0.04285594
179	0xbd8aef2d	-0.067839004
180	0xbd693ea9	-0.056944523
181	0xbd3d2109	-0.046174083
182	0xbccd685e	-0.02507418
183	0x3b8dea01	0.004330874
184	0xbd2a9f9b	-0.041656118
185	0xbc886b4c	-0.016652726
186	0xbb3ebb89	-0.002910348
187	0xbdbeb6ed	-0.09312234
188	0xbd994b58	-0.07485074
189	0x3c7910e5	0.015201782
190	0xbd83551a	-0.06412716
191	0xbd76e499	-0.0602766
192	0x3d7ab0bb	0.0612037
193	0xbd5ea1c0	-0.054353476
194	0xbb4b9e7a	-0.0031069801
195	0x3c871a70	0.016492099
196	0xbd8863fb	-0.06659695
197	0x3bc7e514	0.0061003063
198	0xbc8880cb	-0.016662976
199	0xbd090e4f	-0.03346091
200	0x3d889742	0.06669475
201	0xbe02bad8	-0.12766588
202	0x3d5dd616	0.054159246
203	0x3d0dc9e5	0.03461637
204	0x3cdc2878	0.026874766
205	0x3dbfc8f0	0.09364498
206	0xbd0aa072	-0.03384442
207	0x3c87c298	0.016572282
208	0x3d193155	0.037400562
209	0xbdf51c5f	-0.11968302
210	0xbc93bd0d	-0.018034482
211	0xbaf59683	-0.0018736873
212	0x3e381c6e	0.17979595
213	0x3c6b4ab3	0.014361071
214	0x3ce303b9	0.027711736
215	0xbc51c380	-0.0128029585
216	0x3bdeb7c9	0.0067968112
217	0xbe13315f	-0.14374302
218	0xbce327f5	-0.027729014
219	0xbc84d782	-0.016216043
220	0x3db64d48	0.08901459
221	0x3d53665b	0.051611286
222	0xbb392f71	-0.0028257037
223	0x3d38b5dd	0.045095313
224	0x3d90427a	0.070439294
225	0xbe3a1e4c	-0.1817562
226	0xbcb31148	-0.021858826
227	0xbd024a5e	-0.031809203
228	0x3d039313	0.032122683
229	0xbc16e410	-0.009209648
230	0xbcb7b00a	-0.02242281
231	0xbc552be0	-0.013010949
232	0x3c3559ef	0.011068805
233	0xbe1aeda6	-0.15129718
234	0xbcd751ab	-0.02628406
235	0x3dd291bc	0.10281703
236	0x3cde76cf	0.027156262
237	0xbda52570	-0.08063781
238	0xbc998594	-0.018740453
239	0x3d90913d	0.07058952
240	0x3d087cfd	0.033322323
241	0xbd4417be	-0.047874205
242	0xbd02f3b3	-0.03197069
243	0x3e0fbae5	0.14036138
244	0xbbfeb29c	-0.0077727567
245	0x3d2422c7	0.04007223
246	0x3c9441e9	0.018097835
247	0x3da690d0	0.081330895
248	0x3d36453c	0.04449962
249	0x3d19722a	0.03746239
250	0xbcbfad72	-0.023398135
251	0xbc0f0ee9	-0.008731582
252	0xbd03fe05	-0.032224674
253	0x3cd3fe1b	0.025878003
254	0x3bed513f	0.0072423513
255	0x3cc997ef	0.02460858

fcl1.bias f4 [400]
0	0xbdae436e	-0.08508955
1	0xbd3ab114	-0.04557903
2	0x3e4826fc	0.19546121
3	0xbda83a9e	-0.08214305
4	0x3de0288b	0.10945233
5	0xbe7c7071	-0.24652268
6	0xbea3893d	-0.31940642
7	0x3e3a2a1e	0.18180129
8	0x3d8b340e	0.06797038
9	0xbc06af73	-0.008220541
10	0x3dc8fe2f	0.09814107
11	0xbc1b4065	-0.009475802
12	0xbdcf85ab	-0.10132917
13	0x3d812903	0.063066505
14	0xbdfc9e4d	-0.12334881
15	0xbe5744e0	-0.21022367
16	0xbe6222be	-0.22083566
17	0xbe2e35da	-0.1701273
18	0xbbf66a7c	-0.007520018
19	0xbcdb8ed4	-0.026801504
20	0xbded12dd	-0.115758635
21	0xbe7cb50d	-0.2467844
22	0xbe3e186c	-0.18564004
23	0x3dc3d6fa	0.09562488
24	0xbd24591e	-0.04012405
25	0xbe00bf39	-0.12572946
26	0xbe2ad605	-0.16683204
27	0xbe74afd9	-0.23895206
28	0xbe7a3233	-0.24433212
29	0xbe353844	-0.17697245
30	0x3c4cebe8	0.012507416
31	0xbe89e911	-0.26935628
32	0x3d1d20ce	0.038361363
33	0xbd913a77	-0.070912294
34	0xbd9fc8eb	-0.07801994
35	0x3db4e3ec	0.08832535
36	0xbd11005c	-0.035400733
37	0x3df9f250	0.122044206
38	0xbda6779d	-0.08128283
39	0xbd2c0c11	-0.042003695
40	0xbe104d53	-0.14091997
41	0x3e1cbfca	0.15307537
42	0xbd9b71c5	-0.07590059
43	0xbe473e5f	-0.19457386
44	0xbe2e614b	-0.17029302
45	0xbe2e0c23	-0.16996817
46	0x3c69700d	0.014247906
47	0xbe30afab	-0.17254512
48	0x3ded812c	0.11596903
49	0x3d001a16	0.031274877
50	0xbe2b0d9d	-0.16704412
51	0xbd2aefdd	-0.041732658
52	0x3dac93a7	0.084266
53	0xbc1ec1be	-0.009689746
54	0xbd7e0a95	-0.06202181
55	0xbe51a6e8	-0.20473826
56	0x3dd1c48c	0.102425665
57	0xbe5bf1db	-0.2147898
58	0xbcdbce73	-0.026831841
59	0xbe21eb20	-0.1581235
60	0x3ba3ef87	0.005002919
61	0x3d8cf0b2	0.068818465
62	0x3d9e3fcc	0.07727012
63	0xbdba537e	-0.09097956
64	0x3e1adbaa	0.15122858
65	0xbe0ccb0b	-0.1374933
66	0xbd9f232e	-0.07770382
67	0x3e24a501	0.16078569
68	0x3d8e840a	0.06958778
69	0xbe1c37bd	-0.15255637
70	0xbe916af9	-0.28401926
71	0xbdd4c48b	-0.1038905
72	0xbe175d0d	-0.1478159
73	0x3d8255ef	0.06364047
74	0x3e39d28d	0.18146725
75	0xbe601a44	-0.2188502
76	0x3db9914d	0.09060917
77	0x3d406449	0.04697064
78	0x3e17bbf8	0.14817798
79	0xbe1b5666	-0.15169677
80	0x3dc664a9	0.09687168
81	0xbe1e9d15	-0.1548961
82	0x3d9acaa2	0.075581804
83	0xbe312fa0	-0.17303324
84	0x3d87c76f	0.06629836
85	0xbc1789bf	-0.00924915
86	0x3e0839c2	0.13303283
87	0x3d358fe0	0.044326663
88	0xbd9cd579	-0.07657904
89	0xbe042bb5	-0.12907298
90	0x3d3756c4	0.04476048
91	0xbd9e4bcb	-0.077293
92	0x3d735a92	0.059412546
93	0xbc07fb82	-0.00829971
94	0xbd59dae0	-0.05318725
95	0xbaa2464d	-0.001238057
96	0x3e022bec	0.12712067
97	0xbea41f1f	-0.32054994
98	0xbd9ba138	-0.075991094
99	0xbcc0f9fb	-0.0235567
100	0xbc8acd0a	-0.016943473
101	0x3e044311	0.12916209
102	0xbe7a6bd1	-0.24455191
103	0xbe36c87b	-0.17849915
104	0xbe8cfcc9	-0.2753661
105	0xbc6184b3	-0.013764548
106	0xbcb20ee9	-0.021735625
107	0xbe9e8371	-0.30959657
108	0xbd8997f3	-0.06718435
109	0xbdd16fe1	-0.10226417
110	0x3bc61fed	0.0060462863
111	0xbe356a2f	-0.17716287
112	0xbe46a864	-0.19400173
113	0xbe2279b3	-0.15866737
114	0x3cdaa29d	0.026688868
115	0x3ad28434	0.0016061128
116	0x3db63aba	0.0889792
117	0xbdf8152c	-0.12113413
118	0xbdc09548	-0.09403473
119	0xbe1393ed	-0.14411898
120	0xbd229c0b	-0.039699595
121	0xbe593611	-0.21212031
122	0xbdcca0c7	-0.09991603
123	0x3daf8334	0.08569947
124	0xbe1a71e1	-0.15082504
125	0x3c7237ec	0.014783841
126	0xbcf723d4	-0.030168451
127	0xbd7f5176	-0.062333547
128	0x3deafc0f	0.114738576
129	0xbd8b14ac	-0.06791052
130	0xbe4b6ea0	-0.19866419
131	0xbe606fb9	-0.21917619
132	0xbe26be17	-0.16283451
133	0x3da0c4a5	0.07850007
134	0xbe700eb7	-0.23443113
135	0xbe1f9c25	-0.15586908
136	0x3c05bc23	0.008162531
137	0xbdb2a1cc	-0.087222666
138	0xbcebf678	-0.028804049
139	0x3d987a45	0.07445196
140	0xbd8e7bf6	-0.069572374
141	0xbd8e3556	-0.06943767
142	0xbdea6a45	-0.114460506
143	0x3dddf911	0.10838521
144	0xbdcec380	-0.100958824
145	0x3c2cdf52	0.010551291
146	0x3d1b6cfe	0.03794574
147	0xbc0eca6f	-0.008715256
148	0x3d2960a4	0.04135193
149	0x3d8dd20b	0.06924828
150	0xbe6230a0	-0.22088861
151	0xbe525a2e	-0.20542213
152	0xbd2a9f12	-0.041655608
153	0xbcb6714c	-0.022270821
154	0xbdc9d555	-0.09855143
155	0x3ced9a52	0.02900425
156	0xbd86376b	-0.06553539
157	0x3c1def78	0.009639613
158	0x3d623e12	0.055234976
159	0xbd963ca1	-0.07335783
160	0xbd12a7f3	-0.0358047
161	0xbe0341b2	-0.1281803
162	0xbe83d591	-0.25748876
163	0xbe68ab05	-0.22721489
164	0x3de2cc17	0.11074083
165	0xbbcd5be0	-0.006267056
166	0x3bc61fe0	0.0060462803
167	0xbde1e96e	-0.11030851
168	0x3d0b645d	0.03403126
169	0xbe1697bb	-0.14706318
170	0xbd648793	-0.055793356
171	0x3d391af4	0.04519172
172	0xbde58670	-0.112072825
173	0xbc24bde3	-0.010055038
174	0x3d4ad396	0.04951819
175	0xbd953ee8	-0.07287389
176	0x3dea8a63	0.114521764
177	0xbd976a05	-0.073932685
178	0x3cd3df1b	0.02586322
179	0xbd92fe12	-0.07177366
180	0xbdd787e6	-0.105239674
181	0xbe118ed9	-0.14214648
182	0x3dfd3e12	0.123653546
183	0xbe8b341b	-0.2718819
184	0xbd625ff3	-0.055267286
185	0x3e2d715a	0.16937771
186	0xbcb80d0b	-0.022467157
187	0x3dccdd4f	0.10003149
188	0xbd8dca52	-0.06923355
189	0x3ca059bb	0.019574037
190	0xbe5a03d9	-0.2129053
191	0x3d959d5c	0.073054045
192	0x3dfef859	0.12449712
193	0xbe873c62	-0.26413256
194	0xbd413e02	-0.047178276
195	0x3dbbe900	0.091753006
196	0x3d047570	0.03233856
197	0xbc909209	-0.01764776
198	0xbe174b95	-0.14774926
199	0x3df4ec64	0.119591504
200	0x3db571fe	0.08859633
201	0x3d9c7bcb	0.07640799
202	0xbc82a918	-0.01594977
203	0x3d863c73	0.065544985
204	0xbd2bd0d2	-0.041947193
205	0xbd94a071	-0.07257164
206	0xbdf583b4	-0.11988011
207	0x3e38c5bf	0.18044184
208	0x3d7e7162	0.06211985
209	0x3e0aa4f9	0.13539495
210	0xbe688237	-0.22705923
211	0xbd78de1b	-0.06075869
212	0xbdefce2c	-0.11709246
213	0xbd0378df	-0.032097694
214	0x3d5206d2	0.051276036
215	0x3a1def89	0.0006024768
216	0x3d281b25	0.041041512
217	0xbc78fc3b	-0.015196855
218	0xbe592424	-0.21205193
219	0xbe08c73f	-0.13357256
220	0x3cc0164d	0.023448134
221	0x3da80220	0.0820353
222	0xbe0b60b3	-0.13611107
223	0xbe251355	-0.16120656
224	0x3cd544d9	0.026033806
225	0x3db018fa	0.08598514
226	0xbe04ee19	-0.12981452
227	0xbe8f93c6	-0.2804243
228	0x3d160b52	0.03663189
229	0xbe4b645f	-0.19862507
230	0x3c899756	0.016795795
231	0xbd7607ff	-0.06006622
232	0x3e18e0b6	0.1492947
233	0x3d42c214	0.04754837
234	0xbdbfa413	-0.093574665
235	0xbddd3d3f	-0.108026974
236	0xbda2349b	-0.0792019
237	0x3c0fad40	0.008769333
238	0xbdd2048d	-0.10254774
239	0xbda36a56	-0.07979266
240	0xbde666d0	-0.11250079
241	0x3e0f62f3	0.1400259
242	0x3e0ea340	0.13929462
243	0x3d72925b	0.059221607
244	0x3def2f72	0.11678971
245	0x3d694ac8	0.056956083
246	0xbe11f622	-0.14254048
247	0x3d6afc60	0.05736959
248	0xbd7c13c2	-0.06154228
249	0xbe073ffa	-0.13207999
250	0xbdb143fe	-0.086555466
251	0xbd3f0b5d	-0.046641696
252	0x3caeb518	0.021326587
253	0xbe9813bf	-0.29702565
254	0xbe668366	-0.22511062
255	0xbdf1b726	-0.11802511

fcl2.weight f4 [300, 400]
0	0xbd576d0e	-0.052594237
1	0xbd0a1a6f	-0.033716615
2	0xbe65b87b	-0.22433655
3	0x3d8f1cbc	0.069879025
4	0xbddba288	-0.1072436
5	0x3d3c5843	0.04598261
6	0xbd57d1c6	-0.05269029
7	0x3ce426fc	0.02785062
8	0x3c5d921a	0.013523603
9	0xbc8584cd	-0.016298676
10	0xbd586c14	-0.052837446
11	0x3c46befc	0.012130495
12	0xbe583e00	-0.21117401
13	0x3b460bd1	0.0030219445
14	0xbdf64a91	-0.12025941
15	0xbdd38f1b	-0.103300296
16	0x3b3a79aa	0.0028453865
17	0xbdcb984b	-0.09941157
18	0x3d135e81	0.035978798
19	0x3d89d437	0.0672993
20	0xbdc42425	-0.095772065
21	0xbdbe8e03	-0.0930443
22	0x3bdbb3d9	0.006704789
23	0x3cd19902	0.025585655
24	0xbc8fa59f	-0.017535029
25	0x3dc2ee5c	0.0951812
26	0xbcb54b43	-0.022130614
27	0x3de9c53b	0.11414572
28	0xbcb56104	-0.022140987
29	0xbc805a83	-0.01566816
30	0xb9cb7372	-0.0003880519
31	0x3c69aa0f	0.014261737
32	0xbdc2eec2	-0.09518196
33	0xbe01c3bb	-0.12672321
34	0x3d19fa93	0.03759248
35	0xbd378908	-0.044808418
36	0xbdf0f032	-0.117645636
37	0xbe869ca2	-0.26291376
38	0x3d612fd3	0.05497725
39	0x3d9df729	0.07713158
40	0xbe1310b8	-0.14361846
41	0xbcf5119d	-0.029915625
42	0xbe23ff7e	-0.16015431
43	0xbe76ec50	-0.24113584
44	0x3d93344d	0.0718771
45	0xbe33cc0e	-0.1755831
46	0xbe03e60a	-0.12880722
47	0xbe2979b5	-0.16550334
48	0x3d749c7f	0.05971956
49	0xbdbf0e39	-0.09328885
50	0x3d86e98d	0.06587515
51	0x3e0b0425	0.135758
52	0xbd699228	-0.05702415
53	0x3de7f429	0.11325867
54	0x3dcd3d25	0.10021428
55	0xbd446784	-0.047950283
56	0x3de87f31	0.11352385
57	0xbd2d9e61	-0.04238737
58	0x3e806de8	0.25083852
59	0xbdd71be5	-0.10503367
60	0xbd190920	-0.037362218
61	0x3ce30406	0.02771188
62	0x3d918d11	0.071069844
63	0xbe295bed	-0.16538973
64	0xbe350f1b	-0.17681544
65	0xbc825ab3	-0.01591239
66	0xbc04114a	-0.008060763
67	0x3e40a984	0.18814665
68	0xbde209c0	-0.11037016
69	0xbd3d37e7	-0.04619589
70	0xbda1cd49	-0.07900483
71	0xbbc4bf00	-0.0060042143
72	0x3d28fd81	0.041257385
73	0x3be7fc35	0.007079626
74	0xbde123f6	-0.10993187
75	0x3c4b0c22	0.012393029
76	0xbd310761	-0.043219928
77	0xbdab9348	-0.08377701
78	0x3d0c8e5d	0.034315456
79	0x3dc4a399	0.09601516
80	0xbd04a580	-0.032384396
81	0x3d9038ba	0.0704207
82	0x3d713c55	0.058895428
83	0xbdb3b671	-0.08775032
84	0xbe0c59e3	-0.13706164
85	0xbc7ef441	-0.015561164
86	0x3da9aa61	0.0828445
87	0xbdc2fd61	-0.095209844
88	0x3dc0c199	0.09411926
89	0x3cb215dd	0.02173894
90	0xbd32ed66	-0.043683432
91	0xbde3d3ae	-0.11124359
92	0x3b520003	0.0032043464
93	0xbe4cc45d	-0.19996782
94	0xbdf612c5	-0.12015299
95	0xbda0cf09	-0.07851989
96	0x3dc075f2	0.09397496
97	0xbda63a95	-0.081166424
98	0xbdadb34d	-0.084814645
99	0xbcceae44	-0.02522958
100	0x3db0f528	0.0864051
101	0x3c46f23a	0.012142712
102	0x3d4ecce4	0.050488368
103	0x3db15ee2	0.086606756
104	0xbcc4ee8b	-0.024039527
105	0x3d011dcb	0.031522553
106	0x3d699162	0.057023413
107	0xbe3e0cdd	-0.18559594
108	0xbe7385af	-0.23781465
109	0xbd74451f	-0.05963623
110	0x3d8a52f5	0.06754104
111	0x3dbdc4b0	0.09266031
112	0xbbb72720	-0.005589381
113	0x3ceac382	0.028657679
114	0xbe13daf4	-0.14438993
115	0xbceaf751	-0.028682383
116	0x3e0ca320	0.13734102
117	0x3d0628c0	0.032753706
118	0xbc81e3db	-0.01585572
119	0xbd9392bb	-0.07205721
120	0xbda2c531	-0.079477675
121	0x3bcf3692	0.006323644
122	0x3cee18b3	0.029064512
123	0xbd8be209	-0.06830222
124	0x3c53cff6	0.012928
125	0x3dd9f8a6	0.10643129
126	0xbca95c20	-0.020673811
127	0xbbed1e13	-0.007236251
128	0xbce82586	-0.028338205
129	0x3dc0bb0c	0.09410676
130	0xbd9a1747	-0.07523971
131	0x3d710a61	0.05884779
132	0x3cad09ce	0.02112284
133	0xbd8aefd7	-0.06784027
134	0xbe03ca0a	-0.1287004
135	0x3d889f83	0.066710494
136	0xbbb8f8b1	-0.0056448807
137	0xbe0a8a42	-0.13529304
138	0xbe9667f7	-0.29376194
139	0xbd7e170e	-0.062033705
140	0x39ddc6ea	0.00042300607
141	0xbc5946c0	-0.013261497
142	0xbccd00c2	-0.025024775
143	0x3d38c20d	0.045106936
144	0x3cdb4851	0.026767882
145	0x3c63ebd3	0.013911205
146	0xbd336aa4	-0.043802872
147	0xbd8f677d	-0.07002161
148	0x3d1590b2	0.036514945
149	0x3dae8440	0.085213184
150	0xbd359414	-0.04433067
151	0x3ce57878	0.028011546
152	0xbc3e8408	-0.011628158
153	0x3d87b777	0.0662679
154	0xbdcd847b	-0.10035034
155	0xbd552241	-0.05203462
156	0xbe00c44c	-0.12574881
157	0x3d73cb70	0.059520185
158	0x3d405e46	0.046964906
159	0xbcf7175b	-0.030162504
160	0xbdab500c	-0.08364877
161	0xbe1b192e	-0.15146324
162	0xbc81bb51	-0.01583639
163	0x3c6782bd	0.0141302915
164	0xbccbf607	-0.024897588
165	0x3cbe9752	0.023265515
166	0xbc866acc	-0.016408347
167	0xbe1cd288	-0.15314686
168	0xbd33512a	-0.043778576
169	0xbd342be7	-0.04398718
170	0xbd950c2d	-0.07277713
171	0xbc05257d	-0.008126614
172	0xbd8d4fb3	-0.06899967
173	0xbde1e20c	-0.11029443
174	0x3c9e38ee	0.019314256
175	0xbc9c466b	-0.019076547
176	0xbc9af9bb	-0.018917909
177	0xbc4f19af	-0.012640401
178	0x3dac3fcc	0.08410606
179	0xbbae641c	-0.0053219926
180	0xbd38a636	-0.045080386
181	0xbc600d04	-0.013674978
182	0x3b701e51	0.0036639164
183	0x3ce15512	0.027506385
184	0x3cf4aa4d	0.029866362
185	0x3c95c5f5	0.01828287
186	0xbd0b3bf5	-0.033992726
187	0x3d648797	0.05579337
188	0x3ccba861	0.024860563
189	0x3e0aa556	0.13539633
190	0x3b62454b	0.0034526165
191	0xbd87aec4	-0.06625131
192	0xbbb337a7	-0.0054692808
193	0x3d957403	0.07297518
194	0xbdf95d57	-0.12176006
195	0x3d59bfdb	0.053161483
196	0xbcfc8045	-0.030822882
197	0xbd7755e3	-0.060384642
198	0xbcbe2ca6	-0.02321465
199	0xbde9261d	-0.11384223
200	0x3e152a5b	0.14566939
201	0xbdf72617	-0.12067812
202	0xba6e5ed0	-0.00090931077
203	0x3cdd88ed	0.02704283
204	0xbde9eae6	-0.114217564
205	0x3cdfe7b9	0.027332174
206	0xbbc614f8	-0.00604498
207	0x3d4b9dca	0.049711026
208	0x3c6e6c25	0.014552151
209	0xbc8835bb	-0.016627183
210	0xbca2e1d5	-0.019883076
211	0x3cf54801	0.02994156
212	0xbe0c0941	-0.13675405
213	0x3d96525a	0.07339926
214	0xbcc7d63e	-0.02439415
215	0xbe5069f8	-0.20352924
216	0xbd028eae	-0.03187435
217	0xbc904bed	-0.01761433
218	0x3d691720	0.05690682
219	0xbd7bcd09	-0.061474834
220	0x3c2e1cc8	0.010626979
221	0xbdb2534e	-0.08707295
222	0xbca4c417	-0.020113034
223	0x3d7b9d06	0.061429046
224	0xbd838616	-0.06422059
225	0x3d815cba	0.06316514
226	0xbc7d884d	-0.015474391
227	0x3ccc7d11	0.02496198
228	0xbc28556e	-0.010274274
229	0x3c195110	0.009357706
230	0x3e187ea5	0.14892061
231	0xbce89af9	-0.02839421
232	0x3cdb8877	0.02679847
233	0xbc85f8ac	-0.016353928
234	0xbc90daf0	-0.017682523
235	0xbd891aff	-0.06694602
236	0xbdb61ed8	-0.08892602
237	0x3d546f0a	0.051863708
238	0xbdb704e6	-0.08936481
239	0x3c80862f	0.015688984
240	0xbd509f33	-0.050933074
241	0x3c8ac7a5	0.016940901
242	0xbd206fd4	-0.039169148
243	0x3c3a608a	0.011375556
244	0xbd426107	-0.047455814
245	0xbcc2346c	-0.023706637
246	0x39ee3864	0.00045436912
247	0xbc45a2b2	-0.012062715
248	0x3c029fbf	0.007972657
249	0xbd7df342	-0.061999567
250	0x3c957def	0.018248526
251	0xba2c7c55	-0.0006579806
252	0xbe6476a3	-0.22310881
253	0xbc9c6b21	-0.019094052
254	0x3cebcad7	0.028783245
255	0xbc36af6d	-0.011150223

fcl2.bias f4 [300]
0	0x3db50aea	0.08839972
1	0x3d044ac2	0.032297857
2	0x3c9c3413	0.0190678
3	0x3ced7bc4	0.02898968
4	0x3cd46a84	0.025929697
5	0x3d75d3b4	0.06001635
6	0x3de30bec	0.11086258
7	0x3d8fed38	0.07027668
8	0xbcb4fab4	-0.0220922
9	0x3d4ad823	0.04952253
10	0xbd6684ab	-0.056278866
11	0x3cebf687	0.028804077
12	0x3d6e433a	0.05816958
13	0x3d7b861f	0.061407205
14	0x3d417e9d	0.04723989
15	0x3d678aa5	0.056528706
16	0x3cfc2181	0.030777695
17	0xbcd5cc5a	-0.026098419
18	0x3c5ad4d0	0.0133564025
19	0x3da68581	0.081309326
20	0x3d01962c	0.031637356
21	0x3c03b91b	0.008039738
22	0x3ca3ad6d	0.019980157
23	0x3db44aa0	0.08803296
24	0x3d1e17de	0.03859698
25	0x3d8dc16e	0.069216594
26	0x3ccd0ae1	0.025029602
27	0x3c8817df	0.016612945
28	0x3dfc45e9	0.12318022
29	0x3cc77ac6	0.024350535
30	0x3d3c499a	0.04596863
31	0x3d90bf0d	0.0706769
32	0xbce0bafb	-0.02743291
33	0x3c87a53c	0.016558282
34	0x3d7df0f7	0.06199738
35	0x3b6103a5	0.0034334448
36	0x3d9c7cc5	0.076409854
37	0x3de944bd	0.11390064
38	0x3d519707	0.05116942
39	0x3d91663e	0.07099579
40	0x3d43839a	0.047732927
41	0x3d0b39f4	0.033990815
42	0x3d7ba41f	0.061435815
43	0x3d43b64e	0.04778128
44	0x3d46c6b4	0.04852934
45	0x3d33d919	0.043908212
46	0x3bfb2b43	0.0076650693
47	0x3d36eeb3	0.044661235
48	0x3db3b02b	0.08773836
49	0x3d922bef	0.07137286
50	0xbd57126b	-0.0525078
51	0x3e1d7f8c	0.15380687
52	0x3dbe8f4b	0.09304675
53	0x3d936d67	0.07198601
54	0x3db73e33	0.089474104
55	0x3dd3904e	0.10330258
56	0x3d026093	0.03183038
57	0x3d9b9e54	0.07598558
58	0x3d8b825f	0.06811976
59	0xbd052667	-0.032507326
60	0x3d4e0cfc	0.05030535
61	0x3d67bccd	0.05657654
62	0x3d987c98	0.07445639
63	0x3d946f12	0.072477475
64	0x3c8139d1	0.01577464
65	0x3d8eddc7	0.069758944
66	0xbd3b0d91	-0.045667235
67	0x3da764ea	0.08173545
68	0x3d89781a	0.06712361
69	0x3d96aa08	0.0735665
70	0x3ca79102	0.020454887
71	0x3c66c82b	0.01408581
72	0x3d2ae31a	0.041720487
73	0x3da31394	0.079627186
74	0x3d9ee05a	0.077576354
75	0xbd9fb703	-0.077985786
76	0x3c4ef49f	0.012631564
77	0xbd47b190	-0.04875332
78	0x3d95c659	0.073132224
79	0x3db7ac73	0.08968439
80	0x3d1bd456	0.038044296
81	0x3db0674c	0.08613452
82	0x3cc42524	0.023943491
83	0x3cbbed10	0.022940189
84	0x3d59f4b9	0.0532119
85	0x3dfe08dc	0.124040335
86	0x3d92e3c8	0.07172352
87	0xba098589	-0.00052460335
88	0xbc7cdf80	-0.015434146
89	0x3d907e00	0.070552826
90	0xbcaa900e	-0.020820644
91	0x3cdd7f8f	0.027038364
92	0x3dcfdd86	0.10149674
93	0x3da8453e	0.08216332
94	0x3d716e2a	0.05894295
95	0x3c2bfd6a	0.01049743
96	0x3b0e93a1	0.0021755474
97	0x3d12912d	0.03578298
98	0x3c90573f	0.017619727
99	0x3d24afc4	0.040206686
100	0x3ce96adf	0.028493343
101	0x3d52d404	0.051471725
102	0x3e12cd71	0.14336182
103	0x3c32bf86	0.010909921
104	0xbc1c88ad	-0.00955407
105	0xba4350d9	-0.0007450707
106	0xbc177342	-0.009243788
107	0x3c61e75f	0.013788073
108	0x3d799fb0	0.060943305
109	0x3d987642	0.07444431
110	0xbc9f7a24	-0.01946742
111	0x3d1336a2	0.035940774
112	0xbc38c424	-0.011277232
113	0xbbe82d5f	-0.007085487
114	0x3da28f0f	0.079374425
115	0xba87bb5f	-0.0010355524
116	0xbd8f87ab	-0.070082985
117	0x3d860ede	0.065458044
118	0x3cf6a51b	0.030108025
119	0x3d21911d	0.03944503
120	0xbd44156e	-0.047872
121	0xbcbefa76	-0.023312788
122	0x3c349539	0.011021906
123	0x3dc9828b	0.09839352
124	0x3d1eb034	0.03874226
125	0x3da4d0c7	0.080476336
126	0x3d7c1860	0.061546683
127	0x3d18829b	0.03723393
128	0x3d6e6bbf	0.058208223
129	0x3cbcfe79	0.02307056
130	0xbc36d7ec	-0.011159878
131	0x3d26f2b6	0.04075881
132	0x3dbcfa95	0.09227482
133	0x3d4e4f1a	0.050368406
134	0xbdd1ef97	-0.10250776
135	0x3db00c21	0.085960634
136	0xbcfa982f	-0.030590145
137	0x3d448fe4	0.047988787
138	0x3c92c448	0.01791586
139	0x3d641205	0.055681247
140	0x3d31b49a	0.043385126
141	0x3d9915e7	0.07474881
142	0x3dc05d05	0.09392742
143	0xbcb01c61	-0.021497907
144	0x3d8a18b9	0.06742997
145	0x3caf93d5	0.021432796
146	0x3c9a872b	0.018863281
147	0x3d638e45	0.0555556
148	0x3dcd36e8	0.10020238
149	0x3d98549d	0.07438014
150	0x3d8d0432	0.06885566
151	0x3d266134	0.040620044
152	0x3e1b410a	0.15161529
153	0x3d0afc49	0.033932004
154	0x3d933336	0.07187502
155	0xbc9f49fa	-0.019444454
156	0x3dc92ebd	0.09823368
157	0xbd2df816	-0.04247292
158	0x3d26e14d	0.040742207
159	0xbcaa3058	-0.020775005
160	0x3db62e3e	0.08895539
161	0x3d96330e	0.07333957
162	0x3d7420d8	0.059601635
163	0x3caf371b	0.021388581
164	0x3c99ea22	0.018788401
165	0x3d5e96db	0.054343086
166	0x3db88362	0.09009434
167	0x3df7b417	0.12094896
168	0x3cdf0490	0.027223855
169	0x3db09595	0.086222805
170	0x3d557929	0.0521175
171	0x3c1e99c4	0.009680215
172	0x3de27bb9	0.110587545
173	0xbc250f5c	-0.010074463
174	0x3d0292b0	0.031878173
175	0x3af4040e	0.0018616931
176	0xbd58252e	-0.052769832
177	0x3d52e85d	0.05149113
178	0x3cf6d779	0.030132042
179	0x3cd7f018	0.026359603
180	0x3cc12937	0.023579223
181	0xbc064dd8	-0.00819727
182	0x3ce12866	0.027485084
183	0x3e0508d7	0.12991653
184	0x3d3e67ce	0.046485715
185	0x3d157404	0.036487594
186	0x3d91bb66	0.071158215
187	0x3c7e8b84	0.015536193
188	0x3dc2b7b9	0.095076986
189	0x3d274b43	0.04084326
190	0x3d5603ef	0.052249845
191	0x3d05a1c5	0.03262498
192	0x3d2d5be3	0.042323958
193	0x3c9b025e	0.018922027
194	0x3d92bdbf	0.071650974
195	0x3d93bc02	0.07213594
196	0x3d411947	0.047143247
197	0x3d71cdec	0.059034273
198	0x3d75e3ce	0.060031705
199	0x3d86cbf5	0.065818705
200	0x3dc4b560	0.09604907
201	0x3c90222e	0.017594423
202	0x3d5c7d5f	0.0538305
203	0x3c0a9e46	0.008460587
204	0x3d937673	0.07200327
205	0x3dacdf87	0.08441072
206	0xba091a8c	-0.0005230091
207	0xbd230967	-0.03980389
208	0x3c46b73d	0.012128648
209	0x3d0eda6d	0.034876276
210	0x3d8ae87b	0.067826234
211	0x3d8d6e40	0.06905794
212	0x3c222cd3	0.009898382
213	0x3d59b0ed	0.053147245
214	0x3c1437ff	0.009046554
215	0x3e03e00f	0.1287844
216	0x3d9a3d20	0.0753119
217	0x3c3edb68	0.01164899
218	0x3dfa4d18	0.12221736
219	0x3d511c3c	0.051052317
220	0x3da4f991	0.080554135
221	0x3d5708b2	0.052498527
222	0x3d1041cb	0.035218995
223	0x3d8859bc	0.066577405
224	0x3c8a5cc7	0.016889943
225	0x3be4d559	0.006983441
226	0x3e1426bb	0.144679
227	0x3d602bc2	0.05472923
228	0x3d6a4418	0.057193846
229	0x3c926d9d	0.017874533
230	0x3d895f27	0.06707602
231	0xbc99f290	-0.01879242
232	0x3daea271	0.08527077
233	0x3d63bcc9	0.05559996
234	0x3dba54c3	0.09098198
235	0x3dbccb47	0.092184596
236	0x3d6092c5	0.05482747
237	0x3da1ae8e	0.07894622
238	0xbc10eb45	-0.008845155
239	0x3cae9053	0.021309054
240	0x3dd71945	0.10502867
241	0x3d053b45	0.032527227
242	0x3d12e378	0.035861462
243	0xbcd845ab	-0.026400408
244	0xbd3a4e3a	-0.04548476
245	0xbd224704	-0.039618507
246	0x3d4d8d8a	0.05018381
247	0x3a455ee8	0.0007529096
248	0x3d62d5ee	0.0553798
249	0x3e3052fd	0.17219158
250	0x3df2ad8d	0.118495084
251	0x3d9fea63	0.078083776
252	0x3d140d90	0.036145747
253	0x3d7539bd	0.059869517
254	0x3d633ad7	0.055476036
255	0x3d95119e	0.07278751

fcl3.weight f4 [2, 300]
0	0x3df8c9de	0.12147878
1	0xbddeb28c	-0.10873899
2	0x3e21671b	0.15761988
3	0x3e22a389	0.15882696
4	0x3dafa6a5	0.08576707
5	0x3e19ff50	0.150388
6	0x3d177c0e	0.036983542
7	0x3e3905b1	0.18068577
8	0xbe25c09f	-0.1618676
9	0x3e0833df	0.13301037
10	0xbe1b6cd8	-0.1517824
11	0x3e16056d	0.14650507
12	0x3de42171	0.11139191
13	0x3dd33fef	0.10314929
14	0xbe347a6a	-0.17624822
15	0x3e03caa7	0.12870274
16	0xbe16b662	-0.14718011
17	0xbdca4300	-0.098760605
18	0xbe2234b9	-0.15840425
19	0xbe3aca05	-0.18241127
20	0xbe8a44bf	-0.27005574
21	0xbae9dc36	-0.0017842117
22	0xbde86885	-0.113480605
23	0x3db990f4	0.09060851
24	0xbe0cb136	-0.13739476
25	0x3d9bdc15	0.07610337
26	0xbe201759	-0.15633906
27	0xbe17cb81	-0.14823724
28	0x3d8cdc14	0.06877914
29	0xbdcd1203	-0.10013201
30	0xbc51755d	-0.012784329
31	0x3e1300f4	0.14355832
32	0xbe2992b6	-0.16559872
33	0x3e6bed6f	0.23039792
34	0x3db99832	0.09062232
35	0xbe4c01e0	-0.1992259
36	0x3df801c7	0.12109714
37	0xbe6ea8f8	-0.23306644
38	0xbe6ed89e	-0.2332482
39	0x3e0774bd	0.13228126
40	0x3e7755b3	0.24153785
41	0x3dea7ebf	0.11449956
42	0xbe3e71b9	-0.18598069
43	0xbe809f58	-0.2512157
44	0xbe12da8e	-0.14341184
45	0x3dfd2e2b	0.123623215
46	0xbdd75bf2	-0.10515584
47	0x3e1cd33c	0.15314955
48	0x3db94273	0.09045877
49	0x3e0c7046	0.13714704
50	0xbe0ba2af	-0.13636278
51	0x3ce00eae	0.02735075
52	0x3e12a827	0.14321958
53	0xbe792385	-0.24329956
54	0x3dd2c6ff	0.10291862
55	0x3e29ef43	0.16595177
56	0xbd3131a4	-0.04326023
57	0xbd6253be	-0.055255644
58	0x3d8d0a1f	0.06886696
59	0xbe7ceefd	-0.24700542
60	0x3e36979b	0.1783127
61	0xbdac3f4b	-0.0841051
62	0xbe30b848	-0.17257798
63	0x3dc39f17	0.09551828
64	0xbe479006	-0.19488534
65	0x3df07024	0.11740139
66	0x3e823ccc	0.2543701
67	0x3d822bf6	0.06356041
68	0x3e93316f	0.28748652
69	0x3e631126	0.2217451
70	0x3e123e95	0.14281686
71	0xbe8b75d2	-0.27238327
72	0xbe5a86a6	-0.21340427
73	0x3e2331e4	0.15937
74	0xbe780474	-0.24220449
75	0xbe4be3cd	-0.19911118
76	0x3e915a8f	0.28389403
77	0xbe1bc162	-0.15210488
78	0xbe565c0e	-0.20933554
79	0x3e1a4d2e	0.15068504
80	0x3e80dced	0.25168553
81	0xbe9fafb8	-0.3118875
82	0x3e8074d4	0.25089133
83	0x3e01b523	0.12666754
84	0xbe274c18	-0.16337621
85	0xbcf54599	-0.029940413
86	0x3e0e955d	0.13924165
87	0xbe205fb3	-0.15661506
88	0xbe43c7c2	-0.1911917
89	0x3e035648	0.12825882
90	0xbdb3220a	-0.08746727
91	0x3d694967	0.056954768
92	0xbe78b12d	-0.24286337
93	0xbe23b6dc	-0.15987724
94	0xbe2ebb99	-0.1706375
95	0x3d8b5b4a	0.068045214
96	0xbdf3d1e7	-0.1190527
97	0xbe02d1cd	-0.12775345
98	0x3ddbcc45	0.10732321
99	0xbe88d81e	-0.26727384
100	0x3dfb227a	0.12262435
101	0xba997fe5	-0.0011711089
102	0x3e20c098	0.15698469
103	0x3d954c53	0.07289948
104	0x3e32710c	0.17425936
105	0xbdbcb7c8	-0.09214741
106	0xbe5e9446	-0.2173625
107	0xbe71231d	-0.23548551
108	0xbe1914d0	-0.14949346
109	0x3e126f73	0.14300327
110	0xbdebfaaa	-0.1152242
111	0x3dae3af2	0.08507337
112	0xbddefd0f	-0.10888111
113	0x3e210370	0.15723968
114	0xbdc602ad	-0.09668479
115	0xbde4a7d2	-0.11164822
116	0xbe27f18f	-0.16400741
117	0x3e260604	0.16213232
118	0xbe86332f	-0.26210925
119	0xbe12d6be	-0.1433973
120	0xbd7bca14	-0.061472014
121	0xbd7dd3a7	-0.061969426
122	0x3e1a4972	0.1506708
123	0xbe8500cf	-0.2597718
124	0xbe154fed	-0.1458127
125	0x3dfe5925	0.12419347
126	0x389f25e4	7.5887685e-05
127	0x3e500b8e	0.20316908
128	0xbe26fc53	-0.16307192
129	0x3d7ec22d	0.0621969
130	0x3e23b394	0.15986472
131	0xbe1d634c	-0.1536991
132	0x3e86c95b	0.26325497
133	0x3e14b679	0.14522733
134	0xbe69f02e	-0.22845528
135	0x3e19c02f	0.15014718
136	0xbdb3f93b	-0.08787771
137	0xbe48d0e1	-0.19610931
138	0xbdc48694	-0.09595981
139	0x3e0b1a13	0.13584165
140	0xbe6db765	-0.2321449
141	0x3de65767	0.112471394
142	0x3e40088e	0.18753263
143	0xbdd62c16	-0.104576275
144	0xbe370275	-0.17872031
145	0xbdc95168	-0.0982998
146	0x3e364b7c	0.17802233
147	0xbde11bbf	-0.1099162
148	0x3dad06e2	0.084485784
149	0xbe21cf0a	-0.15801635
150	0x3db7a3f3	0.08966818
151	0xbdc3eca3	-0.09566619
152	0x3e157992	0.14597157
153	0xbe11c48f	-0.14235137
154	0xbe786553	-0.24257402
155	0xbddba2f7	-0.107244425
156	0xbe0a5ea3	-0.13512664
157	0xbe363149	-0.17792238
158	0x3e2e9ebf	0.17052744
159	0x3e4244ca	0.18971553
160	0x3e1a1585	0.15047272
161	0x3dccdc1d	0.10002921
162	0xbe13e8e9	-0.14444317
163	0xbe06c450	-0.13160825
164	0x3e1ef7c8	0.15524209
165	0xbcfb4b84	-0.030675657
166	0xbe671d75	-0.2256983
167	0x3d5548f4	0.052071527
168	0xbda61309	-0.081090994
169	0xbd6235bf	-0.055227038
170	0x3e15a7d6	0.14614806
171	0x3e214827	0.1575018
172	0x3e14f787	0.14547549
173	0x3e0ae958	0.13565576
174	0xbd253fca	-0.040344037
175	0xbe24f5b8	-0.1610936
176	0xbe18c77c	-0.14919847
177	0xbe86e724	-0.2634822
178	0xbe4a3d52	-0.19749954
179	0x3dd659ca	0.10466345
180	0x3e49b054	0.1969617
181	0xbe33f739	-0.17574777
182	0xbe686e89	-0.22698416
183	0xbdeb769e	-0.11497234
184	0x3e0fb9ac	0.14035672
185	0x3dd9abf5	0.10628501
186	0xbe3ee569	-0.186422
187	0xbe63cdd0	-0.2224648
188	0xbdb522c8	-0.088445246
189	0x3df53609	0.11973197
190	0x3dbadd81	0.0912428
191	0xbe18376c	-0.14864892
192	0xbe457ec0	-0.19286633
193	0xbe53f35a	-0.206983
194	0xbe04e93d	-0.12979598
195	0xbd9f65c1	-0.0778308
196	0x3e1337e1	0.14376785
197	0x3e5af5b0	0.21382785
198	0x3d1f34e1	0.03886879
199	0x3e482066	0.19543609
200	0x3e60944b	0.2193157
201	0x3ddc7351	0.10764182
202	0x3dd73a89	0.105092116
203	0x3e27cc53	0.16386537
204	0x3e10e0d2	0.14148262
205	0x3dfb58c8	0.12272793
206	0xbe459c55	-0.19297917
207	0xbe5dc86d	-0.21658488
208	0xbe272f0a	-0.16326538
209	0x3ed1d5a2	0.409833
210	0x3c674b21	0.014117033
211	0x3d5ed913	0.054406237
212	0xbe5c4c55	-0.21513493
213	0xbe251604	-0.1612168
214	0xbe469c7c	-0.19395632
215	0x3e19042f	0.14943002
216	0xbe189e55	-0.14904149
217	0xbda34ae6	-0.0797327
218	0x3da3a150	0.07989752
219	0x3e1cce7c	0.15313143
220	0xbe96d1ea	-0.29457027
221	0xbe07f3a6	-0.13276538
222	0xbe8665ce	-0.26249546
223	0x3dc925aa	0.09821637
224	0x3da6e1cd	0.08148537
225	0xbe598a0e	-0.2124407
226	0x3dbe98b2	0.09306468
227	0x3da660ec	0.08123955
228	0xbd0585ac	-0.032598183
229	0xbe202f1e	-0.15642974
230	0xbe8306b0	-0.2559104
231	0xbe72da3b	-0.23716061
232	0x3d047742	0.032340296
233	0xbe26e4a2	-0.16298154
234	0xbe65e41b	-0.22450297
235	0x3dfab407	0.12241369
236	0xbda06a85	-0.07832817
237	0x3cbd44de	0.023104127
238	0x3dfc6245	0.12323431
239	0xbe6289d4	-0.2212289
240	0x3dad32a3	0.08456924
241	0x3dcb005c	0.09912178
242	0x3d76b6ea	0.060233034
243	0xbe4d2d35	-0.20036776
244	0xbdd69d73	-0.1047925
245	0xbd557d08	-0.052121192
246	0xbe028c99	-0.12748946
247	0xbda623bc	-0.081122845
248	0xbe58b1e5	-0.21161611
249	0x3dcbda9b	0.09953805
250	0xbe568416	-0.20948824
251	0xbe805149	-0.25062016
252	0xbdf94d58	-0.12172955
253	0xbe21315b	-0.15741484
254	0x3dd22e8a	0.10262783
255	0xbddebc2a	-0.10875733

fcl3.bias f4 [2]
0	0x3d8e24fd	0.06940649
1	0xbd6c3199	-0.057664488

bn1.weight f4 [400]
0	0x3f080a50	0.53140736
1	0x3e98c561	0.29838088
2	0x3f7f8d28	0.9982476
3	0x3f73edea	0.95284903
4	0x3f557267	0.8337769
5	0x3eef8c2c	0.4678663
6	0x3f54f6d4	0.8318913
7	0x3f76b9fb	0.96377534
8	0x3ecbdbd5	0.39816156
9	0x3dd8e112	0.10589804
10	0x3f2bfa25	0.67178565
11	0x3eebb534	0.46036685
12	0x3f043254	0.51639295
13	0x3e22c357	0.15894829
14	0x3f3778e0	0.71668816
15	0x3f0490b6	0.5178331
16	0x3f76a8c4	0.96351266
17	0x3f549403	0.8303835
18	0x3f833386	1.0250099
19	0x3eaa7d43	0.33298692
20	0x3f6cb13e	0.9245795
21	0x3ec63d79	0.38718775
22	0x3f6520ba	0.8950306
23	0x3f5e1531	0.86751086
24	0x3e31a7f7	0.1734923
25	0x3f858446	1.0430992
26	0x3e04e4df	0.12977932
27	0x3eba120f	0.36341903
28	0x3e830e3c	0.25596797
29	0x3eca91b0	0.39564276
30	0x3f037f9c	0.5136659
31	0x3f7a7f4a	0.9785048
32	0x3f2d0982	0.6759263
33	0x3f82d816	1.0222194
34	0x3f2d51b0	0.6770277
35	0x3f65ce57	0.89767975
36	0x3f009e42	0.5024148
37	0x3ee3b70d	0.44475594
38	0x3ea0e478	0.31424308
39	0x3e451af7	0.19248568
40	0x3f84ab9d	1.0364872
41	0x3f282220	0.6567707
42	0x3ed964c8	0.42459702
43	0x3f7a158c	0.9768913
44	0x3f6ab07f	0.9167556
45	0x3edcdc29	0.4313672
46	0x3f9696ff	1.176483
47	0x3f5a6efa	0.85325587
48	0x3e66d09f	0.2254052
49	0x3f1637de	0.58678997
50	0x3e929327	0.28627893
51	0x3ed1081d	0.40826502
52	0x3ebbbf45	0.36669365
53	0x3f8dfe62	1.1093256
54	0x3f7e72c5	0.99393874
55	0x3f43109a	0.76197207
56	0x3f1d7a6c	0.61514926
57	0x3e2f1560	0.17097998
58	0x3ebcd2bd	0.3687953
59	0x3f2a9914	0.6663983
60	0x3f7373a1	0.9509831
61	0x3f802f1a	1.0014374
62	0x3ec1a285	0.37819305
63	0x3f52ae60	0.82297325
64	0x3e76cb02	0.24100879
65	0x3e9e9cb5	0.30978933
66	0x3eed4eb7	0.46349117
67	0x3e987ea8	0.2978413
68	0x3f6a222c	0.9145839
69	0x3f717239	0.94314915
70	0x3e8da677	0.27666065
71	0x3f219ca7	0.6312966
72	0x3f22b3f8	0.6355586
73	0x3e8f9e8c	0.2805065
74	0x3f47f3ac	0.7810619
75	0x3f72f6ef	0.9490804
76	0x3effc2f2	0.4995342
77	0x3f7bc0f7	0.98341316
78	0x3ec30f73	0.38097724
79	0x3f045a15	0.51699954
80	0x3e946455	0.28982797
81	0x3f2e70cb	0.6814086
82	0x3f1b4add	0.6066111
83	0x3f2c3c4e	0.6727952
84	0x3ecdb027	0.40173456
85	0x3eda3811	0.426209
86	0x3f87c844	1.0607991
87	0x3f534f26	0.82542646
88	0x3f34dc74	0.70648885
89	0x3ece9551	0.40348294
90	0x3f7993bc	0.9749105
91	0x3f042b9a	0.5162903
92	0x3f7bcc78	0.9835887
93	0x3f880a34	1.0628114
94	0x3ed381f5	0.41310087
95	0x3efd4d57	0.49473068
96	0x3e333961	0.17502357
97	0x3edf0ac4	0.435629
98	0x3f8fd7c9	1.1237727
99	0x3dc964a0	0.09833646
100	0x3eb6a2c6	0.3567106
101	0x3f0724fd	0.52790815
102	0x3f6c5702	0.92320263
103	0x3ea81298	0.32826686
104	0x3f06c88c	0.5264976
105	0x3ef66317	0.48122475
106	0x3e86df22	0.26342112
107	0x3f846d05	1.034577
108	0x3f79e5d1	0.97616297
109	0x3f5eddab	0.8705699
110	0x3f73756f	0.95101064
111	0x3ea84544	0.32865345
112	0x3e90b632	0.28264004
113	0x3f356dd2	0.708707
114	0x3eee4a9d	0.465413
115	0x3f529bec	0.8226917
116	0x3ecfc1de	0.40577596
117	0x3f369527	0.7132134
118	0x3e5212c5	0.20514973
119	0x3f63375e	0.8875636
120	0x3f883d8a	1.064378
121	0x3f477c20	0.77923775
122	0x3e99bf26	0.30028647
123	0x3f964f5c	1.1742969
124	0x3edab20f	0.42713973
125	0x3f968cfb	1.1761774
126	0x3edf3e81	0.43602374
127	0x3f7a6e85	0.9782489
128	0x3f432cc7	0.762402
129	0x3eb2a3b6	0.34890527
130	0x3eb6342b	0.35586676
131	0x3e712376	0.23548684
132	0x3f21b760	0.63170433
133	0x3f00717b	0.5017316
134	0x3f0c1f32	0.547351
135	0x3f6637a6	0.8992866
136	0x3f0e04fd	0.5547636
137	0x3f1f0b6a	0.6212679
138	0x3f4b58d5	0.7943242
139	0x3f1e570b	0.6185157
140	0x3f805295	1.0025202
141	0x3eb83739	0.35979632
142	0x3f09051e	0.53523433
143	0xbec0fea5	-0.37694278
144	0x3e9763f6	0.29568452
145	0x3f57618c	0.8413322
146	0x3f1365d4	0.5757725
147	0x3ec97c27	0.39352533
148	0x3e8b4bde	0.2720632
149	0x3f8561fa	1.0420525
150	0x3f02d850	0.51111317
151	0x3ebe1e67	0.3713257
152	0x3f4b89c4	0.7950709
153	0x3ed9e718	0.42559123
154	0x3f3a9bb9	0.72893864
155	0x3ee86f93	0.45397624
156	0x3f2c00d7	0.6718878
157	0x3e369659	0.1783079
158	0x3ebdca25	0.37068287
159	0x3f781661	0.9690915
160	0x3f81377e	1.009506
161	0x3f7ec54f	0.9951982
162	0x3e9dd349	0.3082526
163	0x3f8497cc	1.0358825
164	0x3f1feea2	0.624735
165	0x3f4973cf	0.78692335
166	0x3eaf27a5	0.34209934
167	0x3f3a43db	0.7275979
168	0x3e89d8aa	0.26923114
169	0x3f745e6f	0.95456594
170	0x3f83f72d	1.0309807
171	0x3edada14	0.42744505
172	0x3f778aca	0.9669615
173	0x3e84eafc	0.2596053
174	0x3e83ba80	0.25728226
175	0x3f3b7e5b	0.7323968
176	0x3f16154d	0.5862625
177	0x3f72c615	0.948335
178	0x3e5f4731	0.21804501
179	0x3f1abd72	0.6044532
180	0x3f492d7e	0.7858504
181	0x3e62d636	0.22152027
182	0x3eed172f	0.4630675
183	0x3f5c6878	0.86096907
184	0x3edcd9e4	0.43134987
185	0x3d738eee	0.05946248
186	0x3f23d803	0.6400148
187	0x3f5d33af	0.8640699
188	0x3f7d7170	0.99001217
189	0x3e4a1dcd	0.1973793
190	0x3f84aad9	1.0364639
191	0x3f8a6f09	1.0815135
192	0x3ef60bd8	0.4805591
193	0x3f5a3aad	0.8524578
194	0x3ee4cc0f	0.44686934
195	0x3e3c145d	0.18367143
196	0x3f51dec5	0.81980544
197	0x3ed515c5	0.4161817
198	0x3eade45b	0.33963284
199	0x3df58152	0.119875565
200	0x3ebd3e03	0.36961374
201	0x3f59a4c0	0.85017014
202	0x3f556305	0.83354217
203	0x3f2035c5	0.62582046
204	0x3f17b997	0.5926756
205	0x3ec4a7af	0.38409182
206	0x3e89cbcf	0.26913306
207	0x3f77059b	0.9649293
208	0x3e5c6a1a	0.2152485
209	0x3d4d7d09	0.05016807
210	0x3f81b29a	1.013263
211	0x3ef4ab6e	0.4778704
212	0x3f8f417b	1.1191858
213	0x3f84424e	1.0332735
214	0x3e7b1de3	0.2452312
215	0x3f8755a5	1.0573012
216	0x3e8870ee	0.2664866
217	0x3ed1ed65	0.4100143
218	0x3f302df1	0.688201
219	0x3f898f8c	1.0746932
220	0x3e837ea4	0.25682557
221	0x3f7968a4	0.97425294
222	0x3f477f7a	0.7792889
223	0x3eaa82a7	0.33302805
224	0x3e9ae180	0.30250168
225	0x3e88eb64	0.2674209
226	0x3f056553	0.52107733
227	0x3ee1d172	0.44105107
228	0x3f0930c1	0.5359002
229	0x3e52dd48	0.20592225
230	0x3f0045cb	0.50106496
231	0x3f651d66	0.89497983
232	0x3f29a7d6	0.6627172
233	0x3f7b902b	0.9826686
234	0x3f3a66dc	0.728132
235	0x3f3dfe4e	0.74216163
236	0x3d8ab1de	0.06772207
237	0x3f4836e6	0.7820877
238	0x3f818275	1.0117937
239	0x3f3f57ec	0.74743533
240	0x3ed56229	0.41676453
241	0x3ecea24a	0.40358192
242	0x3f3f7494	0.7478726
243	0x3f5b0a8b	0.8556296
244	0x3f7e7791	0.99401194
245	0x3f0064bf	0.50153726
246	0xbe691f3b	-0.2276582
247	0x3f66d910	0.9017496
248	0x3f5f5511	0.87239176
249	0x3eaf369a	0.34221345
250	0x3f48e153	0.7846882
251	0x3e4ad7d8	0.198089
252	0x3ec65739	0.3873842
253	0x3f1ddb35	0.6166261
254	0x3f708d61	0.9396573
255	0x3f3fb0fc	0.7487943

bn1.bias f4 [400]
0	0xbd07633f	-0.033053633
1	0x3bb2f92c	0.0054618325
2	0xbda175a0	-0.07883763
3	0xbd0d9a34	-0.034570888
4	0x3cd8049c	0.026369385
5	0xbc32d8d4	-0.010915954
6	0xbbb21276	-0.0054343296
7	0xbd76a66e	-0.060217313
8	0x3cbe7b86	0.02325226
9	0x3d22ede6	0.03977766
10	0x3c890fe2	0.016731206
11	0xbc78eb10	-0.015192762
12	0xbce3b3ed	-0.027795756
13	0xbdb5bbe9	-0.08873732
14	0x3d28d1ae	0.04121559
15	0x3c5a3bed	0.0133199515
16	0xbcc29cce	-0.02375641
17	0xbcc35bab	-0.023847422
18	0x3caf0708	0.021365657
19	0xbd2feb84	-0.042949215
20	0x3c84bfb7	0.016204698
21	0xbd5fcd22	-0.05463899
22	0xbd1c799a	-0.038201906
23	0x3b48aaa9	0.00306193
24	0x3c9907f2	0.018680546
25	0x3d42502c	0.04743974
26	0x3ddaed61	0.10689808
27	0x3de34a23	0.11098125
28	0xbd383a1b	-0.04497729
29	0x3c457d39	0.012053781
30	0x3d21ef01	0.039534573
31	0x3b29e345	0.0025922817
32	0x3c105d31	0.008811281
33	0xbd1ba810	-0.038002074
34	0x3d3cf837	0.046135154
35	0x3d1913b6	0.037372313
36	0x3cced82e	0.025249567
37	0xbdde0657	-0.10841053
38	0xbda386e7	-0.07984715
39	0x3d9b847c	0.07593629
40	0xbd9f46fe	-0.077772126
41	0xbc11d76f	-0.008901461
42	0xbc9fa732	-0.019488905
43	0xbcee67a6	-0.029102158
44	0x3d0de4bb	0.034641962
45	0x3c8056dd	0.01566642
46	0xbded18d4	-0.11577001
47	0xbc0b783e	-0.008512555
48	0x3e0e9612	0.13924435
49	0xbcbe9e8d	-0.023268962
50	0x3db63fb4	0.08898869
51	0x3c6afac1	0.014342011
52	0xbc01ece8	-0.007930018
53	0x3c5cbdb0	0.013472959
54	0x3d6db24f	0.058031376
55	0xbd10dba0	-0.0353657
56	0x3dc88a7c	0.09792039
57	0xbd2c789f	-0.04210722
58	0x3d9845ec	0.074352115
59	0xbd1d6030	-0.03842181
60	0x3d935903	0.07194712
61	0xbc882744	-0.016620286
62	0x3d7a8584	0.061162487
63	0x3c04748a	0.008084426
64	0xbd064dc6	-0.032789014
65	0x3df0b99e	0.11754154
66	0x3d0856e9	0.03328601
67	0x3d975a7f	0.07390308
68	0x3cee35f4	0.029078461
69	0x3ab89f9b	0.0014085652
70	0xbca53c29	-0.020170288
71	0xbc448a67	-0.011995888
72	0xbd2e2b10	-0.042521536
73	0x3dda2b10	0.10652745
74	0x3cce609d	0.025192553
75	0xbc5702a9	-0.013123193
76	0xbd72b517	-0.059254732
77	0x3cc86bfd	0.024465555
78	0x3aa9966f	0.001293851
79	0x3d36806d	0.04455607
80	0xbc86e4fc	-0.01646661
81	0x3d6156e1	0.055014495
82	0x3d9eeb74	0.07759753
83	0xbcaf1987	-0.021374477
84	0xbb9f5b30	-0.0048631653
85	0xbcd1ad78	-0.025595412
86	0xbd7b5a26	-0.06136527
87	0xbd1834ad	-0.03715961
88	0x3dff288b	0.12458905
89	0x3dc986b7	0.09840148
90	0x3c068f4c	0.008212876
91	0xbd25bda9	-0.040464077
92	0x3d1cef43	0.038314115
93	0x3dc53677	0.09629529
94	0x3c0e1a48	0.008673258
95	0xbd2c5e6b	-0.04208223
96	0x3ccd25d1	0.025042446
97	0xbdbbf75c	-0.091780394
98	0xbd851001	-0.06497193
99	0x3dea4555	0.11439005
100	0x3c43ec37	0.0119581735
101	0xbc88aae4	-0.01668305
102	0x3cb0dd5c	0.021589927
103	0x3d74e737	0.059790816
104	0xbcedd8d2	-0.029034052
105	0x3b35502b	0.0027666192
106	0x3db231ca	0.08700903
107	0xbc0c22aa	-0.008553186
108	0xbd6ecf04	-0.058302894
109	0x3c66f1cc	0.014095735
110	0x3d6827d5	0.05667861
111	0x3d55ede6	0.05222883
112	0x3c09d58b	0.008412729
113	0xbb52ba0e	-0.0032154354
114	0xbddf6987	-0.109087996
115	0x3cca0930	0.024662584
116	0xbd271606	-0.040792488
117	0x3d8d2619	0.06892032
118	0x3daec80a	0.08534248
119	0xbc89e187	-0.016831173
120	0x3d06f035	0.032943923
121	0xbc86d770	-0.01646015
122	0xbcaa368e	-0.020777967
123	0xbd29603d	-0.041351546
124	0xbc5fcbbe	-0.013659416
125	0x3d4ceac9	0.050028596
126	0xbc2d8b5e	-0.01059231
127	0xbcffbd7e	-0.031218287
128	0xbd6b8902	-0.057503708
129	0xbc55cb2e	-0.01304893
130	0x3d8bcedf	0.06826567
131	0xbdb41c02	-0.087944046
132	0x38f324b6	0.00011593981
133	0xbd4a3c12	-0.049373694
134	0xbd35fa94	-0.044428423
135	0x3d6da7ec	0.05802147
136	0xbc26b446	-0.0101748165
137	0xbd558149	-0.05212525
138	0xbcafa1cf	-0.021439461
139	0x3cf1ab19	0.029500531
140	0x3d176d38	0.036969393
141	0x3d3c8ec3	0.046034586
142	0xbb9c4e7b	-0.004770098
143	0x3dd1d354	0.10245386
144	0x3c9cf16e	0.019158091
145	0x3c76cda0	0.015063673
146	0xbd3b8831	-0.04578418
147	0xbd0a9c12	-0.033840246
148	0x3d5d1953	0.05397923
149	0x3d19b6c2	0.037527807
150	0x3c260e96	0.0101353135
151	0x3d87ff0a	0.06640442
152	0x3dea7840	0.11448717
153	0xbc72a695	-0.014810224
154	0x3cde7212	0.027154002
155	0x3c5e1737	0.01355534
156	0xbd837968	-0.06419641
157	0x3c333d3a	0.0109398905
158	0x3d9e88e4	0.077409536
159	0xbd0762b5	-0.03305312
160	0x3d879b3e	0.06621407
161	0x3be981fb	0.0071260906
162	0xbd344287	-0.044008758
163	0x3c9f58f5	0.019451598
164	0x3cd07902	0.025448326
165	0x3d3e25e0	0.04642284
166	0xbd8a1ba8	-0.06743556
167	0xbc538b5b	-0.012911643
168	0x3d37ae2c	0.044843838
169	0x3cd56845	0.026050696
170	0x3d0aa5cf	0.033849534
171	0x3d19c93d	0.03754543
172	0xbcc402f7	-0.023927195
173	0xbc1bd9a4	-0.009512339
174	0x3cafad5c	0.021444969
175	0xbbffd758	-0.0078076534
176	0x3c6a1a01	0.014288426
177	0x3cd7ed44	0.026358254
178	0x3da233f9	0.07920069
179	0x3d730b00	0.059336662
180	0xbd03681d	-0.032081712
181	0xbd4bcd7c	-0.049756512
182	0x3cf08213	0.0293589
183	0xbb3ecad2	-0.002911259
184	0x3dabdeac	0.08392081
185	0x3d99ee3a	0.07516141
186	0xbca79215	-0.0204554
187	0x3d39d85e	0.04537236
188	0x3db7976d	0.08964429
189	0xbc408678	-0.01175081
190	0xbd675cbd	-0.056484926
191	0xbd763ce9	-0.060116682
192	0x3c908dad	0.017645681
193	0x3caf1e5a	0.021376777
194	0xbd152e2e	-0.036420994
195	0x3dc64d6c	0.09682736
196	0xbd790d6b	-0.060803812
197	0xbd2ee08c	-0.042694613
198	0xbd1e8903	-0.038704883
199	0xbd4d7c38	-0.050167292
200	0x3d6b7cbe	0.05749201
201	0x3d221150	0.03956729
202	0x3c9a0da7	0.018805338
203	0x3ddbdaf6	0.10735123
204	0x3d48d9d2	0.049035855
205	0xbd3b9cc6	-0.045803808
206	0x3d358835	0.04431935
207	0xbcc2cc99	-0.0237792
208	0x3dfa28a8	0.12214786
209	0x3e025f26	0.12731609
210	0xbd630ab4	-0.05543013
211	0x3ca14462	0.019685928
212	0xbcd4a500	-0.025957584
213	0xbd1de369	-0.038546953
214	0x3dbce221	0.09222818
215	0xbda8f8b3	-0.082505606
216	0xbd8cb33d	-0.068701245
217	0x3e10b746	0.14132413
218	0x3d23f72b	0.04003064
219	0xbbb05b94	-0.0053820107
220	0x3d72b3c8	0.059253484
221	0xbd4fdf7b	-0.050750237
222	0x3be790d2	0.0070668245
223	0x3b1f461e	0.0024303268
224	0x3d1e0633	0.03858013
225	0x3d3eef47	0.04661491
226	0xbcd49f64	-0.02595491
227	0xbc63a433	-0.013894129
228	0x3d4f15ee	0.050558023
229	0x3dad7633	0.0846981
230	0x3da43936	0.080187246
231	0xbd5bff62	-0.05371035
232	0x3d8b16aa	0.06791432
233	0x3d780120	0.060547948
234	0x3b409213	0.0029383942
235	0xbd24083e	-0.040046923
236	0xbd975c9b	-0.0739071
237	0x3d6fffb4	0.058593467
238	0xbc011378	-0.007878177
239	0x3a5797c2	0.0008224213
240	0xbc3458e9	-0.011007526
241	0xbcd67fc8	-0.026183978
242	0x3d027389	0.031848464
243	0x3c02dbc3	0.007986966
244	0xbce2c018	-0.027679488
245	0xbc9259c4	-0.01786507
246	0x3db1318f	0.08652031
247	0x3d26b4d8	0.04069981
248	0xbce2c261	-0.027680578
249	0xbd4281d5	-0.0474871
250	0xbcd4662a	-0.025927622
251	0x3bc9b33f	0.006155401
252	0x3cd54c92	0.026037488
253	0xbd734484	-0.059391513
254	0xbc559393	-0.013035673
255	0xbbec7df8	-0.007217165
