p3_collab-compet/implementation/my_actor_1.pth (torch_old, 531459 bytes, 10 tensors)

fcl1.weight f4 [400, 24]
0	0xbd2785f6	-0.04089924
1	0x3d9b979d	0.07597277
2	0x3afa9643	0.0019118268
3	0x3cae8a8b	0.021306297
4	0x3d1a060c	0.037603423
5	0xbd39ed00	-0.045392036
6	0x3cd1dc0a	0.025617618
7	0x3dabc6bc	0.08387515
8	0x3ce370b7	0.027763708
9	0x3d1c67bb	0.038184863
10	0xbd6aa569	-0.057286654
11	0x3c823993	0.015896594
12	0x3d02d18d	0.031938124
13	0xbca8fbb2	-0.02062783
14	0x39f8b2f7	0.00047435585
15	0x3d3471ca	0.04405383
16	0xbb62ec3b	-0.0034625668
17	0x3dc8891c	0.097917765
18	0xbd63ec61	-0.05564535
19	0x3d1cd24d	0.038286496
20	0x3db06cfd	0.08614538
21	0xbe03099e	-0.12796637
22	0x3cbef124	0.023308344
23	0x3d92239f	0.071357004
24	0x3d07d1c9	0.03315905
25	0x3e09cfb5	0.1345814
26	0xbb0ccf2c	-0.0021485789
27	0x3d022eba	0.031782843
28	0x3d5797f2	0.05263514
29	0xbe1daf8d	-0.15398999
30	0xbc0c2250	-0.008553103
31	0x3cdda0d1	0.027054222
32	0xbc7e3a65	-0.015516852
33	0x3ddd63c0	0.108100414
34	0x3c45f01f	0.012081175
35	0xbd385b2d	-0.045008827
36	0xbd276df1	-0.040876333
37	0xbdb1f1ee	-0.086887226
38	0xbcc959ae	-0.024578895
39	0xbd512e91	-0.0510698
40	0x3db2c136	0.08728258
41	0x3d84afe0	0.06478858
42	0x3d24b2b7	0.0402095
43	0x3c9248a8	0.01785691
44	0xbc127f77	-0.008941523
45	0xbe20f169	-0.1571709
46	0x3d053659	0.032522533
47	0x3d0db66f	0.03459781
48	0xbd004f6b	-0.03132574
49	0xbd27de1a	-0.040983297
50	0x3cbcc196	0.023041528
51	0xbd52a5e3	-0.051427733
52	0x3d387368	0.045031935
53	0xbda67838	-0.08128399
54	0x3ce18063	0.02752704
55	0xbd266843	-0.040626775
56	0xbaa9f81a	-0.0012967617
57	0xbd03daed	-0.032191206
58	0xbca88490	-0.020571023
59	0xbc91a2d4	-0.017777838
60	0x3db90d72	0.090357676
61	0xbb975a25	-0.0046189004
62	0xbcea425e	-0.0285961
63	0x3ca6498e	0.020298745
64	0xbd000b0b	-0.03126053
65	0xbc943b69	-0.018094735
66	0xbd9a43e2	-0.07532479
67	0x3b4ab978	0.0030933302
68	0x3e037508	0.12837613
69	0xbb16f065	-0.002303147
70	0xbc765805	-0.015035634
71	0xbd1ca51a	-0.03824339
72	0xbd284291	-0.041079108
73	0x3c15cef0	0.009143576
74	0x3ccfd4e9	0.025370078
75	0xbd6d59ac	-0.057946846
76	0xbd840808	-0.06446844
77	0x3e26e77b	0.1629924
78	0xbc94d856	-0.018169563
79	0xbd33b47d	-0.0438733
80	0x3c76ef25	0.015071665
81	0xbc9a1947	-0.018810881
82	0xbc1e65c0	-0.009667814
83	0xbd804ba0	-0.06264424
84	0x3d198008	0.037475616
85	0x3d21ef55	0.039534885
86	0x3cbbe9ae	0.022938576
87	0xbd7e5f35	-0.062102515
88	0xbc5d5941	-0.013510049
89	0xbbd5455b	-0.006508512
90	0xbd02b3b4	-0.03190966
91	0xbdb9f2aa	-0.090794876
92	0x3d8acaaa	0.06776936
93	0xbdb9e874	-0.0907754
94	0x3c7a4a47	0.015276498
95	0xbdef7f86	-0.11694245
96	0x3de12d6c	0.10994992
97	0x3da88fc9	0.0823055
98	0x3a32daf2	0.00068227865
99	0xbd27dc46	-0.040981553
100	0x3cea2981	0.028584244
101	0xbdb8271a	-0.08991833
102	0xbc10aec5	-0.008830731
103	0x3c985742	0.018596295
104	0x3c9cd5a7	0.019144846
105	0x3db9bfb2	0.09069766
106	0xbc88df8e	-0.016708162
107	0xbd28b6ec	-0.041190073
108	0x3bc2574e	0.0059308177
109	0x3ce9a155	0.028519312
110	0xbd924a2b	-0.07143053
111	0xbd9e78f8	-0.07737917
112	0x3d7a8b38	0.061167926
113	0x3d3e7882	0.046501644
114	0xbd0f4874	-0.034981206
115	0xbb835630	-0.004008077
116	0x3d926713	0.07148566
117	0x3d191366	0.037372015
118	0xbc85fbad	-0.01635536
119	0xbc0f2390	-0.008736506
120	0x3d581a12	0.052759238
121	0xbd5433e1	-0.051807288
122	0x3caafcb7	0.020872457
123	0xbbc0d5ed	-0.005884877
124	0x3d865b61	0.06560398
125	0x3de50195	0.111819424
126	0xbd4641e4	-0.048402682
127	0xbae6a56d	-0.0017596908
128	0x3daaf38e	0.083472356
129	0xbca01dd7	-0.019545479
130	0x3cfff2d9	0.031243728
131	0x3c800619	0.015627908
132	0x3d6d868c	0.057989642
133	0x3d65d8d9	0.056115005
134	0xbd3b595f	-0.045739528
135	0xbd8824e5	-0.06647662
136	0x3d1b0efb	0.037856083
137	0x3d2d908e	0.042374186
138	0xbbe974b8	-0.0071245097
139	0xbd08ee97	-0.033430662
140	0x3dcfb5eb	0.1014212
141	0x3c75d987	0.015005476
142	0x3ab53a94	0.0013826662
143	0x3d0bb9a2	0.03411258
144	0x3d0e8935	0.03479882
145	0x3e0f3013	0.13983183
146	0xb957d0dd	-0.00020581805
147	0x3cc56f0e	0.024100807
148	0x3da93bb6	0.08263342
149	0xbc860064	-0.016357608
150	0x3a0c229d	0.0005345734
151	0x3d6512be	0.055926077
152	0x39946491	0.00028303688
153	0x3e22640f	0.15858482
154	0x3c2a3c96	0.010390421
155	0x3d91b5e8	0.07114774
156	0x3d3b2e16	0.045698248
157	0xbcfc5421	-0.030801835
158	0xbc78a7ec	-0.015176754
159	0x3d80f30a	0.06296356
160	0xbbdd5031	-0.0067539443
161	0x3e19dd70	0.15025878
162	0x3c469c0d	0.012122166
163	0x3d2d4008	0.042297393
164	0x3de6b233	0.112644576
165	0xbddb7367	-0.107153706
166	0xbc6cfb17	-0.014464161
167	0xbc40df71	-0.011772023
168	0xbbe0b9f1	-0.0068581034
169	0x3da11878	0.07865995
170	0x3bf50af7	0.0074781138
171	0x3cfc291e	0.030781325
172	0x3de56c95	0.11202351
173	0xbcf6dfbc	-0.030135982
174	0x3a60cb15	0.00085751835
175	0x3d251332	0.04030151
176	0x3d49a014	0.049224928
177	0x3d3677fc	0.04454802
178	0xbbd42858	-0.006474536
179	0x3c8f7f90	0.017516881
180	0x3dca5cf2	0.09881009
181	0x3d254c69	0.040356074
182	0x3c393fe8	0.01130674
183	0x3db7ad5b	0.08968612
184	0xbc8edc20	-0.017438948
185	0x3d0132f4	0.031542733
186	0x3d03f85e	0.032219283
187	0x3d2a073c	0.041510805
188	0x3e5ab200	0.21356964
189	0xbd2b5bbd	-0.041835535
190	0xbced8bb5	-0.028997282
191	0x3d984881	0.07435704
192	0x3d13e092	0.03610284
193	0xbcb49bce	-0.02204695
194	0x3cca733f	0.024713157
195	0xbb8c5674	-0.004282767
196	0xbd431442	-0.04762674
197	0xbe2dea34	-0.16983873
198	0x3c36ce27	0.011157549
199	0xbd5e2650	-0.054235756
200	0x3d04deab	0.032438915
201	0xbdc1a705	-0.094556846
202	0x3c8aaf93	0.016929423
203	0x3d8431cf	0.06454813
204	0x3cf80a3d	0.03027832
205	0xbdae9bfe	-0.08525847
206	0xbd918fbe	-0.07107495
207	0x3d3e7aac	0.046503708
208	0x3c3ead3d	0.011637983
209	0xbd589d5e	-0.052884452
210	0x3ac37571	0.001491232
211	0x3d2ece60	0.042677283
212	0x3dba9606	0.09110646
213	0xbe002de7	-0.1251751
214	0x3d417bc1	0.04723716
215	0x3d0209ae	0.031747513
216	0x3c310ba8	0.010806002
217	0x3d435bc8	0.04769495
218	0xbc672d44	-0.014109913
219	0xbcf4dacb	-0.029889485
220	0x3e056e9a	0.13030472
221	0x3d91295a	0.07087965
222	0x3c30d61d	0.010793236
223	0x3d00b3bd	0.03142141
224	0x3d958615	0.07300965
225	0x3cd019fc	0.025403015
226	0x3b44a0ff	0.0030003188
227	0xbc7000ff	-0.014648675
228	0xbcb6f058	-0.022331402
229	0xbc6b0ee2	-0.01434681
230	0x3b1faac7	0.0024363266
231	0x3b880720	0.00415124
232	0x3ced2806	0.028949749
233	0x3d2367a4	0.03989376
234	0xbb9aecca	-0.0047279345
235	0x3c08885c	0.008333292
236	0xbe8a0cb8	-0.2696283
237	0xbd876377	-0.06610768
238	0x3b388339	0.0028154387
239	0xbcc3bce0	-0.023893774
240	0x3e11dba2	0.1424394
241	0xbca4c137	-0.020111663
242	0xbcf1e801	-0.029529573
243	0x3cedb300	0.029016018
244	0x3d83a173	0.06427278
245	0xbacae2c6	-0.0015478961
246	0x3ca84094	0.020538606
247	0xbcf5daf9	-0.03001164
248	0x3e0c4c67	0.1370102
249	0x3da0b32c	0.07846674
250	0xbcbd4450	-0.023103863
251	0xbc812d7d	-0.01576876
252	0x3cea2fbe	0.028587218
253	0xbd2539be	-0.04033827
254	0x3bf6f827	0.0075369063
255	0x3c8ff146	0.017571103

fcl1.bias f4 [400]
0	0xbd83707f	-0.06417941
1	0xbdabd243	-0.083897136
2	0x3e1f53f5	0.15559371
3	0xbd322cac	-0.043499634
4	0x3d881e86	0.06646447
5	0xbe8119d1	-0.2521501
6	0xbe388e05	-0.18022926
7	0x3e30bf7e	0.17260548
8	0x3e170348	0.14747345
9	0xbd794a98	-0.060862154
10	0x3dae2de0	0.08504844
11	0x3ce8001f	0.02832037
12	0xbe36ee9e	-0.17864463
13	0x3d6700b5	0.05639716
14	0xbdda959f	-0.10673069
15	0xbe6da255	-0.23206456
16	0xbe7ce567	-0.24696885
17	0xbd8282e9	-0.063726254
18	0xbd799d63	-0.06094111
19	0xbcaf56b4	-0.021403648
20	0xbdc53683	-0.09629538
21	0xbe710ff2	-0.23541239
22	0xbe3b0ffb	-0.18267815
23	0x3d6a6e87	0.057234313
24	0xbded8dda	-0.11599322
25	0xbdd549f7	-0.10414498
26	0xbe2eab37	-0.17057501
27	0xbe1b39bc	-0.15158743
28	0xbe848b65	-0.258876
29	0xbe2c5f07	-0.16833125
30	0x3db74d50	0.08950293
31	0xbe698b69	-0.22807087
32	0x3da6ed41	0.08150721
33	0xbdb097bd	-0.08622692
34	0xbc6e8539	-0.01455813
35	0x3d530e58	0.05152735
36	0x3b92ea41	0.0044834916
37	0x3e2a6444	0.16639811
38	0xbd4d3479	-0.05009887
39	0xbca010f0	-0.019539326
40	0xbe1f5b4e	-0.15562174
41	0x3e3f1472	0.18660143
42	0xbdf5c6b1	-0.12000788
43	0xbdcfca65	-0.101460256
44	0xbe1bbc5c	-0.15208572
45	0xbdc0dd3c	-0.09417197
46	0x3e126892	0.14297703
47	0xbe0e7a8c	-0.13913935
48	0x3d983df0	0.07433689
49	0xbdec41cc	-0.11535987
50	0xbe893dd0	-0.26804972
51	0xbd262866	-0.04056587
52	0x3de6549d	0.112466075
53	0x3d0c99e0	0.034326434
54	0xbe0d811c	-0.13818783
55	0xbe2bbfd7	-0.167724
56	0x3db0d356	0.08634059
57	0xbdc5d153	-0.09659066
58	0x3c4894f8	0.012242548
59	0xbd6998dd	-0.057030547
60	0x3dbb89ff	0.0915718
61	0x3e11768d	0.1420538
62	0x3e529c0a	0.20567337
63	0xbe081245	-0.1328822
64	0x3d7b56c2	0.061362036
65	0xbe43d907	-0.19125758
66	0xbc304b1f	-0.010760098
67	0x3e4204c7	0.18947135
68	0x3cf8c501	0.030367376
69	0xbe8d15c1	-0.2755566
70	0xbe7be7d6	-0.24600157
71	0xbdf0cd0e	-0.11757861
72	0xbe00ba45	-0.12571056
73	0x3d31abda	0.04337678
74	0x3d205aba	0.039149024
75	0xbe3e3605	-0.18575294
76	0x3db34d82	0.08755018
77	0x3db53560	0.08848071
78	0x3de033e9	0.10947401
79	0xbe19b2ff	-0.15009688
80	0x3c3e5f06	0.011619335
81	0xbe303034	-0.17205888
82	0x3e104294	0.14087898
83	0xbe0165f8	-0.12636554
84	0x3dda8ac1	0.106709965
85	0x3d27d455	0.04097398
86	0x3e06020d	0.1308672
87	0x3dd620ca	0.10455473
88	0xbc5ea2d5	-0.013588627
89	0xbdafd752	-0.08585991
90	0x3cd60386	0.026124727
91	0xbd984844	-0.074356586
92	0x3ddec68a	0.10877712
93	0x3db683f2	0.08911885
94	0xbc62b00a	-0.013835916
95	0xbd9f0b8a	-0.07765873
96	0x3e0fbc8c	0.14036769
97	0xbe933314	-0.28749907
98	0xbaf897e6	-0.0018966168
99	0xbcd6dfdb	-0.02622979
100	0xbc830b16	-0.015996497
101	0x3e380966	0.17972335
102	0xbe843683	-0.2582284
103	0xbdc4f703	-0.09617426
104	0xbe7146a2	-0.235621
105	0xbd10d900	-0.035363197
106	0xbbc960d8	-0.006145578
107	0xbe6c44da	-0.2307314
108	0xbce69f03	-0.028151995
109	0xbe55462d	-0.20827551
110	0x3d9727bb	0.07380625
111	0xbe20f7ab	-0.15719478
112	0xbe37af9d	-0.17938085
113	0xbe609efb	-0.21935646
114	0x3d1b12eb	0.03785984
115	0xbc4d3d9d	-0.012526897
116	0x3d479c2d	0.048732925
117	0xbe579c3e	-0.21055695
118	0xbd90f90d	-0.07078753
119	0xbde91c26	-0.11382322
120	0xbcbd3750	-0.023097664
121	0xbe81afd4	-0.2532946
122	0xbdb7c3d8	-0.08972901
123	0x3e2a63e6	0.1663967
124	0xbe2a1b31	-0.16611935
125	0x3d2900eb	0.04126064
126	0xbdf06236	-0.11737482
127	0xbd80a294	-0.06281009
128	0x3db9b2b7	0.0906729
129	0xbda22715	-0.079176106
130	0xbe845f34	-0.25853884
131	0xbe68b858	-0.22726572
132	0xbe0f386a	-0.13986364
133	0x3db95517	0.09049433
134	0xbe0e3275	-0.13886435
135	0xbe433e78	-0.19066799
136	0x3aa48ef0	0.0012554806
137	0xbdfaaa64	-0.12239531
138	0xbe167320	-0.14692354
139	0x3d53785b	0.05162845
140	0xbd560f31	-0.05226058
141	0xbdb2d0eb	-0.08731254
142	0xbcfa0159	-0.03051822
143	0x3e4a5060	0.19757223
144	0xbde33e53	-0.11095872
145	0x3c8a6f5b	0.016898802
146	0x3d4a524e	0.049394898
147	0x3d98e934	0.07466355
148	0xbd25532f	-0.040362533
149	0x3d79421d	0.060854066
150	0xbe2c9d83	-0.16856961
151	0xbe0b8d2d	-0.13628073
152	0x3cca5dcd	0.02470293
153	0x3b1d2a6f	0.0023981591
154	0xbe204d5a	-0.15654507
155	0xbdcd6da3	-0.10030677
156	0xbd31fbd0	-0.043453038
157	0x3d9be8c0	0.07612753
158	0x3cb68eb5	0.022284845
159	0xbd1809c2	-0.03711868
160	0xbd3296c9	-0.04360083
161	0xbe603163	-0.2189384
162	0xbe8c928f	-0.27455565
163	0xbe150179	-0.14551343
164	0x3e4b5ebe	0.1986036
165	0x3d4f64d6	0.050633274
166	0xbcae72ed	-0.021295035
167	0xbdbe4224	-0.09289959
168	0xbcfe85bc	-0.031069629
169	0xbdeb8949	-0.115007944
170	0x3ca701a4	0.020386524
171	0x3d343903	0.043999683
172	0xbd5967e6	-0.0530776
173	0x3c920f60	0.017829597
174	0x3da8817f	0.082278244
175	0xbcfeb486	-0.03109194
176	0x3e61202f	0.21984933
177	0xbe199c47	-0.15001021
178	0x3daddb62	0.084891096
179	0xbd224da1	-0.039624814
180	0x3c32ad5f	0.010905593
181	0xbe32bfc7	-0.1745597
182	0x3d98c0c9	0.07458646
183	0xbdf8db44	-0.121511966
184	0xbddf1feb	-0.1089476
185	0x3e01850c	0.1264841
186	0xbdde2da0	-0.10848546
187	0x3da6ffcf	0.0815426
188	0xbd81c552	-0.06336464
189	0x3e057669	0.13033451
190	0xbe09dad6	-0.13462386
191	0x3d8bbb6a	0.06822856
192	0x3dc2f889	0.095200606
193	0xbe45e7c0	-0.19326687
194	0x3c2b4bd6	0.010455092
195	0x3e08cae6	0.1335865
196	0x3dae8cac	0.08522925
197	0xbc130dc1	-0.008975447
198	0xbe072e65	-0.13201292
199	0x3dba9310	0.09110081
200	0x3d89ce92	0.06728853
201	0x3e037c9b	0.12840502
202	0xbd6967fd	-0.056983937
203	0x3d50be61	0.05096281
204	0xbe0d5e3d	-0.1380548
205	0xbd84ae58	-0.06478566
206	0xbdcb0980	-0.09913921
207	0x3e54d0df	0.20782803
208	0x3db1c2bd	0.086797215
209	0x3e49062c	0.1963126
210	0xbe5c439d	-0.21510167
211	0x3d89ceee	0.06728922
212	0xbdd62a22	-0.10457255
213	0xbd48f634	-0.049062923
214	0x3d44811b	0.047974687
215	0x3cd0cd5b	0.025488546
216	0x3ced2b2c	0.02895125
217	0x3d44e630	0.048071086
218	0xbe0fa179	-0.1402644
219	0xbd6768b9	-0.056496356
220	0xbbe29b62	-0.0069154957
221	0x3dfd140a	0.12357338
222	0xbd761c80	-0.060085773
223	0xbdc6b9b3	-0.09703388
224	0x3cecd1b7	0.028908594
225	0x3e2498a5	0.16073854
226	0xbe41aa78	-0.18912685
227	0xbe847b50	-0.2587533
228	0x3e0d4be0	0.13798475
229	0xbe2fef12	-0.17181042
230	0x3e11eec2	0.14251235
231	0xbdef9512	-0.11698355
232	0x3e2128b9	0.1573819
233	0x3d54743a	0.051868655
234	0xbe133d20	-0.14378786
235	0xbd224a34	-0.039621547
236	0xbd68b4af	-0.05681294
237	0x3d9769ed	0.073932506
238	0xbd86e816	-0.06587236
239	0xbd7a518f	-0.061112937
240	0xbd8e46ac	-0.06947073
241	0x3dcd4752	0.10023369
242	0x3cab7c92	0.020933423
243	0x3c01a222	0.007912191
244	0x3dc75290	0.097325444
245	0x3c3d914e	0.011570288
246	0xbe46dc3a	-0.19419947
247	0x3d16a192	0.03677518
248	0xbbee1346	-0.007265481
249	0xbabe414c	-0.001451531
250	0xbd9afae8	-0.07567388
251	0xbd9c9245	-0.07645086
252	0x3dae2f93	0.08505168
253	0xbe8096d4	-0.25115073
254	0xbdc22225	-0.09479169
255	0xbe1c02d4	-0.15235454

fcl2.weight f4 [300, 400]
0	0xbbbe7ba0	-0.005813077
1	0x3d75f400	0.06004715
2	0xbd753f24	-0.05987467
3	0xbc8f43fb	-0.01748847
4	0xbd56f6fd	-0.05248164
5	0x3c93389e	0.017971333
6	0x3de51369	0.11185343
7	0x3d0ee614	0.03488739
8	0x3d820d76	0.06350224
9	0x39d47cbc	0.00040528725
10	0x3d8de928	0.06929237
11	0xbd87321d	-0.06601355
12	0x3cf5162c	0.029917799
13	0x3d9a9c4c	0.075493425
14	0xbde2480d	-0.11048899
15	0xbdaa73fb	-0.08322903
16	0xbd8124ac	-0.06305823
17	0xbdd4f4d5	-0.103982605
18	0x3c0bcfb3	0.008533406
19	0x3d8adfe3	0.06780984
20	0x3d7cc840	0.06171441
21	0xbe1170b5	-0.1420315
22	0xbd93ddce	-0.0722004
23	0x3cb36dc6	0.02190293
24	0x3dc4e5df	0.09614157
25	0x3c53303c	0.012889918
26	0x3ba9310a	0.0051633166
27	0x3c7a0cb9	0.015261822
28	0x3d95ba33	0.07310905
29	0x3dd9af2d	0.10629115
30	0x3c3c1cc2	0.011481466
31	0x3dd8a1ba	0.10577722
32	0x3bd32626	0.0064437566
33	0xb885bff1	-6.377686e-05
34	0x3d1e786e	0.03868907
35	0xbcf5c9dc	-0.03000348
36	0x3c857072	0.01628897
37	0xbd27679f	-0.040870305
38	0x3d0f4658	0.034979194
39	0x3dc9e6f6	0.098585054
40	0xbd3431c6	-0.04399278
41	0xbd90c080	-0.070679665
42	0xbce6b7e4	-0.028163858
43	0x3d3fbf1a	0.046813108
44	0x3d237ccd	0.03991394
45	0xbe129a7f	-0.14316748
46	0xbd474db8	-0.048658103
47	0x3a166227	0.0005736672
48	0x3dc96ec4	0.0983558
49	0x3d49951d	0.04921447
50	0x3e0e86b9	0.1391858
51	0x3e08711d	0.133244
52	0x3d103874	0.035210088
53	0x3da8206e	0.082093105
54	0x3d4a08c2	0.04932476
55	0x3ce8ec9d	0.028433139
56	0x3d9c1567	0.0762127
57	0xbdf7d379	-0.12100882
58	0xbda7f4c1	-0.0820098
59	0xbd60b232	-0.05485744
60	0x3d09d4cd	0.03365021
61	0x3db02606	0.086010024
62	0xbce21c7f	-0.027601479
63	0xbcac5385	-0.021035919
64	0x3e1e8740	0.15481281
65	0xbd7397dd	-0.059471
66	0xbc504855	-0.012712558
67	0xbdb3821a	-0.08765049
68	0xbd294398	-0.041324228
69	0x3d3ea1f2	0.04654116
70	0x3cbe1c43	0.023206836
71	0x3e087f1e	0.13329741
72	0xbd7aba28	-0.06121269
73	0x3d1de6c1	0.038550142
74	0xbd88f19c	-0.06686708
75	0x3d966374	0.07343188
76	0xbdb967e3	-0.09053018
77	0xbd986a7f	-0.074421875
78	0x3d8a07ea	0.06739791
79	0x3dbf84bc	0.09351489
80	0xbe84246d	-0.2580904
81	0x3e211b31	0.15733029
82	0x3d218f35	0.039443213
83	0x3d429cdc	0.047512874
84	0x3d2d9c1b	0.042385202
85	0xbd2439eb	-0.040094297
86	0x3d235c87	0.039883163
87	0x3d673de6	0.056455515
88	0xbe13a7e2	-0.14419511
89	0xbdf2e43e	-0.1185994
90	0xbe0dd394	-0.13850242
91	0xbde67af4	-0.1125392
92	0x3d80121d	0.06253455
93	0xbdbaba91	-0.09117616
94	0x3b5d26ae	0.0033744979
95	0x3cf4b869	0.02987309
96	0x3cb48684	0.022036798
97	0x3e1b0c25	0.15141352
98	0xbdf16889	-0.117875166
99	0xbd0b04c8	-0.033940107
100	0x3ddcb154	0.1077601
101	0x3cd8c0d0	0.026459128
102	0x3d93fa01	0.07225419
103	0x3aa91a41	0.0012901501
104	0xbcf5f866	-0.030025672
105	0xbd08c573	-0.033391427
106	0x3a903e3e	0.0011004878
107	0xbbfbad47	-0.0076805684
108	0x3dce1be5	0.10063914
109	0xbd94a449	-0.072578974
110	0x3d0ca5a6	0.034337662
111	0x3d5ca510	0.053868353
112	0xbc7df42a	-0.015500108
113	0x3de44c26	0.11147337
114	0xbc2df4ac	-0.010617416
115	0x3d141db5	0.036161143
116	0xbd6dc458	-0.058048576
117	0x3da3269b	0.07966348
118	0x3ddcebd1	0.10787166
119	0xbd85d488	-0.06534678
120	0xbdac4f62	-0.084135786
121	0x3c9feb29	0.019521313
122	0xbd4e4dd9	-0.05036721
123	0x3cfccf57	0.030860586
124	0x3ca78c45	0.020452628
125	0x3d4e0edc	0.05030714
126	0x3de759da	0.11296435
127	0xbdbc8678	-0.092053354
128	0x3db6214f	0.08893072
129	0x3cd9c471	0.026582928
130	0xbcbbe726	-0.022937369
131	0x3d85c6b9	0.06532044
132	0x3c986db1	0.018606992
133	0x3cccd183	0.025002247
134	0xbda713d6	-0.0815808
135	0x3d0642ce	0.032778554
136	0x3d57beae	0.05267208
137	0xbc4971ac	-0.012295168
138	0x3d67bdae	0.056577377
139	0xbd631142	-0.05543638
140	0xbd761f97	-0.06008872
141	0x3d636efc	0.055525765
142	0xbcbce60f	-0.02305892
143	0x3d877c38	0.0661549
144	0xbc53b6ef	-0.012922033
145	0x3d326506	0.043553375
146	0x3c46cc93	0.012133735
147	0xbd461727	-0.048361924
148	0x3cc00552	0.023440037
149	0x3e04eddd	0.12981363
150	0xbd7e7a9c	-0.06212865
151	0xbc3ecfc2	-0.011646213
152	0xbab84240	-0.001405783
153	0xbca04e75	-0.019568661
154	0x3d97ed19	0.0741827
155	0xbd472dda	-0.04862771
156	0xbe0e4749	-0.1389438
157	0x3d5efd79	0.05444095
158	0x3de9483c	0.11390731
159	0xbd29763a	-0.041372515
160	0xbd862606	-0.06550221
161	0xbd949476	-0.07254879
162	0x3d7487be	0.059699766
163	0x3d19e887	0.03757527
164	0x3cdb244f	0.026750712
165	0x3e08625e	0.13318774
166	0x3d8a341b	0.067482196
167	0x3d44149e	0.047871225
168	0x3d5f618b	0.054536384
169	0xbbdac63b	-0.006676463
170	0x3de5cf9e	0.112212405
171	0xbe0e9506	-0.13924035
172	0xbd73a52e	-0.0594837
173	0x3d83b025	0.06430081
174	0x3e0232ed	0.12714739
175	0x3da3e3ad	0.0800241
176	0xbc6c675e	-0.0144289415
177	0x3c84eb3a	0.016225446
178	0x3d8ccd5b	0.06875106
179	0xbdae3004	-0.08505252
180	0xbc0c252f	-0.008553787
181	0x3d23cdaa	0.03999106
182	0xbd0347ce	-0.0320509
183	0xba88444b	-0.001039633
184	0x3dba772c	0.091047615
185	0x3d6266c9	0.055273805
186	0x3ca546fa	0.020175446
187	0x3d4e7596	0.050405107
188	0x3d92f73c	0.071760625
189	0x3d58f89f	0.05297148
190	0xbd3767a5	-0.044776578
191	0x3bf92a51	0.0076039215
192	0x3d2c3e69	0.042051706
193	0x3de26010	0.11053479
194	0xbc473b82	-0.012160184
195	0xbdc6bb68	-0.09703714
196	0xbe29d79b	-0.16586153
197	0x3d4df923	0.050286423
198	0x3df91000	0.12161255
199	0xbdb7c29d	-0.089726664
200	0x3d6bba08	0.05755046
201	0xbd81bff2	-0.06335439
202	0x3d25ccac	0.040478393
203	0x3e30440b	0.17213456
204	0x3dd5aa33	0.104328535
205	0x3d8edec0	0.0697608
206	0xbd31efb4	-0.04344149
207	0x3d763ac5	0.06011464
208	0xb8da694a	-0.00010414662
209	0x3ce38e5b	0.027777841
210	0x3d8372a9	0.06418354
211	0x3db33da1	0.08751989
212	0x3df5c13c	0.11999747
213	0x3d1c4732	0.038153835
214	0x3b971a13	0.0046112626
215	0x3d6bce8c	0.057570025
216	0x3c0c1b36	0.0085514095
217	0x3dcded92	0.100550786
218	0xbba78b1a	-0.0051130177
219	0xbd1d1c0d	-0.03835683
220	0x3d6d1709	0.057883296
221	0xbd6d7596	-0.057973467
222	0xbdb8b043	-0.09017994
223	0xbe461ab0	-0.19346118
224	0x3def3df6	0.1168174
225	0x3da0813c	0.078371495
226	0x3c552640	0.013009608
227	0xbd3796ab	-0.044821423
228	0x3c560257	0.013062081
229	0xbd76cad1	-0.060252015
230	0xbd7e6e9c	-0.062117204
231	0x3c97abca	0.018514533
232	0x3ca1a214	0.019730605
233	0x3d6d475a	0.057929374
234	0xbce01c48	-0.027357236
235	0xbb22a0f4	-0.0024815174
236	0xbe3744ec	-0.17897385
237	0xbd4191f2	-0.047258325
238	0xbd4cad63	-0.049970042
239	0xbd41d9c8	-0.047326833
240	0xbdf16999	-0.11787719
241	0x3da4c1fa	0.080448106
242	0xbcf37c94	-0.02972249
243	0xb9e06da7	-0.00042806307
244	0xbe21581c	-0.15756267
245	0x3d253df4	0.040342286
246	0x3d37173f	0.044699904
247	0xbda2bb8f	-0.0794593
248	0x3da424e4	0.08014849
249	0xbd9cae6f	-0.07650458
250	0xbb4cca38	-0.0031248461
251	0xbe02c4d2	-0.12770393
252	0x3e06cefc	0.13164896
253	0x3dad22d5	0.08453909
254	0x3c6d9afe	0.014502285
255	0x3d8f1b27	0.06987601

fcl2.bias f4 [300]
0	0x3da66a2d	0.0812572
1	0x3d2cab21	0.04215539
2	0x3ba0b605	0.004904511
3	0x3dc62062	0.09674145
4	0xbd393b4c	-0.045222566
5	0x3cc92b8d	0.0245569
6	0x3dc50f71	0.09622086
7	0xbc04c90e	-0.008104576
8	0xbd200298	-0.039064974
9	0xbc5a19cc	-0.0133118145
10	0x3ceba639	0.028765785
11	0x3c695313	0.014240998
12	0x3d659f74	0.05606027
13	0x3ce06f61	0.02739686
14	0x3c437577	0.011929861
15	0x3d0f2416	0.034946524
16	0x3c1f29d1	0.00971456
17	0x3daf8643	0.0857053
18	0x3ccf2fa5	0.025291273
19	0x3dbe88e1	0.09303451
20	0x3ca83753	0.020534193
21	0x3ba3dc5a	0.005000633
22	0x3dc402a0	0.09570813
23	0x3dcd3e7b	0.10021683
24	0x3de8aee1	0.113614805
25	0x3de726c8	0.11286694
26	0x3d40ae6c	0.04704134
27	0x3d96939b	0.07352372
28	0x3dd95182	0.106112495
29	0xbcc2ee59	-0.023795294
30	0x3dca9f31	0.098936446
31	0x3da9f20d	0.08298121
32	0x3da83fe8	0.08215314
33	0x3e060d98	0.13091123
34	0x3e0cd6c6	0.13753805
35	0xbc13d3e6	-0.0090226885
36	0xbb8d4146	-0.0043107597
37	0x3d2abd62	0.041684516
38	0x3b9a6f6a	0.0047129886
39	0x3e0aa011	0.13537623
40	0x3d9691da	0.07352038
41	0xbd4b4dd1	-0.04963476
42	0x3c0532c7	0.008129782
43	0xbb36bd14	-0.0027883695
44	0x3d501247	0.05079868
45	0x3e0888bd	0.13333412
46	0xbc98b5e2	-0.018641416
47	0x3ce993cf	0.028512863
48	0x3b347a29	0.0027538633
49	0x3d0a1cc0	0.033718824
50	0xbd451fa7	-0.04812589
51	0x3d1ddda2	0.038541444
52	0x3d08f48c	0.033436343
53	0x3c93510c	0.017982982
54	0x3d4b5291	0.04963929
55	0x3d718a40	0.058969736
56	0x3d76c22c	0.06024377
57	0x3d394835	0.045234878
58	0xbd5fa367	-0.054599192
59	0x3d761673	0.060080003
60	0x3e1ace1e	0.1511769
61	0x3d1b115f	0.037858363
62	0x3dad88f3	0.084733866
63	0x3da0020e	0.07812892
64	0x3d49c64c	0.049261376
65	0x3cf55c28	0.02995117
66	0xbc85f80b	-0.016353628
67	0x3bee24d1	0.0072675725
68	0xbc334864	-0.010942552
69	0x3d89f840	0.06736803
70	0xbcf3effb	-0.029777518
71	0xbce36647	-0.02775873
72	0x39cc459d	0.00038961778
73	0x3dc3cb1e	0.09560226
74	0x3d25e1ff	0.04049873
75	0xbd25360f	-0.040334757
76	0x3d26e1e8	0.040742785
77	0x3e02c35c	0.12769836
78	0x3d58ed2e	0.052960567
79	0x3d51ab45	0.051188726
80	0xbb10fe3b	-0.002212419
81	0x3d3d5c04	0.04623033
82	0xbc1ae3bd	-0.009453711
83	0x3db26594	0.08710781
84	0x3c4b4858	0.012407385
85	0x3d323237	0.04350492
86	0x3d028f95	0.03187521
87	0xbc1eee0f	-0.009700312
88	0x3c3df07f	0.011592983
89	0x3e0757fd	0.13217159
90	0xbbc8f19a	-0.006132317
91	0xbcfeacf0	-0.031088322
92	0x3deea7ad	0.11653075
93	0x3de5d98d	0.11223135
94	0x3c685e77	0.014182678
95	0x3cee15a9	0.029063063
96	0x3c8f8022	0.017517153
97	0x3d638679	0.055548165
98	0xbd113748	-0.03545311
99	0xbd2c039f	-0.04199564
100	0x3d910a0c	0.070819944
101	0x3e06b565	0.13155134
102	0x3d1078a5	0.035271306
103	0x3d11f06b	0.03562967
104	0x3d0d7280	0.034533024
105	0xbcc28122	-0.023743216
106	0x3ce0e486	0.027452718
107	0xbd1ef571	-0.03880829
108	0x3c65c12c	0.014023107
109	0xbca1bfd9	-0.0197448
110	0x3d0c8cf3	0.034314107
111	0x3d1ed596	0.03877791
112	0xbc0c839f	-0.008576303
113	0x3d43579f	0.047690984
114	0x3d37ef84	0.044906154
115	0x3d8018bf	0.0625472
116	0x3c12fae8	0.0089709535
117	0x3cefc906	0.02927066
118	0xbc27001b	-0.010192896
119	0x3d804a55	0.06264178
120	0xbd8ee112	-0.069765225
121	0x3997917e	0.00028909364
122	0x3c350109	0.01104761
123	0x3d387874	0.045036748
124	0xbc3a2ac9	-0.01136274
125	0x3d97bb19	0.07408733
126	0x3dc7d7ab	0.09757932
127	0xbbe7a8c5	-0.0070696794
128	0x3df50b43	0.119650386
129	0x3d45ed17	0.04832181
130	0x3d2a0b71	0.041514818
131	0x3d52c0d8	0.05145344
132	0x3d91ca65	0.07118682
133	0xbd0ed96f	-0.03487533
134	0xbd3aa9da	-0.04557214
135	0x3d02ed79	0.031964753
136	0xbcce2adf	-0.025166927
137	0x3d2db06e	0.042404585
138	0x3e08dbe5	0.13365133
139	0xbd070d02	-0.03297139
140	0xbd026919	-0.03183851
141	0x3d85b07c	0.06527802
142	0xbb7836d2	-0.0037874472
143	0x3d8d902b	0.069122635
144	0x3ce2da99	0.027692126
145	0x3d83be6e	0.06432806
146	0xbbddbb2d	-0.006766698
147	0x3c749c3b	0.014929826
148	0x3c2d8abe	0.010592161
149	0x3cc551aa	0.024086792
150	0xbd6b400f	-0.057434138
151	0x3e05f237	0.13080679
152	0x3dd98647	0.106213145
153	0x3c3a3209	0.011364468
154	0x3d47d767	0.048789408
155	0xbc00e036	-0.007865956
156	0x3db392f1	0.08768261
157	0x3cc24b6e	0.023717608
158	0x3daa6c55	0.08321444
159	0xbd01aa12	-0.031656332
160	0xbd2ec717	-0.042670336
161	0x3dd7ff24	0.10546711
162	0x3da47a52	0.08031143
163	0x3cd37803	0.025814062
164	0x3a7d3a07	0.0009659831
165	0x3d66ad07	0.056317355
166	0x3d92bab7	0.07164519
167	0x3c561ec4	0.0130688585
168	0x3c637cf3	0.013884771
169	0x3d0723c3	0.03299309
170	0x3d8fec9c	0.070275515
171	0x3dee586f	0.11637961
172	0x3d0d1de9	0.034452353
173	0xbca5f6d9	-0.020259308
174	0x3da409a6	0.08009653
175	0xbcdc368e	-0.026881482
176	0xbc9a5184	-0.018837698
177	0xba8a86ee	-0.0010568777
178	0x3d216674	0.039404348
179	0xbd0fc49f	-0.03509962
180	0x3d1d2395	0.03836401
181	0x3dbb13d8	0.09134644
182	0x3df9172b	0.12162622
183	0x3db5c095	0.08874623
184	0x3cee7c36	0.029111963
185	0x3be23b91	0.0069040735
186	0x3dc956c9	0.09831006
187	0x3ba97d56	0.005172412
188	0x3daed8f0	0.08537471
189	0x3b89e774	0.0042084996
190	0x3db1f7e0	0.086898565
191	0xbc6848b6	-0.014177492
192	0x3d2bbd0a	0.04192833
193	0x3caa1a43	0.020764476
194	0xbaa849bf	-0.0012839361
195	0x3df8092d	0.12111125
196	0xbc7fa6b9	-0.015603715
197	0x3b1902e4	0.002334767
198	0x3dae0754	0.084974915
199	0x3d976e84	0.07394126
200	0xbc7d03b5	-0.015442778
201	0xbd5a18fe	-0.05324649
202	0x3c9798eb	0.018505534
203	0x3d8e7c3f	0.06957292
204	0x3e117321	0.14204074
205	0x3d92614b	0.071474634
206	0x3d30133e	0.0429871
207	0x3d42fa56	0.04760202
208	0x3ca75ac7	0.020429028
209	0x3c3339fe	0.010939119
210	0x3cce9200	0.025216103
211	0x3db6e169	0.08929712
212	0x3cbf3e75	0.023345212
213	0x3d75dc54	0.060024574
214	0x3c209285	0.009800558
215	0x3cacd288	0.021096483
216	0x3d5477fb	0.051872235
217	0x3b6d5d80	0.003621906
218	0x3e0f8eeb	0.14019363
219	0xbda1bfb4	-0.078978926
220	0x3c7d3f92	0.015457051
221	0x3becf985	0.0072318935
222	0x3e12369c	0.14278644
223	0x3dac5afa	0.0841579
224	0xbd3f7595	-0.046742994
225	0x3dd332c9	0.10312421
226	0x3dc38d65	0.09548453
227	0x3d550e9e	0.052015893
228	0xbdcba990	-0.09944451
229	0xbb2e743b	-0.0026619572
230	0x3da2417d	0.07922647
231	0x3dec853a	0.115488485
232	0x3ccaf383	0.024774319
233	0x3df3e6b2	0.11909236
234	0x3da91ea4	0.08257797
235	0xbcb91556	-0.022593182
236	0x3a779e5a	0.00094458985
237	0x3bb84a4e	0.005624092
238	0xbd22452c	-0.03961675
239	0x3d6c8e63	0.057752978
240	0x3df604c4	0.12012628
241	0xbc648957	-0.01394876
242	0xbd37305b	-0.04472385
243	0xbd05795a	-0.032586433
244	0x3cf83a8a	0.030301351
245	0x3d84118b	0.064486586
246	0x3d8ccf23	0.06875446
247	0x3cecd59f	0.028910456
248	0x3df6d9ee	0.120532855
249	0x3d2f67f7	0.042823758
250	0x3d6f8c8d	0.05848365
251	0xbbebdb1b	-0.0071977503
252	0x3db43262	0.08798672
253	0x3ceb65a2	0.028734986
254	0x3d25d197	0.040483084
255	0x3dad07ab	0.08448728

fcl3.weight f4 [2, 300]
0	0x3e0cf675	0.13765891
1	0xbdcea7e1	-0.10090614
2	0xbe718e37	-0.23589407
3	0x3e3920ef	0.1807897
4	0x3df768eb	0.120805584
5	0xbdf89562	-0.121378675
6	0xbd3e1358	-0.046405166
7	0xbdf46a77	-0.11934369
8	0xbdd48a41	-0.10377932
9	0x3e5cfc0f	0.21580528
10	0xbd3dbf3a	-0.046324946
11	0x3e5de32e	0.21668693
12	0xbe47e4b2	-0.19520834
13	0x3debb984	0.11509994
14	0xbea4ae9b	-0.32164463
15	0x3e168cad	0.14702101
16	0xbe370f42	-0.17876914
17	0xbe8b224a	-0.27174598
18	0xbda8a2e7	-0.08234196
19	0xbdac4631	-0.084118254
20	0xbe01d3fd	-0.12678523
21	0xbdd8234d	-0.10553608
22	0xbd920cf3	-0.07131376
23	0x3dbe8aef	0.09303843
24	0xbeae77ef	-0.34075877
25	0xbd3b5fae	-0.045745544
26	0xbe285c4b	-0.16441457
27	0xbc993cea	-0.018705804
28	0xbe80dd0d	-0.25168648
29	0xbc8ed2f0	-0.017434567
30	0x3dd4076a	0.103529766
31	0x3c908b06	0.017644417
32	0x3e13b257	0.144235
33	0xbe8a54bf	-0.2701778
34	0x3d03c319	0.03216848
35	0xbe75aebd	-0.23992439
36	0xbe072508	-0.1319772
37	0xbe445669	-0.19173588
38	0xbe59733a	-0.21235362
39	0x3c87c789	0.016574638
40	0x3dde4c6b	0.10854419
41	0x3e3aef27	0.18255292
42	0xbe68d1a6	-0.22736225
43	0xbe13ad96	-0.14421687
44	0xbe37baf0	-0.17942405
45	0x3e982dc2	0.2972241
46	0x3e15a05e	0.14611956
47	0xbe578547	-0.21046935
48	0xbe078f0e	-0.13238165
49	0x3e050cf6	0.12993225
50	0xbdfab770	-0.12242019
51	0x3e7865a5	0.24257524
52	0x3e3f1327	0.1865965
53	0xbe70b4f9	-0.23506536
54	0x3e7f5d07	0.24937831
55	0x3e1dec6c	0.15422219
56	0x3d46d779	0.048545334
57	0x3e1c2360	0.1524787
58	0x3e2a634b	0.1663944
59	0xbe2e4d8f	-0.17021774
60	0x3e0965b4	0.13417703
61	0xbe0aedbe	-0.13567254
62	0x3d82e8ad	0.06392036
63	0x3dfe6814	0.12422195
64	0xbdafce9d	-0.0858433
65	0xbe36b51d	-0.17842527
66	0x3dcceef6	0.10006516
67	0x3e5e4eac	0.21709698
68	0x3dd85bfa	0.10564418
69	0x3e0c6114	0.13708907
70	0x3de89290	0.113560796
71	0xbe33e608	-0.17568219
72	0x3e2f5ab9	0.17124452
73	0xbe241bcd	-0.1602623
74	0xbe3ae644	-0.18251902
75	0xbdd45507	-0.1036778
76	0xbca2a2c9	-0.019853013
77	0xbd7645b5	-0.06012507
78	0x3e712e75	0.23552878
79	0x3e148851	0.14505126
80	0x3df124f8	0.11774629
81	0x3e0f2f75	0.13982947
82	0xbdc1fc6b	-0.09471973
83	0x3e9e11ce	0.3087296
84	0x3e0b8805	0.13626106
85	0xbda8dc44	-0.08245137
86	0xbe0507cd	-0.12991257
87	0xbdfdeb79	-0.123984285
88	0xbda74f29	-0.081693955
89	0xbe4cd113	-0.2000163
90	0xbe54b930	-0.20773768
91	0x3dd51e1c	0.104061335
92	0xbeb1df6a	-0.34740764
93	0xbe958e27	-0.29210016
94	0x3e0612d2	0.13093117
95	0x3dfb148a	0.12259777
96	0xbe8dab82	-0.27669913
97	0xbe3b816f	-0.18311094
98	0x3dd4ce0d	0.103908636
99	0x3e6f6969	0.23380055
100	0x3e1ca72f	0.1529815
101	0xbeb36a80	-0.3504219
102	0x3e33e5b0	0.17568088
103	0x3e6e55c1	0.232749
104	0x3da956e2	0.08268525
105	0xbe3300c0	-0.17480755
106	0xbe1ca756	-0.15298209
107	0x3dd15bf3	0.10222616
108	0xbe8d12b5	-0.27553335
109	0x3e1964d8	0.14979875
110	0x3de2ef52	0.11080803
111	0x3d96728b	0.07346066
112	0xbe0c687f	-0.13711737
113	0xbe705de3	-0.23473315
114	0xbe1133e4	-0.14179951
115	0xbd90972e	-0.07060085
116	0xbe609118	-0.21930349
117	0x3de29757	0.11064022
118	0x3d89de63	0.0673187
119	0xbe320866	-0.17386016
120	0x3dae9ab7	0.08525603
121	0x3e1579d5	0.14597256
122	0xbe2ecad9	-0.17069568
123	0xbe754062	-0.23950341
124	0x3e348a39	0.17630853
125	0x3e0c5475	0.13704093
126	0x3e1dff96	0.1542953
127	0x3cb3be6f	0.021941392
128	0x3c76bbf4	0.01505946
129	0xbe2b186b	-0.16708533
130	0x3e93b919	0.28852156
131	0x3e2359a9	0.15952171
132	0xbe6c5b98	-0.23081815
133	0x3e126dfb	0.14299767
134	0x3e263556	0.16231284
135	0x3e00fc9a	0.1259636
136	0xbe5476e6	-0.20748481
137	0xbe0335cc	-0.1281349
138	0x3ecf5fce	0.4050278
139	0x3e14a777	0.14517008
140	0xbe039eb4	-0.12853509
141	0xbe328cfb	-0.17436592
142	0xbe9bfd3e	-0.30466646
143	0x3d62650b	0.055272143
144	0xbdcfceef	-0.10146891
145	0xbe4211fa	-0.1895217
146	0xbd9861d0	-0.07440531
147	0x3e218aa6	0.15775546
148	0x3df8e32c	0.121527046
149	0xbdc21ea2	-0.09478499
150	0x3e665a41	0.22495367
151	0x3d0e8b5b	0.03480087
152	0xbe45c48f	-0.19313262
153	0xbe2a49c2	-0.16629699
154	0xbe7a6576	-0.24452767
155	0xbdedc81b	-0.11610433
156	0xbe243cbd	-0.16038795
157	0xbd16b8fd	-0.036797512
158	0xbe614495	-0.21998818
159	0x3e0dd7a2	0.13851789
160	0x3e12543e	0.14289948
161	0x3e1449c6	0.14481267
162	0xbe3dc216	-0.18531069
163	0x3e133d1d	0.14378782
164	0x3e831cd4	0.25607932
165	0xbdb06c7c	-0.08614442
166	0xbd5c282b	-0.053749245
167	0xbd845603	-0.06461718
168	0xbdfcd4ee	-0.123453006
169	0xbd9a77e5	-0.07542399
170	0xbe80bcc9	-0.25144032
171	0xbca98103	-0.0206914
172	0x3de8d8ae	0.11369453
173	0xbe597394	-0.21235496
174	0xbd103884	-0.035210148
175	0x3ddad7f0	0.10685718
176	0xbe1854e1	-0.14876129
177	0xbe47df98	-0.19518888
178	0xbd950e13	-0.07278075
179	0x3e0cf25a	0.13764325
180	0xbe063cff	-0.13109206
181	0x3dc01f58	0.09380978
182	0x3e1bfbdc	0.15232795
183	0x3e11c593	0.14235525
184	0x3e18925b	0.1489958
185	0x3e2a279d	0.16616674
186	0xbd51125e	-0.051042907
187	0x3da62f56	0.08114497
188	0x3e0e8157	0.13916527
189	0x3def088b	0.11671551
190	0x3cf1574f	0.029460577
191	0xbe0a7eb6	-0.13524899
192	0xbde572b5	-0.11203519
193	0xbde71de3	-0.11284997
194	0x3e1b8062	0.15185693
195	0xbeaf840d	-0.34280434
196	0xbe3641d7	-0.17798553
197	0x3e1265ff	0.14296721
198	0xbd37261f	-0.04471409
199	0x3dd86825	0.10566739
200	0xbe68bfdd	-0.2272944
201	0x3dd9933f	0.10623788
202	0xbe079094	-0.13238746
203	0xbb93f55e	-0.004515334
204	0x3ead62c5	0.33864418
205	0xbe470ed4	-0.1943925
206	0xbe53f68a	-0.20699516
207	0x3e46ad93	0.19402151
208	0xbe5d9fa0	-0.21642923
209	0x3df219aa	0.11821301
210	0x3df13b1f	0.117788546
211	0x3d079a02	0.033105858
212	0xbe3d783d	-0.18502899
213	0x3e409137	0.18805395
214	0xbe7b85b7	-0.24562727
215	0x3e36d3fd	0.17854305
216	0xbe755bff	-0.23960875
217	0xbe17614f	-0.14783214
218	0xbe481200	-0.19538116
219	0x3e0af4c8	0.13569939
220	0x3dfb0e64	0.12258604
221	0xbe18b4c0	-0.149127
222	0xbe889766	-0.26678008
223	0xbd2fb179	-0.04289386
224	0xbdaf17ce	-0.08549462
225	0x3e9a94c3	0.3019162
226	0xbd93ad33	-0.072107695
227	0x3e001a14	0.12509948
228	0x3e112df8	0.14177692
229	0xbdb377b1	-0.08763064
230	0xbea8c12d	-0.3295988
231	0x3d6892b4	0.056780532
232	0xbe22d66f	-0.15902112
233	0xbd0363b8	-0.03207752
234	0xbe566c0c	-0.20939654
235	0xbdc0f3a9	-0.094214745
236	0x3e1be905	0.15225609
237	0xbe8519bd	-0.259962
238	0x3de10678	0.10987562
239	0xbe120029	-0.14257874
240	0xbd3be356	-0.0458711
241	0x3e1c92d0	0.1529038
242	0x3e05383e	0.13009736
243	0xbe322896	-0.17398295
244	0x3e6bb8a4	0.23019654
245	0xbd71d025	-0.059036393
246	0x3e0336e7	0.12813912
247	0xbe815ff1	-0.2526851
248	0xbe425ab9	-0.1897992
249	0xbe4af631	-0.19820477
250	0xbd77b0af	-0.060471233
251	0xbe00f7f1	-0.12594582
252	0xbe667842	-0.22506812
253	0xbe387b46	-0.18015775
254	0xbe920bca	-0.2852462
255	0xbec60cea	-0.38681728

fcl3.bias f4 [2]
0	0x3d7f28b5	0.06229468
1	0xbcd48d46	-0.02594627

bn1.weight f4 [400]
0	0x3ef52fdb	0.47888073
1	0x3e44b2de	0.19208857
2	0x3f45457a	0.7705914
3	0x3f6bef8a	0.9216238
4	0x3f650e02	0.894745
5	0x3f0508b3	0.519664
6	0x3f4b8ad1	0.7950869
7	0x3f7eee58	0.99582434
8	0x3ec83fff	0.39111325
9	0x3e806d81	0.25083545
10	0x3f40284d	0.75061494
11	0x3f00e2b2	0.5034591
12	0x3f0c923d	0.5491064
13	0x3d73c188	0.059510738
14	0x3f37e9c3	0.7184107
15	0x3efea451	0.49734738
16	0x3f80e354	1.0069375
17	0x3f217df5	0.6308282
18	0x3f7df8ab	0.9920756
19	0x3e9e1c1f	0.3088083
20	0x3f59d087	0.8508381
21	0x3e8d3f9e	0.275876
22	0x3f876342	1.0577166
23	0x3f59029b	0.847696
24	0x3e6d7c10	0.23191857
25	0x3f4f361d	0.80941945
26	0x3e177a0e	0.14792654
27	0x3eddb355	0.43300882
28	0x3ebdc624	0.37065232
29	0x3eb98f9d	0.3624238
30	0x3f04fdbd	0.51949674
31	0x3f922aa9	1.1419269
32	0x3f33411e	0.70021236
33	0x3f87e5c1	1.061699
34	0x3f31ddbd	0.6947897
35	0x3f2ecb4f	0.68278974
36	0x3f042467	0.51618046
37	0x3e3f1e42	0.18663886
38	0x3e995430	0.29947042
39	0x3e47a1bb	0.19495289
40	0x3f85fdfb	1.0468134
41	0x3f19ecae	0.6012677
42	0x3ee9daf5	0.45674863
43	0x3f78c2ab	0.9717204
44	0x3f5d6087	0.86475414
45	0x3e958a70	0.29207182
46	0x3f86a3b2	1.0518706
47	0x3f2f851e	0.68562496
48	0x3e6008d1	0.21878363
49	0x3f06818d	0.5254143
50	0x3eb8e6db	0.3611363
51	0x3ecdfbbf	0.4023113
52	0x3eaed9a5	0.34150425
53	0x3f863231	1.0484067
54	0x3f906c5d	1.128307
55	0x3f38eb7e	0.7223433
56	0x3f1f1127	0.6213555
57	0x3e7c7a72	0.24656084
58	0x3e926c15	0.28598085
59	0x3f374069	0.7158266
60	0x3f7cc848	0.98743105
61	0x3f80d6d5	1.0065562
62	0x3eb6958a	0.35660964
63	0x3f5747c6	0.8409389
64	0x3e94fdb5	0.29099813
65	0x3e8c159d	0.2736024
66	0x3e7559b5	0.23960002
67	0x3eae63e0	0.34060574
68	0x3f46deeb	0.77683896
69	0x3f765a02	0.9623109
70	0x3e808c86	0.2510721
71	0x3f36c85e	0.71399486
72	0x3f45e64e	0.7730454
73	0x3eb3dd75	0.35129896
74	0x3f3c9fea	0.7368151
75	0x3f82eea5	1.0229079
76	0x3f04cdb4	0.5187638
77	0x3f816bd5	1.0111033
78	0x3f021020	0.50805855
79	0x3f1fcc95	0.6242154
80	0x3f282d7f	0.6569442
81	0x3f43ec20	0.76532173
82	0x3f2ca6aa	0.6744181
83	0x3f18194a	0.5941359
84	0x3ea7481b	0.326722
85	0x3f02867b	0.5098645
86	0x3f670535	0.9024232
87	0x3f4b6f3a	0.79466593
88	0x3f1972bf	0.59940714
89	0x3ef5f9ec	0.48042238
90	0x3f834e1e	1.0258214
91	0x3ee04eff	0.4381027
92	0x3f4e5f4a	0.8061415
93	0x3f85210a	1.0400708
94	0x3ea70fc2	0.3262921
95	0x3f00d448	0.50323915
96	0x3e4ddb63	0.2010322
97	0x3edaa672	0.42705113
98	0x3f87b76d	1.0602852
99	0x3df499c5	0.11943392
100	0x3edfd10c	0.43714178
101	0x3efb82ae	0.49123138
102	0x3f5d6722	0.86485493
103	0x3ecf64e8	0.40506673
104	0x3f19d6e0	0.600935
105	0x3edeb834	0.4349991
106	0x3e9cc558	0.3061931
107	0x3f78b83e	0.9715613
108	0x3f6ceccf	0.9254884
109	0x3f50cb5f	0.8156032
110	0x3f646333	0.89213866
111	0x3e7fbad9	0.2497362
112	0x3ec71111	0.38880208
113	0x3f3a1d6f	0.7270116
114	0x3e953da3	0.29148588
115	0x3f57d1f7	0.84304756
116	0x3ea0c854	0.31402838
117	0x3f68a254	0.90872693
118	0x3dfe2ccb	0.12410887
119	0x3f61c73d	0.8819464
120	0x3f8b165e	1.0866201
121	0x3f4c1354	0.7971699
122	0x3ebfd14a	0.37464362
123	0x3f853de2	1.040951
124	0x3ed35b54	0.41280615
125	0x3f8179b9	1.0115272
126	0x3ed54102	0.4165116
127	0x3f80d6cd	1.0065552
128	0x3f5d8b83	0.86541003
129	0x3e9ad313	0.30239162
130	0x3e2bba93	0.16770391
131	0x3e9cbac6	0.30611247
132	0x3f23a221	0.63919264
133	0x3f328aeb	0.6974322
134	0x3f04acc7	0.5182614
135	0x3f4b919a	0.79519045
136	0x3eb7235c	0.35769165
137	0x3f00621c	0.50149703
138	0x3f31503d	0.6926306
139	0x3f41d2e5	0.75712425
140	0x3f7730dd	0.96558934
141	0x3eeed697	0.46648094
142	0x3ec784ec	0.389686
143	0x3c873451	0.016504439
144	0x3e8d1e87	0.27562353
145	0x3f41741b	0.7556779
146	0x3f136b7c	0.57585883
147	0x3ec7ceac	0.39024866
148	0x3eb6c1a2	0.35694605
149	0x3f83b0fa	1.0288384
150	0x3f0d3af5	0.55168086
151	0x3ebdf5a9	0.37101486
152	0x3f4c583c	0.79822135
153	0x3eb7d34a	0.35903388
154	0x3f46b2d7	0.7761664
155	0x3f20839f	0.6270084
156	0x3f2ba5b1	0.670497
157	0x3e13b1d7	0.1442331
158	0x3ef9a162	0.48755938
159	0x3f7d4314	0.9893048
160	0x3f96498b	1.1741194
161	0x3f751b78	0.9574504
162	0x3e9c6735	0.3054749
163	0x3f8cbf18	1.0995817
164	0x3f276c2d	0.6539944
165	0x3f561e6d	0.83640176
166	0x3e42f541	0.1903887
167	0x3f2a6cd6	0.6657232
168	0x3ec750a7	0.3892872
169	0x3f557f24	0.83397126
170	0x3f85b9ad	1.0447289
171	0x3f229699	0.63511044
172	0x3f879a94	1.0594049
173	0x3e918cc1	0.284277
174	0x3ea641ce	0.3247208
175	0x3f3e9038	0.7443881
176	0x3e647cdd	0.22313257
177	0x3f821229	1.0161792
178	0x3e6b9599	0.23006286
179	0x3f1bf6ec	0.6092365
180	0x3f1e4f5f	0.6183986
181	0x3e486345	0.19569118
182	0x3f12ea44	0.5738871
183	0x3f3b2041	0.7309609
184	0x3ee0cc64	0.43905938
185	0x3da9124d	0.08255444
186	0x3f48589d	0.78260213
187	0x3f54fcd5	0.8319829
188	0x3f82973c	1.0202403
189	0x3de043c7	0.109504275
190	0x3f9028a0	1.1262398
191	0x3f7ab95e	0.979391
192	0x3ed45f3c	0.41478908
193	0x3f685062	0.90747654
194	0x3ebf0a6e	0.37312645
195	0x3e645033	0.22296219
196	0x3f58f04b	0.8474166
197	0x3ef58c76	0.47958726
198	0x3ec1f871	0.37884858
199	0xbe0dadbd	-0.13835807
200	0x3ed81081	0.4220009
201	0x3f4f4c83	0.8097612
202	0x3f5b9507	0.8577427
203	0x3f3886b4	0.7208054
204	0x3f2348ce	0.63782966
205	0x3ed58a39	0.41707018
206	0x3e5f146a	0.21785131
207	0x3f818ca1	1.0121042
208	0x3e7c060a	0.24611679
209	0x3df997e3	0.12187173
210	0x3f473da4	0.7782843
211	0x3ee5ef35	0.44909063
212	0x3f96f3b6	1.1793125
213	0x3f84586c	1.0339484
214	0x3ec1a80e	0.37823528
215	0x3f802705	1.0011908
216	0x3e7867dc	0.24258369
217	0x3ebaea8e	0.36507076
218	0x3f2b1493	0.6682827
219	0x3f7d1030	0.98852825
220	0x3eb35d23	0.35031995
221	0x3f50053d	0.81257993
222	0x3f344e4f	0.7043199
223	0x3ef90410	0.48635912
224	0x3f1793bb	0.59209794
225	0x3e88204e	0.26587147
226	0x3f05d7ce	0.52282417
227	0x3e819d2b	0.25315222
228	0x3f0985a6	0.53719556
229	0x3e90a06b	0.2824739
230	0x3e903660	0.28166485
231	0x3f47719b	0.77907723
232	0x3f33db78	0.7025676
233	0x3f7b5d67	0.98189396
234	0x3f3c379d	0.7352236
235	0x3f5ff321	0.8748036
236	0xbdf9874c	-0.12184009
237	0x3f4f3e31	0.8095427
238	0x3f68f9b4	0.91006017
239	0x3f38f558	0.72249365
240	0x3ef2263b	0.47294793
241	0x3f1074ff	0.5642852
242	0x3f3a89ca	0.728665
243	0x3f4e86e7	0.80674595
244	0x3f9857fc	1.1901851
245	0x3f133b5a	0.5751244
246	0x3de9edb9	0.11422295
247	0x3f828193	1.0195793
248	0x3f6cc4e4	0.9248793
249	0x3e9204b0	0.285192
250	0x3f3db22a	0.7409998
251	0x3e55967e	0.2085819
252	0x3e8c5e56	0.27415723
253	0x3f3708d6	0.7149786
254	0x3f832c05	1.0247809
255	0x3f4dea6e	0.80435836

bn1.bias f4 [400]
0	0xbd1ddc52	-0.038540192
1	0x3d99b82e	0.075058326
2	0x3d1d838d	0.038455535
3	0xbbcc6278	-0.0062373243
4	0xbbc407a0	-0.0059823543
5	0x3d63b06d	0.055588175
6	0x3d884fa2	0.06655814
7	0x3ca29af5	0.01984928
8	0x3d4b9b6f	0.04970878
9	0x3d45d25b	0.048296314
10	0xbc9592bf	-0.01825845
11	0xbd4b4d86	-0.04963448
12	0xbceaeb01	-0.028676512
13	0x3dd1e2ba	0.10248323
14	0x3b96df21	0.0046042358
15	0xbd877bbc	-0.06615397
16	0xbc952001	-0.018203737
17	0x3d5114cd	0.051045228
18	0xbc111c58	-0.008856855
19	0xbd6eeb05	-0.0583296
20	0x3d18bc86	0.037289165
21	0xbd8a731d	-0.06760237
22	0xbd7d2463	-0.06180228
23	0x3ce6878c	0.028140806
24	0x3d8cbafe	0.068716034
25	0xbcf84c54	-0.030309834
26	0x3dc34fb9	0.0953669
27	0x3d1e3adf	0.038630363
28	0xbccdbca6	-0.025114369
29	0x3d77843b	0.06042884
30	0xbba29e91	-0.0049627502
31	0xbc1561ab	-0.009117524
32	0xbc67044e	-0.014100147
33	0xbd7d50b8	-0.061844558
34	0x3d23afb1	0.039962474
35	0xbd71f714	-0.059073523
36	0xbd4f2dea	-0.050580896
37	0xbdda129f	-0.10648083
38	0xbc91b4c5	-0.017786393
39	0x3d6c5047	0.057693746
40	0xbc5b8326	-0.013397967
41	0xbcf8e1e7	-0.030381156
42	0xbca4f96c	-0.020138465
43	0xbd55f4db	-0.052235465
44	0x3c5c1c41	0.013434471
45	0xbb17c768	-0.0023159627
46	0x3cda1929	0.026623325
47	0x3dd5b81b	0.10435506
48	0x3da17bdf	0.07884955
49	0x3c981ace	0.018567469
50	0x3cb58ad1	0.02216092
51	0x3db5a4b3	0.088693045
52	0x3d96f1aa	0.073703125
53	0x3cfcfef2	0.030883286
54	0x3d350ac9	0.04419974
55	0xbcdbe6e9	-0.026843505
56	0x3d52fe38	0.051511973
57	0xbc53f8a7	-0.012937701
58	0x3d51e1f7	0.051240887
59	0x3cb389a4	0.021916218
60	0x3da0ccd4	0.07851568
61	0x3d991e88	0.074765265
62	0x3dd74311	0.10510839
63	0x3c49f8d4	0.012327392
64	0x3d014ff0	0.031570375
65	0x3e181382	0.14851192
66	0x3dd7e0e3	0.105409406
67	0xbb84f8b3	-0.0040579676
68	0xbc9fbc7a	-0.019499052
69	0xbb85f101	-0.004087568
70	0xbd95d41b	-0.073158465
71	0x3cd1c857	0.025608225
72	0xbd84ba21	-0.06480814
73	0x3c87b908	0.016567722
74	0x3db26a35	0.08711664
75	0xbcc072f9	-0.023492323
76	0xbd2dca9a	-0.042429544
77	0xbcce43bb	-0.02517878
78	0xbc0406df	-0.008058279
79	0xbccefc3b	-0.025266757
80	0x3a490c07	0.0007669334
81	0x3d5d97e0	0.054099917
82	0x3b45e278	0.00301948
83	0xbcd075a0	-0.025446713
84	0xbc2307c7	-0.009950585
85	0xbd3d3934	-0.04619713
86	0x3b8582a9	0.004074414
87	0x3d84d079	0.064850755
88	0x3cf39ad4	0.029736914
89	0x3d86bb65	0.065787114
90	0xbd844832	-0.06459083
91	0x3c04c0cc	0.008102607
92	0x3d0b2e94	0.033979967
93	0xbc8f76ac	-0.017512642
94	0xbc43e8e9	-0.011957386
95	0x3c99e56b	0.018786153
96	0x3af6c954	0.0018828311
97	0xbd3c65d8	-0.045995563
98	0xbcfc03be	-0.030763503
99	0x3d8b67af	0.068068855
100	0xbc7468e6	-0.014917588
101	0x3c6dd754	0.01451667
102	0x3b2dbf3f	0.0026511697
103	0x3cdfcd1b	0.027319482
104	0xbbd98c89	-0.0066390675
105	0xbc25e499	-0.010125303
106	0x3d8f8112	0.0700704
107	0xb9514198	-0.00019956229
108	0xbca2a459	-0.019853758
109	0x3d264007	0.040588405
110	0xbc098456	-0.008393368
111	0x3d0d900c	0.034561202
112	0x3dd7b327	0.105322175
113	0x3c282883	0.010263565
114	0xbcb1089b	-0.021610549
115	0xbb8a2566	-0.004215884
116	0x3babd52f	0.0052439193
117	0xbd38a9fa	-0.045083977
118	0x3c979c01	0.018507006
119	0x3d06c486	0.032902263
120	0x3b891bb2	0.0041842097
121	0x3aadf03d	0.0013270449
122	0xbdbe860c	-0.09302911
123	0xbd09fce5	-0.033688445
124	0xbd1b414d	-0.037904073
125	0x3e0298b1	0.1275356
126	0xbd628fe5	-0.05531301
127	0xbe062cf5	-0.13103087
128	0xbce55784	-0.027995832
129	0xbc8c823a	-0.01715194
130	0xbd0c814b	-0.03430299
131	0xbd3a896d	-0.045541216
132	0x3cbf246c	0.023332797
133	0xbd493d7e	-0.04913091
134	0x3d6879c3	0.056756746
135	0xbbab5f1e	-0.0052298447
136	0x3d7ace13	0.061231684
137	0xbda46456	-0.0802695
138	0xbc8046c6	-0.015658747
139	0x3da4ad4e	0.08040868
140	0xbc8c5008	-0.017128006
141	0x3d54d943	0.05196501
142	0x3bd28440	0.006424457
143	0x3e16254a	0.14662662
144	0x3d4c9f1c	0.049956426
145	0x3bf1328a	0.007360761
146	0xbd1905d9	-0.037359092
147	0xbc987c8d	-0.018614078
148	0xbc91b253	-0.017785227
149	0x3d7abefc	0.061217293
150	0x3d56742b	0.05235688
151	0x3ca50aee	0.020146813
152	0xbc5942d9	-0.013260567
153	0xbb8328c5	-0.004002663
154	0xbc1e6090	-0.009666577
155	0xbcde6ce5	-0.027151534
156	0xbc54abc2	-0.012980403
157	0x3c07bd53	0.0082848845
158	0x3daee7d5	0.08540312
159	0xbcdcb574	-0.026941992
160	0x3c3926b4	0.011300731
161	0x3d3b2e45	0.045698423
162	0xbbced3f7	-0.0063118893
163	0xbcdf5dc9	-0.0272664
164	0x3d97b7de	0.07408117
165	0x3cece6c1	0.028918626
166	0xbc7ff209	-0.0156216705
167	0xbdb08877	-0.086197786
168	0x3d47716a	0.048692144
169	0xbd67edca	-0.056623258
170	0x3bfa26e7	0.007634032
171	0xbb9cef25	-0.0047892504
172	0x3d3b103b	0.045669775
173	0xbae8a3b1	-0.0017748979
174	0xbb0c5e4c	-0.002141851
175	0x3de12bbe	0.10994671
176	0xbd20bef3	-0.039244603
177	0x3c8f83c5	0.017518887
178	0x3da13d94	0.07873073
179	0x3d44635c	0.04794632
180	0xbd1de9f0	-0.03855318
181	0xbdac9e3a	-0.08428617
182	0xbd209e0d	-0.03921323
183	0x3ca0df7a	0.019637812
184	0x3db3f33f	0.0878663
185	0x3dea7198	0.114474475
186	0xbb5ad924	-0.0033393586
187	0x3d3ad0a1	0.04560912
188	0x3d413918	0.04717359
189	0x3dff56b8	0.12467712
190	0xbc101b59	-0.008795583
191	0xbc9ca533	-0.019121742
192	0xbd28b45f	-0.04118764
193	0x3d2caf43	0.04215933
194	0x3cb927cd	0.022601986
195	0x3d6741aa	0.056459107
196	0xbc8d4c46	-0.017248284
197	0x3c891247	0.016732348
198	0x3c1489a5	0.00906602
199	0xbdf25059	-0.11831731
200	0xbdbf1788	-0.0933066
201	0x3d0eb8ac	0.034844086
202	0xbd1f0c62	-0.03883017
203	0x3bb90fe2	0.0056476453
204	0x3c839933	0.016064262
205	0xbbd7df71	-0.0065879156
206	0x3d62238a	0.055209674
207	0x3dc0466b	0.09388431
208	0x3df96984	0.12178329
209	0x3dff23ae	0.12457977
210	0xbd01ff36	-0.03173753
211	0x3d0e74aa	0.03477923
212	0xbc3430be	-0.010997949
213	0x3dfaa10f	0.12237751
214	0x3d660c42	0.056164034
215	0xbd58397d	-0.0527892
216	0x3c2ab01a	0.010417962
217	0xbd1f58a6	-0.0389029
218	0x3b91760a	0.00443912
219	0x3cd7ded2	0.026351366
220	0x3c755116	0.014972946
221	0xbbb53122	-0.0055295387
222	0xbc8d9d3f	-0.017286895
223	0x3c15e4dd	0.009148804
224	0x3cc932b3	0.024560308
225	0x3c9174e6	0.017755937
226	0x3d24022d	0.040041137
227	0x3abd9622	0.0014464299
228	0x3d3694ca	0.04457549
229	0xbd88482b	-0.0665439
230	0xbd07a665	-0.03311767
231	0xbd3c37b6	-0.045951568
232	0x3cbe5dfc	0.023238175
233	0x3dc07b27	0.093984894
234	0x3d547760	0.051871657
235	0x3d1847ef	0.037177976
236	0xbdd13a7d	-0.10216234
237	0x3d438c27	0.04774108
238	0xbd650e2d	-0.055921722
239	0x3bc8676f	0.006115846
240	0xbd50b7eb	-0.050956648
241	0xbdabab10	-0.08382237
242	0x3bded1ff	0.006799936
243	0x3d1e97e2	0.038719065
244	0x3b89349f	0.004187181
245	0xbd216efb	-0.03941248
246	0xbdc71525	-0.0972083
247	0x3cba76fe	0.022761818
248	0xba066bf2	-0.00051277794
249	0xbcbb9a22	-0.022900645
250	0xbc86fd9f	-0.016478358
251	0x3bea96b4	0.0071590785
252	0x3e1164c9	0.14198603
253	0x3c122fbb	0.008922513
254	0xbc82477e	-0.01590323
255	0x3c979985	0.018505821
