p3_collab-compet/implementation/my_critic_0.pth (torch_old, 575071 bytes, 9 tensors)

fcl1.weight f4 [400, 52]
-0.8401113 -2.0721138 -0.05387806 2.2085679 -0.29515576 -2.4430835 -0.11272031 2.2032578
0.31465274 -1.3427181 0.28368747 1.160743 0.25777987 -2.3911948 0.26926124 1.1622499
1.1738267 -1.1929934 0.61904734 3.211831 -0.08206532 -1.2150995 0.6272768 3.21041
1.3371497 2.0777907 -0.29791817 -0.061174616 0.30750328 -2.497727 -0.3481639 -0.0040657963
1.2615421 1.61743 -0.1134124 -1.0330002 -0.26716822 -2.4443872 -0.08515089 -1.0285403
1.2868745 0.7861541 -0.42588916 -1.6791366 0.10105799 -1.2673959 -0.43128538 -1.7016432
-1.412342 -4.284157 -4.8649693 0.17903751 0.75510997 2.758174 -0.26549962 -0.07963384
0.09948966 0.970905 -0.23479664 -0.10694941 0.8721007 3.815693 -0.2958659 0.77182984
-0.17515378 -1.00653 -0.33562616 0.7365678 1.8673426 5.170434 -0.034981754 -4.83029
-0.3774738 -2.2762651 -0.09407477 -4.8688493 0.62065643 1.2334964 -0.19186229 -0.55309767
-0.09228129 0.9108454 -0.21934748 -0.4879063 0.08870934 1.3677503 -0.16413568 -0.022689821
0.15330534 -1.002622 -0.21820523 0.042689797 0.21373522 1.905359 -0.042459454 0.87409705
0.35116988 -2.312536 0.05392735 0.8250956 3.6057572 1.3101667 -4.7097225 1.4893458
1.3564934 0.3139365 -0.03586941 -0.47621712 -0.4242988 -2.9965355 -0.045653775 -0.44814014
1.5773023 0.34455267 0.003978456 0.26146984 -0.27861667 -2.653624 0.022147547 0.30410266
2.0717657 0.030167945 0.23497531 0.23152275 -0.3765368 -2.7860494 0.24626596 0.24820241
0.494923 -0.042631675 0.031294778 1.5904348 0.4644662 -3.00154 0.052973717 1.6200048
0.94586074 0.24443832 -0.043437432 0.20682015 0.27151883 -2.7010462 -0.016852256 0.27230614
1.0125151 0.23689398 0.14302036 -0.32172745 0.37259254 -2.7987847 0.13095 -0.30540612
-1.1559926 2.5568168 0.9106402 2.1558907 0.00942221 1.9277439 0.0035543009 -0.14530846
-3.863399 -0.65965897 0.02929086 -0.14599124 -0.07264452 1.5895203 0.074035205 0.39764106
0.84173834 -1.8636428 0.0053055617 0.41410932 0.008310363 0.09525359 -0.018191744 0.60656697
4.6304784 0.4582657 0.0049812123 0.60454863 0.10122795 -1.3953979 -0.05840823 0.06681824
3.7823794 -0.69141495 -0.04994446 -0.009619912 0.69777787 0.924862 -0.05661905 1.8569554
-0.90823966 -1.8601655 -0.060606487 1.8736554 0.57985663 1.6406388 0.006485054 0.057490386
-4.678102 0.4396355 0.010517716 0.11254619 -3.0618622 2.2278237 -1.5658875 2.6689694
0.109606065 -4.3078537 -0.05775174 -0.45737174 -0.038021367 0.5910641 -0.04290448 -0.42948002
0.7913444 -4.1217804 -0.098525286 0.029963782 0.33166945 0.5543396 -0.0905503 0.0671151
1.8965521 -3.9604723 -0.10197168 -0.30195487 -0.65975744 0.26777437 -0.028826974 -0.35594556
-0.40286124 0.9348896 -0.038180448 0.9650477 0.020686092 0.6445061 -0.114461035 0.9270669
0.28232712 0.47034776 -0.10277414 0.06290829 -0.3592287 0.5591676 -0.1194012 0.07148326
1.3128642 -0.032807194 -0.13171238 -6.3511467 0.68926084 0.22600959 -0.14514154 -6.3660626
00000000: 8911 57bf 839d 04c0 3eaf 5cbd 2d59 0d40
00000010: a81e 97be 7b5b 1cc0 e8d9 e6bd 2d02 0d40
00000020: 2a1a a13e 30de abbf 7c3f 913e 3a93 943f
00000030: b9fb 833e 5609 19c0 9cdc 893e 9bc4 943f
00000040: f43f 963f 02b4 98bf e379 1e3f a48e 4d40
00000050: dd11 a8bd 6188 9bbf 3695 203f 5c77 4d40
00000060: b927 ab3f 86fa 0440 bb88 98be 3c92 7abd
00000070: 1271 9d3e c2da 1fc0 8a42 b2be 5f3a 85bb
00000080: 367a a13f f207 cf3f c344 e8bd 5a39 84bf
00000090: 46ca 88be d770 1cc0 9763 aebd 35a7 83bf
000000a0: 4eb8 a43f 6541 493f 250e dabe f3ed d6bf
000000b0: 7ef7 ce3d 073a a2bf 70d1 dcbe 72cf d9bf
000000c0: 9fc7 b4bf d017 89c0 d4ad 9bc0 9c55 373e
000000d0: e34e 413f ec85 3040 91ef 87be 1117 a3bd
000000e0: 3cc1 cb3d 3b8d 783f 886e 70be 4b08 dbbd
000000f0: fe41 5f3f 5034 7440 bc7b 97be a496 453f
00000100: 835b 33be fad5 80bf 31d7 abbe b58f 3c3f
00000110: 1505 ef3f 3274 a540 0749 0fbd bc91 9ac0
00000120: 3f44 c1be 54ae 11c0 46aa c0bd 9dcd 9bc0
00000130: 57e3 1e3f 36e3 9d3f 8c77 44be cf97 0dbf
00000140: f9fd bcbd 2a2d 693f a09c 60be dbce f9be
00000150: 3ead b53d 7112 af3f 2f13 28be 01e0 b9bc
00000160: 13fc 1c3e eb55 80bf 3171 5fbe 7fdb 2e3d
00000170: 68dd 5a3e cee2 f33f f7e9 2dbd d3c4 5f3f
00000180: 8acc b33e 9700 14c0 ede2 5c3d 7739 533f
00000190: bac4 6640 8bb3 a73f 0cb6 96c0 e2a2 be3f
000001a0: 93a1 ad3f 49bc a03e cdeb 12bd bbd2 f3be
000001b0: b13d d9be 3dc7 3fc0 74ff 3abd a072 e5be
000001c0: 0be5 c93f 3569 b03e b55d 823b 60df 853e
000001d0: d8a6 8ebe fad4 29c0 c66e b53c 58b3 9b3e
000001e0: cf97 0440 c422 f73c 5e9d 703e 4d14 6d3e
000001f0: 6ec9 c0be a24e 32c0 252d 7c3e c628 7e3e
00000200: 8c66 fd3e 8d9e 2ebd f42e 003d 5e93 cb3f
00000210: 84ce ed3e 3b19 40c0 f8fa 583d 515c cf3f
00000220: ee23 723f 0a4e 7a3e 73eb 31bd a9c8 533e
00000230: 8404 8b3e f1dd 2cc0 be0d 8abc b66b 8b3e
00000240: 189a 813f 5694 723e ee73 123e 76b9 a4be
00000250: 73c4 be3e 4a1f 33c0 c217 063e 315e 9cbe
00000260: 91f7 93bf e3a2 2340 b71f 693f 1dfa 0940
00000270: 9d5f 1a3c 50c0 f63f 46ef 683b becb 14be
00000280: ee41 77c0 69df 28bf 63f3 ef3c ba7e 15be
00000290: a6c6 94bd 6775 cb3f c59f 973d 9c97 cb3e
000002a0: 2a7c 573f d98b eebf 47da ad3b 2306 d43e
000002b0: 3028 083c 5014 c33d da06 95bc f947 1b3f
000002c0: e12c 9440 cda1 ea3e 7039 a33b b3c3 1a3f
000002d0: 9950 cf3d 669c b2bf 783d 6fbd 00d8 883d
000002e0: 8112 7240 9200 31bf 9092 4cbd d69c 1dbc
000002f0: 92a1 323f c2c3 6c3f 61e9 67bd b7b0 ed3f
00000300: 6582 68bf e719 eebf 823e 78bd f1d3 ef3f
00000310: 7c71 143f 7400 d23f 9380 d43b 0a7b 6b3d
00000320: 03b3 95c0 e717 e13e 8052 2c3c 9e7e e63d
00000330: 8df5 43c0 aa94 0e40 006f c8bf 65d0 2a40
00000340: 2579 e03d f0d9 89c0 178d 6cbd a12c eabe
00000350: 4bbc 1bbd fa4f 173f 9cbc 2fbd cee4 dbbe
00000360: 8c95 4a3f a0e5 83c0 a0c7 c9bd 9b76 f53c
00000370: 94d0 a93e 33e9 0d3f 7072 b9bd a473 893d
00000380: 38c2 f23f 6178 7dc0 87d6 d0bd d499 9abe
00000390: dde5 28bf b919 893e 8c26 ecbc 7f3e b6be
000003a0: d443 cebe ed54 6f3f 1a63 1cbd 5e0d 773f
000003b0: e175 a93c 5afe 243f 8c6a eabd 4254 6d3f
000003c0: 2e8d 903e 6cd1 f03e 407b d2bd 10d6 803d
000003d0: d3ec b7be 9c25 0f3f 9e88 f4bd d165 923d
000003e0: ef0b a83f d660 06bd 9cdf 06be 983c cbc0
000003f0: 6673 303f 0f6f 673e fc9f 14be c9b6 cbc0

fcl1.bias f4 [400]
-2.4431949 -1.1888977 -1.3106514 -2.6656857 -1.8295119 -0.4392824 -0.43600687 -0.9230746
-2.9038565 -0.29942483 -3.9849837 -0.27495816 -0.8265918 -0.30755287 -0.31679904 -1.0738194
-0.61518955 -2.218864 -0.33122456 -0.29610246 -0.38505948 -1.2216638 -0.78962916 -0.38526374
0.7870027 -1.8004208 -0.15721087 -0.52945143 -0.617362 -0.37632993 -0.37596077 -0.61123174
-1.7794045 -0.33851707 -6.017855 -2.0614493 -0.2052431 3.9443378 -0.053710245 0.040763002
0.4046507 -4.924771 -0.3643834 -0.16279072 -0.64917743 -0.3752098 -0.4969711 0.018929988
-0.31296283 -0.30608594 -0.21341199 -1.4915078 -0.15818451 -1.9041159 -0.3917211 -0.0647752
-0.17235528 -0.15196645 -2.6136873 -0.35600942 -0.016840123 -0.36147144 -0.2140683 -0.35006982
-0.07980743 -0.24139433 -0.6422851 -0.51566625 -0.11340094 -0.050256915 -2.310622 -0.58724326
-0.1291982 -0.5701508 -0.36259764 -0.3711541 -0.5737564 -0.79185563 -0.81213015 -1.1588476
-0.24346995 -0.2345428 5.9515624 -2.9400744 1.4147413 -1.572851 -0.8335767 -0.6623453
-0.37305132 -0.29358944 -0.11549833 -0.37298554 -0.504664 -0.32609087 -0.31845075 -0.34034997
-0.7306735 -0.104779854 -0.35489506 -0.39210433 1.0639479 -0.13979873 -0.9663967 -3.8525164
-0.6469201 -0.45351142 1.2655283 -0.3491489 -0.6950534 -1.7929218 -0.5731458 -0.3800697
-1.5183154 -0.88780105 -1.6206695 0.52067417 -0.14421564 -0.17903222 -0.32755733 -0.13849677
1.4206152 -0.2822194 -0.40732944 -0.22464591 -0.43126962 -0.8281957 -2.0083728 0.05735881
-0.813935 -0.051222365 -0.5655101 -0.14459804 -0.48508742 -0.25847265 -0.38973838 -1.387045
-1.1896213 -1.2558329 -1.3046082 -5.98339 -0.49637926 -1.1582865 -0.62626135 -0.15751927
-0.97884953 -0.9621819 -0.45500964 -0.5768387 -0.2530434 -1.6397359 -0.34861374 -1.7073096
-2.0648084 0.44269276 -0.38088506 -1.4640511 0.08645016 0.07176384 -0.08897333 -0.96514934
-2.3315458 -0.686048 -0.4328766 -0.00871079 -1.0131221 -0.22137116 -0.17593065 -0.52873635
-0.5931073 -0.41725248 -0.93455505 -0.56407523 -0.46585652 0.7372148 -0.28615397 -6.0342975
-0.46131894 -0.1552577 0.067863025 -0.42755744 -0.22249815 -0.58181137 -0.31753278 -3.0560908
0.026319373 -3.9848511 -5.5962467 -0.06342162 0.51016575 -1.8005414 -1.9315652 -0.26321545
-0.17189784 -2.541613 -0.44010362 -1.7429445 -0.63974196 -0.46139523 -3.9871063 -3.8090885
-1.7174406 -0.4655257 -6.528336 -0.418038 -0.6431798 -0.3260325 0.02299263 -7.350594
-1.1729643 -0.96657157 -6.898025 -0.74807054 -0.30046535 -0.42969698 -0.24087377 -0.5109644
-0.3707326 -0.4659893 -0.40226492 -1.0453283 -0.43330428 -0.27300084 -0.1938579 -2.6887298
-0.1714454 -2.8030918 -2.6233943 -1.5360692 -0.470621 -0.4550817 -1.144101 -0.6351599
-0.32583827 -0.35592365 -0.7802706 -0.32504436 -3.6300082 -0.24117298 -2.1450548 -4.1435246
-0.42361173 -0.734499 -0.4839619 -0.45203316 -1.1143686 -0.2667419 0.013883911 -0.038449965
-0.10661913 -0.1886518 -5.5391774 -0.23807126 -0.14021127 -2.0967577 -0.1762949 -0.3189203
00000000: 4e5d 1cc0 cd2d 98bf 6dc3 a7bf 989a 2ac0
00000010: 722d eabf 9fe9 e0be 4b3c dfbe 9e4e 6cbf
00000020: c9d8 39c0 364e 99be f909 7fc0 51c7 8cbe
00000030: 859b 53bf 9277 9dbe 7c33 a2be ea72 89bf
00000040: 107d 1dbf de01 0ec0 4496 a9be be9a 97be
00000050: 8426 c5be 7b5f 9cbf 2325 4abf 4a41 c5be
00000060: 0279 493f 3074 e6bf e3fb 20be 218a 07bf
00000070: 700b 1ebf 51ae c0be ee7d c0be af79 1cbf
00000080: 87c3 e3bf 1c52 adbe 4592 c0c0 c9ee 03c0
00000090: 3f2b 52be 0870 7c40 46ff 5bbd 1bf7 263d
000000a0: 602e cf3e b997 9dc0 7690 babe 9cb2 26be
000000b0: 7e30 26bf 801b c0be ff72 febe 1013 9b3c
000000c0: aa3c a0be 4cb7 9cbe ac88 5abe bae9 bebf
000000d0: 1ffb 21be 12ba f3bf ab8f c8be dca8 84bd
000000e0: e77d 30be 189d 1bbe a746 27c0 de46 b6be
000000f0: 4cf4 89bc c912 b9be b834 5bbe 5a3c b3be
00000100: 1472 a3bd 1330 77be cc6c 24bf b402 04bf
00000110: c13e e8bd 32da 4dbd 3be1 13c0 9355 16bf
00000120: 884c 04be 67f5 11bf 66a6 b9be e907 bebe
00000130: b3e1 12bf 0db7 4abf c3e7 4fbf 1e55 94bf
00000140: 3050 79be fd2b 70be 3373 be40 2e2a 3cc0
00000150: 3e16 b53f 2e53 c9bf 4865 55bf 768f 29bf
00000160: 9500 bfbe 5b51 96be 638a ecbd f6f7 bebe
00000170: a931 01bf 62f5 a6be fa0b a3be 5a42 aebe
00000180: 6b0d 3bbf d296 d6bd ceb4 b5be e6c1 c8be
00000190: 722f 883f 6627 0fbe c665 77bf a18f 76c0
000001a0: 8e9c 25bf a632 e8be d5fc a13f a5c3 b2be
000001b0: 05ef 31bf 767e e5bf afb9 12bf 7f98 c2be
000001c0: 2958 c2bf ee46 63bf 1972 cfbf e74a 053f
000001d0: 44ad 13be 3954 37be 98b5 a7be 19d2 0dbe
000001e0: b8d6 b53f 107f 90be 7c8d d0be 9409 66be
000001f0: 5fcf dcbe a204 54bf 2e89 00c0 12f1 6a3d
00000200: 0b5e 50bf 8bce 51bd 45c5 10bf 8211 14be
00000210: 615d f8be 8756 84be ca8b c7be b18a b1bf
00000220: 8345 98bf 22bf a0bf 67fd a6bf ee77 bfc0
00000230: 6c25 febe bb42 94bf aa52 20bf bb4c 21be
00000240: e295 7abf 8e51 76bf 06f7 e8be b3ab 13bf
00000250: e88e 81be dee2 d1bf 807d b2be 1f89 dabf
00000260: d225 04c0 a0a8 e23e 5e03 c3be 0766 bbbf
00000270: c80c b13d ecf8 923d a637 b6bd 0714 77bf
00000280: 0c38 15c0 d7a0 2fbf 00a2 ddbe b4b7 0ebc
00000290: fcad 81bf 1faf 62be 2a27 34be 445b 07bf
000002a0: e1d5 17bf 1ea2 d5be 003f 6fbf 3c67 10bf
000002b0: bf84 eebe 1cba 3c3f c682 92be f718 c1c0
000002c0: ff31 ecbe e0fb 1ebe c5fb 8a3d cfe8 dabe
000002d0: 8ed6 63be 97f1 14bf a893 a2be fe96 43c0
000002e0: ba9b d73c cd07 7fc0 7414 b3c0 32e3 81bd
000002f0: 399a 023f 2478 e6bf 873d f7bf 2dc4 86be
00000300: fd05 30be caa9 22c0 4355 e1be ce18 dfbf
00000310: 21c6 23bf ff3b ecbe c02c 7fc0 1bc8 73c0
00000320: 18d5 dbbf 6259 eebe 21e8 d0c0 1409 d6be
00000330: 6ea7 24bf bbed a6be 0a5b bc3c 1138 ebc0
00000340: b223 96bf 3c71 77bf 9fbc dcc0 8d81 3fbf
00000350: 98d6 99be 3e01 dcbe 9da7 76be 90ce 02bf
00000360: aad0 bdbe 2696 eebe abf5 cdbe 51cd 85bf
00000370: 0fda ddbe c4c6 8bbe af82 46be 2614 2cc0
00000380: 628f 2fbe db65 33c0 b1e5 27c0 ea9d c4bf
00000390: 3cf5 f0be 7800 e9be e771 92bf d799 22bf
000003a0: 46d4 a6be a03b b6be d0bf 47bf 376c a6be
000003b0: 0e52 68c0 0df6 76be 9448 09c0 c197 84c0
000003c0: a3e3 d8be 2008 3cbf dbc9 f7be e470 e7be
000003d0: a1a3 8ebf 6592 88be 5879 633c b67d 1dbd
000003e0: 215b dabd f02d 41be f140 b1c0 f4c8 73be
000003f0: 8b93 0fbe 4731 06c0 a686 34be 8649 a3be

fcl2.weight f4 [300, 400]
0.24834296 -0.19026083 -0.054067083 -0.37429407 0.0459272 -0.08333475 -0.12906964 -0.17765705
-0.5476434 0.028303498 0.08406741 -0.050334536 -0.13177326 0.033087794 -0.036520995 0.17388433
-0.028405858 -0.012898352 -0.038735528 -0.016509097 -0.0065140612 0.112076454 -0.21895877 0.013709771
-0.49050865 -0.2565697 0.021843825 0.07000439 -0.106064536 -0.28409964 -0.03984993 -0.12683572
0.07048773 0.64866513 0.045133825 0.07105737 0.114947446 -0.1543383 -0.060471173 -0.12918274
0.09753655 0.16676843 0.13982958 -0.092907995 -0.036250327 0.0096192965 0.07063435 -0.042862732
-0.024942799 0.06962358 0.027166089 0.1833231 0.028439926 0.09429731 -0.011167099 0.015639054
-0.10822012 0.02418852 0.07272949 0.002581284 -0.3188807 -0.09578682 0.050994057 0.053028315
0.0471128 0.0068144635 0.03941289 -0.23803326 0.0054751937 -0.039589263 0.22439367 -0.054640185
-0.08797569 0.03296399 -0.045225702 -0.056151506 -0.03898144 -0.031223841 0.04362477 -0.27168068
0.14127386 0.11075024 0.06102561 0.025173102 0.10821652 -0.049672797 -0.054688722 -0.08556513
0.08238377 0.12312458 0.002087446 0.05733428 0.033355504 0.17227046 0.018471472 -0.1114269
-0.3509657 -0.061117683 0.058843262 0.07488137 0.15928693 -0.70509833 -0.82080966 -0.014305952
-0.09244374 -0.030021006 -0.06263035 0.029066522 0.08884442 0.1462462 0.010710573 0.018634368
0.26953343 -0.03908556 0.05515559 0.5485247 0.10826805 0.07447031 0.0070374804 -0.23932937
0.1346263 -0.120946296 -0.024288688 0.051512126 0.173383 -0.019846791 0.3755511 -0.16300778
0.13335077 0.09003025 0.101967275 0.045731135 0.074838415 -0.002171436 0.14419259 0.14576553
0.19883038 -0.07085491 -0.18189782 0.23921365 -0.07400774 -0.116606124 -0.2177164 0.031816296
0.06051983 -0.087553434 -0.023079589 -0.09549196 0.23809086 0.32393563 -0.0769114 0.09690351
0.0842589 -0.35728222 -0.013139098 -0.08222953 -0.33472192 0.0498289 0.04828546 0.042421613
-0.20470572 -0.078644976 0.08760181 -0.09894399 -0.19291656 -0.037317645 -0.18205822 0.03782606
0.042186346 0.008089059 -0.105717294 0.048895363 -0.026017917 0.060426187 -0.025962459 -0.26155153
-0.12190837 -0.054037288 0.04784003 0.050365683 -0.003464112 0.011897949 -0.004649984 -0.02923936
-0.05240433 -0.48525795 0.11179405 -0.11113124 -0.13977748 0.20474009 0.16081291 0.10140547
0.08886651 -0.14871457 -0.078342974 -0.23437646 0.004601988 -0.42232478 -0.1932604 -0.004925201
0.052706935 -0.11469544 0.22439578 0.0077409027 0.055228967 -0.05245885 -0.14671636 0.1317551
0.074877 0.067400195 0.21622176 -0.026048757 -0.11318996 -0.008085018 0.084631726 0.079838514
0.08837555 -0.0636752 -0.010719718 -0.09923233 0.008740718 -0.04591423 0.123457044 0.31564772
0.08052615 -0.2459864 -0.15825278 0.13870814 0.10814695 -0.0032767737 -0.7995022 0.076426946
-0.03450547 0.08381411 -0.089206025 -0.04216289 -0.03993964 -0.08148347 -0.056919847 -0.17448784
-0.00065412885 -0.10759033 -0.054390687 0.029374182 -0.06835296 -0.04267288 0.011544535 0.023476282
-0.0028387757 0.042143464 -0.07368179 -0.12621455 -0.022604993 0.02513593 0.062242076 -0.0052918256
00000000: 9e4d 7e3e bcd3 42be 7275 5dbd 79a3 bfbe
00000010: 291e 3c3d 69ab aabd d52a 04be bbeb 35be
00000020: 5c32 0cbf bddc e73c 892b ac3d 962b 4ebd
00000030: 92ef 06be 1187 073d 0a97 15bd bc0e 323e
00000040: 67b3 e8bc 9c53 53bc 25a9 1ebd 163e 87bc
00000050: e873 d5bb 5788 e53d ba36 60be f39e 603c
00000060: f323 fbbe 1b5d 83be d2f1 b23c 765e 8f3d
00000070: 5d38 d9bd 8275 91be ae39 23bd 39e1 01be
00000080: df5b 903d eb0e 263f 3fde 383d 8786 913d
00000090: 9169 eb3d dc0a 1ebe 9fb0 77bd 7b48 04be
000000a0: 3ec1 c73d 58c5 2a3e 7c2f 0f3e 8c46 bebd
000000b0: 397b 14bd 419a 1d3c bea8 903d d590 2fbd
000000c0: d754 ccbc cf96 8e3d 6b8b de3c 0db9 3b3e
000000d0: d9fa e83c f31e c13d 35f6 36bc 791d 803c
000000e0: 83a2 ddbd 0127 c63c 33f3 943d c22a 293b
000000f0: 5544 a3be e12b c4bd 25df 503d 3834 593d
00000100: 5af9 403d dd4b df3b 696f 213d febe 73be
00000110: 4169 b33b 5a28 22bd 74c7 653e 63ce 5fbd
00000120: 992c b4bd 4005 073d 963e 39bd 1fff 65bd
00000130: 01ab 1fbd 24c9 ffbc e3af 323d bb19 8bbe
00000140: 18aa 103e 06d1 e23d fdf5 793d d237 ce3c
00000150: 9fa0 dd3d b475 4bbd 4801 60bd c53c afbd
00000160: d2b8 a83d bd28 fc3d 88cd 083b 5ad7 6a3d
00000170: c89f 083d ab67 303e 7c51 973c c933 e4bd
00000180: c7b1 b3be 8956 7abd a205 713d 675b 993d
00000190: 1d1c 233e 5381 34bf 9520 52bf 8363 6abc
000001a0: 2553 bdbd 9dee f5bc 5744 80bd ea1c ee3c
000001b0: 10f4 b53d 90c1 153e 667b 2f3c 1aa7 983c
000001c0: 4900 8a3e 2e18 20bd d4ea 613d 1d6c 0c3f
000001d0: a4bb dd3d e483 983d aa9a e63b c212 75be
000001e0: 7adb 093e b1b2 f7bd 12f9 c6bc 61fe 523d
000001f0: 508b 313e bd95 a2bc 3c48 c03e 83eb 26be
00000200: 1b8d 083e c861 b83d 38d4 d03d 9250 3b3d
00000210: e244 993d a74e 0ebb 39a7 133e 8f43 153e
00000220: 319a 4b3e 611c 91bd 6c43 3abe 6cf4 743e
00000230: 5f91 97bd 31cf eebd 0cf1 5ebe ce51 023d
00000240: a4e3 773d 374f b3bd 6811 bdbc 4a91 c3bd
00000250: 17ce 733e e4da a53e b983 9dbd 5975 c63d
00000260: ee8f ac3d b2ed b6be 5f45 57bc f567 a8bd
00000270: ac60 abbe 6319 4c3d f9c6 453d 49c2 2d3d
00000280: 609e 51be 9e10 a1bd 9468 b33d 26a3 cabd
00000290: eb8b 45be 63da 18bd 786d 3abe 80ef 1a3d
000002a0: 97cb 2c3d f987 043c 4f82 d8bd 8146 483d
000002b0: 8723 d5bc 7381 773d 39af d4bc 15ea 85be
000002c0: 18ab f9bd 3456 5dbd e8f3 433d 3f4c 4e3d
000002d0: 2806 63bb 9def 423c e55e 98bb 6287 efbc
000002e0: eca5 56bd bb73 f8be 47f4 e43d c798 e3bd
000002f0: d421 0fbe 63a7 513e 24ac 243e acad cf3d
00000300: a5ff b53d a248 18be 4872 a0bd 6200 70be
00000310: 46cc 963b f43a d8be 0ee6 45be 9563 a1bb
00000320: 3ae3 573d 71e5 eabd 02c8 653e 66a7 fd3b
00000330: c537 623d 17df 56bd d03c 16be cfea 063e
00000340: 1d59 993d 1d09 8a3d 3d69 5d3e 3464 d5bc
00000350: 23d0 e7bd 0677 04bc 6653 ad3d 6082 a33d
00000360: 3efe b43d 2568 82bd c2a1 2fbc 523a cbbd
00000370: 3a35 0f3c 8f10 3cbd 0cd7 fc3d 949c a13e
00000380: e5ea a43d dce3 7bbe 040d 22be 8209 0e3e
00000390: 267c dd3d 24bf 56bb 2dac 4cbf bb85 9c3d
000003a0: 9c55 0dbd bba6 ab3d a6b1 b6bd ffb2 2cbd
000003b0: bf97 23bd cee0 a6bd c924 69bd f1ac 32be
000003c0: d879 2bba 5258 dcbd c5c8 5ebd 20a2 f03c
000003d0: a3fc 8bbd c2c9 2ebd 4a25 3d3c 5551 c03c
000003e0: c10a 3abb a09e 2c3d 7ae6 96bd 633e 01be
000003f0: 1b2e b9bc dee9 cd3c 8cf1 7e3d 0d67 adbb

fcl2.bias f4 [300]
-0.73629475 -0.37037835 -0.32374665 -0.45132333 -0.5518084 -0.49066386 -0.33619022 -0.4897282
-0.5754411 -0.5168719 -0.90960586 -0.24819456 -0.6386105 -0.5641984 -0.33825088 -0.771204
-0.46288982 -0.62477976 -0.5194875 -0.30607224 -0.45797378 -0.53670603 -0.6369514 -0.3747151
-0.33708695 -0.2807614 -0.31791574 -0.59107256 -0.47530636 -0.58657616 -0.45178187 -0.4626681
-0.4619585 -0.62751573 -0.38639727 -0.6014963 -0.5850665 -0.907852 -0.5502736 -0.5479955
-0.7209234 -0.45591173 -0.9328167 -0.34535438 -0.44965854 -0.22407888 -0.37086177 -0.29520503
-0.49622267 -0.36571744 -0.73154646 -0.40291905 -0.49903578 -0.56112117 -0.40057912 -0.712429
-0.4831037 -0.32721 -0.3832609 -0.4277878 -0.629691 -0.488997 -0.7068125 -0.29124114
-0.612886 -0.5752854 -0.45037255 -0.4071069 -0.31730717 -0.37715456 -0.87257254 -0.31732404
-0.5426259 -0.35233632 -0.70122963 -1.028028 0.2124953 -0.5963949 -0.43311694 -0.3667391
-0.3135081 -0.29325232 -0.951605 -0.58177406 -0.4745148 -0.5632102 -0.34234726 -0.45595026
-0.39453113 -0.4817999 -0.6350051 -0.29732284 -0.49237934 -0.6534938 -0.37906283 -0.21692117
-0.3791655 -0.56378824 -0.40188834 -0.31682527 -0.65095496 -0.20993538 -0.5799479 -0.41978115
-0.4216922 -0.8193143 -0.36119172 -0.37283367 -0.5671737 -0.3670411 -0.6322996 -0.3923523
-0.24235484 -0.62946343 -0.3292669 -0.98888725 -0.44116086 -0.33051872 -0.48854825 -0.3668467
-0.6024077 -0.32621035 -0.49517536 -0.53267354 -0.20911096 -0.602575 -0.38425082 -0.30885324
-0.5800691 -0.14358345 -0.64688843 -0.40968907 -0.82380444 -0.4700564 -0.2607154 -0.33838353
0.30132625 -0.30321777 -0.7134161 -0.28529656 -0.667983 -0.44461328 -0.3190342 -0.6813784
-0.57585377 -0.51490873 -0.7688911 -0.39091605 -0.3886548 -0.52137995 -0.5001264 -0.25831515
-0.31918186 -0.2842144 -0.4582797 -0.30147585 -0.56487936 -0.7279246 -0.44499165 -0.30573258
-0.77528554 -0.5166572 -0.42301017 -0.7116253 -0.27152878 -0.3729999 -0.556418 -0.3695921
-0.3683569 -0.4374711 -0.5366511 0.23367652 -0.5470953 -0.23315252 -0.5447586 -0.4920901
-0.44751054 -0.7693446 -0.55500275 -0.25293916 -0.5560394 -0.46606803 -0.2824334 -0.31518075
-0.5407577 -0.24896297 -0.46280763 -0.23787162 -0.30138838 -0.42036238 -0.49267244 -0.41608056
-0.37118432 -0.00048331523 -0.45436102 -0.5843787 -0.5833378 -0.5136008 -0.2708691 -0.6226731
-0.58694226 -0.29368347 -0.58217394 -0.40631673 -0.50993884 -0.3701625 -0.5241251 -0.47427014
-0.53192323 -0.2609355 -0.36570555 -0.60972065 -0.51092327 -0.6398526 -0.23654605 -0.79262525
-0.7219628 -0.6012842 -0.6134003 -0.5633102 -0.21672153 -0.5185842 -0.69221103 -0.57692
-0.75818866 -0.4455952 -0.47090095 -0.2485643 -0.23854153 -0.47798896 -0.378367 -0.67029035
-0.30204386 -0.31303874 -0.34953198 -0.38895765 -0.31482008 -0.5000316 -0.37267965 -0.5635989
-0.5524185 -0.21987243 -0.6350051 -0.26063842 -0.37856272 -0.40648723 -0.39979947 -0.52714956
-0.49686104 -0.2185802 -0.3759519 -0.4549293 -0.5528617 -0.29014894 -0.18532616 -0.41153213
00000000: d07d 3cbf 3ba2 bdbe 1fc2 a5be da13 e7be
00000010: 5143 0dbf 4b38 fbbe 2021 acbe a8bd fabe
00000020: 1c50 13bf b851 04bf eedb 68bf b726 7ebe
00000030: fa7b 23bf 4e6f 10bf 382f adbe a06d 45bf
00000040: e5ff ecbe 91f1 1fbf 22fd 04bf 80b5 9cbe
00000050: 8a7b eabe 9165 09bf 3f0f 23bf a8da bfbe
00000060: a996 acbe f5bf 8fbe dac5 a2be 8850 17bf
00000070: 5b5b f3be db29 16bf f44f e7be d5e2 ecbe
00000080: d385 ecbe dfa4 20bf ddd5 c5be a9fb 19bf
00000090: ebc6 15bf fd68 68bf bbde 0cbf 6f49 0cbf
000000a0: 708e 38bf 436d e9be 13cd 6ebf 4ad2 b0be
000000b0: a539 e6be ef74 65be 98e1 bdbe 1d25 97be
000000c0: e610 febe 513f bbbe a146 3bbf 684b cebe
000000d0: 9e81 ffbe a3a5 0fbf b518 cdbe bf61 36bf
000000e0: 5e59 f7be 1288 a7be c63a c4be 0107 dbbe
000000f0: 6e33 21bf d15d fabe aaf1 34bf 8f1d 95be
00000100: 19e6 1cbf e745 13bf 3b97 e6be 5170 d0be
00000110: 1676 a2be 671a c1be ea60 5fbf 4c78 a2be
00000120: 88e9 0abf 6d65 b4be c983 33bf 6c96 83bf
00000130: 5e98 593e 56ad 18bf 81c1 ddbe 3ac5 bbbe
00000140: 2284 a0be 2b25 96be 639c 73bf 25ef 14bf
00000150: 9bf3 f2be 8b2e 10bf 2448 afbe 5072 e9be
00000160: fcff c9be 7aae f6be b28f 22bf b33a 98be
00000170: 2519 fcbe 5f4b 27bf 8614 c2be 9520 5ebe
00000180: fb21 c2be 6d54 10bf 4fc4 cdbe ec36 a2be
00000190: fca4 26bf 4df9 56be 7777 14bf 8eed d6be
000001a0: 0ae8 d7be 95be 51bf 1fee b8be 0ee4 bebe
000001b0: 4c32 11bf d0ec bbbe 63de 21bf 67e2 c8be
000001c0: de2b 78be 8424 21bf ac95 a8be b727 7dbf
000001d0: d6df e1be c039 a9be ff22 fabe 55d3 bbbe
000001e0: 6437 1abf 0b05 a7be a087 fdbe 4b5d 08bf
000001f0: 2f21 56be 5b42 1abf 86bc c4be 0322 9ebe
00000200: 697f 14bf 8a07 13be 7b9a 25bf c4c2 d1be
00000210: d9e4 52bf 3cab f0be 7d7c 85be 9b40 adbe
00000220: 6f47 9a3e 5c3f 9bbe 70a2 36bf 6412 92be
00000230: ef00 2bbf 5aa4 e3be 7358 a3be d16e 2ebf
00000240: 276b 13bf 0fd1 03bf 0cd6 44bf 2626 c8be
00000250: c3fd c6be 2879 05bf 4908 00bf e241 84be
00000260: ce6b a3be 8d84 91be a3a3 eabe 0b5b 9abe
00000270: ef9b 10bf 4459 3abf f2d5 e3be fb88 9cbe
00000280: 1d79 46bf a543 04bf ca94 d8be 132d 36bf
00000290: d205 8bbe d8f9 bebe 6971 0ebf 2d3b bdbe
000002a0: 4799 bcbe 36fc dfbe f761 09bf e648 6f3e
000002b0: 700e 0cbf 89bf 6ebe 4d75 0bbf 3cf3 fbbe
000002c0: 1a20 e5be c5f3 44bf a914 0ebf 3e81 81be
000002d0: 9958 0ebf 78a0 eebe 1c9b 90be 5f5f a1be
000002e0: 196f 0abf 26f0 7ebe 1ff5 ecbe 9e94 73be
000002f0: 944f 9abe bd39 d7be 903f fcbe 8308 d5be
00000300: df0b bebe 7965 fdb9 02a2 e8be d899 15bf
00000310: a055 15bf 587b 03bf 5baf 8abe 8167 1fbf
00000320: d941 16bf ae5d 96be 5a09 15bf bf08 d0be
00000330: 5a8b 02bf f085 bdbe 102d 06bf 89d3 f2be
00000340: 1f2c 08bf 5699 85be c23d bbbe a716 1cbf
00000350: decb 02bf 61cd 23bf 2139 72be 7de9 4abf
00000360: 8ed2 38bf c3ed 19bf cd07 1dbf 1935 10bf
00000370: 40ec 5dbe efc1 04bf be34 31bf 07b1 13bf
00000380: a718 42bf 0e25 e4be ee19 f1be a487 7ebe
00000390: 3b44 74be f8ba f4be 52b9 c1be 2698 2bbf
000003a0: 7ea5 9abe 9d46 a0be dbf5 b2be 7525 c7be
000003b0: 1930 a1be 1202 00bf decf bebe 0448 10bf
000003c0: 4c6b 0dbf 3d26 61be b28f 22bf 6672 85be
000003d0: f9d2 c1be 181f d0be 84b2 ccbe 46f3 06bf
000003e0: 9264 febe 7dd3 5fbe c47c c0be 7eec e8be
000003f0: 5888 0dbf 678e 94be 24c6 3dbe 57b4 d2be

fcl3.weight f4 [1, 300]
0.096667916 -0.045292795 -0.07431003 -0.0023249509 -0.060649082 -0.010967443 0.019432565 -0.027160099
0.05128564 0.021234509 -0.03451551 0.045316577 -0.0120767895 0.042119294 0.0122658145 -0.061391544
0.11338041 0.031502035 0.022920322 0.07502443 0.030116895 0.056249198 0.021817202 0.06092791
0.008052729 -0.089391194 -0.038257744 -0.032310653 0.08399987 0.080451354 0.04151125 0.02191235
0.049197942 0.010027079 0.013505785 0.05876265 0.023340406 -0.014790567 -0.012986635 0.02444619
0.07334405 0.096476935 0.014500268 -0.015880043 -0.063975394 -0.027714629 -0.024722746 0.01305375
0.03198284 -0.066450186 -0.052190498 -0.0073926193 -0.00065960264 0.042849705 0.05363816 -0.04849879
0.038593855 0.063800626 0.0567565 0.041621357 0.063570604 -0.086421564 0.026889872 0.005571834
0.01846313 0.10100635 -0.005357245 0.007247275 -0.0022232854 0.054754887 -0.06748592 0.08191051
0.10191831 -0.03129675 0.045784555 0.0484296 0.02768613 0.005816194 -0.089877866 -0.008143201
0.025659122 -0.054902602 0.058000654 -0.043767292 0.018584521 0.0070320517 -0.002127805 -0.05288696
0.04067953 0.05010478 -0.031700905 0.08565664 0.06707296 -0.019806758 0.053391527 -0.051701076
-0.06758929 -0.0030386364 -0.023083111 0.087808706 -0.0005028696 -0.03185831 -0.16719137 -0.06106708
-0.050882105 -0.05806822 0.01628799 0.0020320849 -0.05741299 -0.033989795 0.042709466 -0.0020846569
-0.007957708 0.020683357 0.061803523 -0.09096428 0.024837745 0.025139077 0.041718043 -0.017659638
0.09744872 0.08437081 -0.07549636 0.026657475 0.015337599 -0.037689716 0.035246193 0.01479334
-0.1043244 -0.08018638 -0.03940439 -0.07864581 -0.034794975 0.031397212 0.0040437076 -0.08529728
-0.018036224 -0.028231833 0.031443898 0.040906407 -0.006578761 -0.004976998 -0.06818409 0.01609362
-0.04851713 0.061677974 0.011261404 0.050862204 0.0864211 0.06475826 -0.06891214 -0.01301993
-0.037031252 0.041378163 0.0036977886 0.053660624 0.029118761 -0.040684815 0.059914347 -0.015137144
0.06546894 -0.09094428 -0.059202034 -0.03115995 0.072582036 0.064981125 0.038382806 -0.06210531
0.013711527 0.0949272 -0.00044857562 0.035713695 0.009573956 0.08324177 0.077626705 0.06395664
0.08201222 -0.050665498 -0.005056621 -0.06796707 -0.06107085 -0.022288138 -0.0758751 -0.11377104
-0.007071675 0.005096587 -0.07779517 0.09325711 -0.016166385 -0.018524958 -0.074576385 -0.03125054
-0.07963841 -0.018746965 0.03908073 0.032611854 -0.017719496 -0.07285821 0.020562276 0.04563007
0.0045934767 0.04271725 0.0014853574 -0.059473448 -0.03412082 -0.03793762 0.093164794 -0.030928066
-0.068265684 -0.013200903 -0.072846554 0.07723385 0.06665424 -0.08926143 -0.05031937 0.060663983
-0.031788237 0.045765873 -0.023684144 0.053257708 0.07087975 0.050826084 0.04179365 -0.019529132
0.09342626 -0.09052902 0.038359124 0.039683014 0.040179215 -0.07407155 -0.048585452 0.038394943
-0.014709368 -0.04353473 0.06226671 -0.005171442 -0.07945023 0.018542092 0.08884541 0.014588863
0.05028908 -0.014117113 0.06652586 0.00091341755 0.03224611 -0.06422274 0.07879583 -0.056708403
-0.07210322 0.05392322 -0.034298845 -0.046100978 0.0763551 -0.0894112 -0.045636076 0.007314712
00000000: d4f9 c53d f084 39bd db2f 98bd 345e 18bb
00000010: 2c6b 78bd cab0 33bc 0b31 9f3c db7e debc
00000020: e410 523d fef3 ad3c 2360 0dbd e09d 393d
00000030: badd 45bc 4885 2c3d 8ef6 483c b375 7bbd
00000040: fd33 e83d 4708 013d 66c3 bb3c 69a6 993d
00000050: b5b7 f63c 8f65 663d fdb9 b23c 8b8f 793d
00000060: 98ef 033c bb12 b7bd 27b4 1cbd 2d58 04bd
00000070: 2008 ac3d aec3 a43d b307 2a3d 8781 b33c
00000080: c883 493d 9e48 243c 5e47 5d3c 1bb1 703d
00000090: 6134 bf3c 2254 72bc e5c5 54bc 6043 c83c
000000a0: 6835 963d b395 c53d 8892 6d3c dd16 82bc
000000b0: 8805 83bd ca09 e3bc 5b87 cabc 65df 553c
000000c0: 7000 033d 0917 88bd b4c5 55bd c93d f2bb
000000d0: 2fe9 2cba 2c83 2f3d b0b3 5b3d aba6 46bd
000000e0: 9714 1e3d e7a9 823d 8179 683d 287b 2a3d
000000f0: 4e31 823d cafd b0bd 2648 dc3c ee93 b63b
00000100: fd3f 973c 6bdc ce3d d48b afbb 8d7a ed3b
00000110: 8ab4 11bb a946 603d 0f36 8abd b3c0 a73d
00000120: 8cba d03d 0531 00bd 9688 3b3d 1e5e 463d
00000130: 06ce e23c c695 be3b e311 b8bd 0f6b 05bc
00000140: 1433 d23c 8de1 60bd 1892 6d3d 5545 33bd
00000150: 913e 983c 206d e63b a572 0bbb ff9f 58bd
00000160: 949f 263d ab3a 4d3d cfd8 01bd c06c af3d
00000170: 8c5d 893d c841 a2bc 13b1 5a3d 82c4 53bd
00000180: 416c 8abd dc23 47bb cb18 bdbc 0dd5 b33d
00000190: 02d3 03ba dc7d 02bd 3734 2bbe 7921 7abd
000001a0: c169 50bd f1d8 6dbd 646e 853c ba2c 053b
000001b0: e229 6bbd e238 0bbd 1ff0 2e3d bd9e 08bb
000001c0: 0c61 02bc 2570 a93c b125 7d3d 7b4b babd
000001d0: 8778 cb3c 77f0 cd3c 8ae0 2a3d f2aa 90bc
000001e0: 3293 c73d 9aca ac3d d69d 9abd c760 da3c
000001f0: 8e4a 7b3c 8860 1abd 505e 103d c45f 723c
00000200: 08a8 d5bd c238 a4bd 7f66 21bd 0e11 a1bd
00000210: 2d85 0ebd 5d9a 003d 1481 843b 57b0 aebd
00000220: b4c0 93bc 7246 e7bc 51cb 003d 7a8d 273d
00000230: a692 d7bb 1616 a3bb 1aa4 8bbd c4d6 833c
00000240: e6b9 46bd 0ba2 7c3d c081 383c e354 503d
00000250: 8cfd b03d fb9f 843d cf21 8dbd 8b51 55bc
00000260: 15ae 17bd 267c 293d 9956 723b 3ecb 5b3d
00000270: 788a ee3c 1fa5 26bd bf68 753d c901 78bc
00000280: 9414 863d ff40 babd d57d 72bd 2743 ffbc
00000290: e4a5 943d d314 853d 4a37 1d3d 2362 7ebd
000002a0: 50a6 603c 3169 c23d cd2e ebb9 8648 123d
000002b0: 15dc 1c3c a97a aa3d c0fa 9e3d b3fb 823d
000002c0: 06f6 a73d a086 4fbd 03b2 a5bb 5232 8bbd
000002d0: 6d25 7abd 9d95 b6bc 6864 9bbd cb00 e9bd
000002e0: 82b9 e7bb 4501 a73b 1353 9fbd 95fd be3d
000002f0: 5e6f 84bc a7c1 97bc 81bb 98bd 9100 00bd
00000300: 7619 a3bd 3c93 99bc 1e13 203d 0294 053d
00000310: 7a28 91bc af36 95bd 3872 a83c 99e6 3a3d
00000320: e084 963b 48f8 2e3d 53b0 c23a 6e9a 73bd
00000330: 46c2 0bbd 7a64 1bbd 2fcd be3d db5c fdbc
00000340: e1ce 8bbd 9a48 58bc 9330 95bd c82c 9e3d
00000350: 0582 883d b2ce b6bd af1b 4ebd cc7a 783d
00000360: 6234 02bd ff74 3b3d 4005 c2bc c124 5a3d
00000370: 6729 913d 032f 503d d12f 2b3d 8ffb 9fbc
00000380: 4456 bf3d 4767 b9bd 751e 1d3d a88a 223d
00000390: f692 243d d3b2 97bd 8a01 47bd 0444 1d3d
000003a0: 90ff 70bc 7951 32bd 610b 7f3d 3375 a9bb
000003b0: cdb6 a2bd 96e5 973c 95f4 b53d 2006 6f3c
000003c0: ecfb 4d3d 774b 67bc b63e 883d 6a72 6f3a
000003d0: 7f14 043d 3687 83bd b55f a13d 1247 68bd
000003e0: daaa 93bd 98de 5c3d f27c 0cbd 61d4 3cbd
000003f0: 1060 9c3d 381d b7bd e5ec 3abd 40b0 ef3b

bn1.weight f4 [400]
0.17037514 -0.109803945 0.08992893 0.12173437 0.26248884 0.3935943 -0.013144587 0.08222792
0.54877853 -0.0708427 0.28788278 0.009192264 0.04971063 -0.059326272 -0.0140094645 0.25992584
0.06990951 0.23719642 -0.007877263 0.0009455493 0.03547942 -0.0017290108 0.11329309 -0.05394513
0.243505 0.37367505 0.06617849 0.14176133 0.013633997 0.53473866 -0.087012716 0.10185841
0.16511653 -1.1237106 0.15059148 0.09842649 0.03312694 -0.25950488 -0.030441297 -0.0014086404
0.14992757 0.3902896 0.0016000714 0.2483252 0.059509367 0.030903473 -0.11764794 0.0028203388
-0.16727336 -0.038358167 -0.38745275 0.10244747 0.04798614 0.48965067 0.24426772 -0.0016430657
0.008978122 0.00025356768 0.39687553 -0.0051517664 0.09152572 0.008390574 0.0051318407 -0.17086582
-0.0057922853 0.1072732 -0.23018636 0.09059866 0.043478373 -0.002584303 0.079230785 0.01434788
0.0059157065 -0.08559239 -0.101640254 -0.1888077 0.12674733 0.092845626 -0.24919291 0.37867892
-0.022812124 -0.0032164578 0.4619915 -0.002640252 0.09524598 -0.19391486 -0.088949814 0.0102316635
0.0020045901 0.002041351 0.0342206 0.010277387 0.021352082 0.340955 0.07035264 0.00842737
0.092768595 0.021104451 -0.04339177 0.010646114 0.2776809 -0.021094343 0.43280345 0.14828305
-0.0074083298 0.11030639 0.18130882 -0.007998588 0.17913795 -0.007282223 -0.0012121942 0.00017866137
0.026274184 0.37095854 0.18504329 0.121459484 -0.0020663282 0.00022524012 0.028680414 0.039075144
0.18532471 0.018591031 -0.022781005 0.20052719 0.10059925 0.047790047 0.23778297 -0.1703835
0.019618252 -0.011089099 -0.07626281 -0.03984096 -0.045633912 0.0013255225 0.13549209 0.13211858
0.22067635 0.011081129 0.0089312075 0.12949654 0.02514825 0.05942377 -0.093166605 -0.013184426
-0.022559216 0.22615041 0.12473369 -0.0174762 0.0009988867 -0.004848053 -0.061182126 0.04097959
0.09633177 0.009506702 0.16026838 -0.110625565 0.23248683 0.0037723829 0.018693045 0.14091672
0.2778353 -0.104752496 -0.0011263116 -0.008792369 0.048762366 -0.0066478453 0.0018886712 -0.32556108
0.10348233 0.002008427 0.22311024 -0.044327445 -0.0063068382 0.61134416 -0.0035262988 0.18276699
0.079147816 0.064709164 -0.005484696 0.03231325 -0.04058968 0.014406085 -0.0134365875 0.1125617
0.001635669 0.3032832 0.2765063 -0.004982651 0.14267714 0.19652858 0.5127112 0.025533658
-0.032044638 0.16165353 0.0049767406 -0.11013525 -0.7559986 0.30329955 0.062204376 0.13443293
0.088115156 -0.042669464 0.19656506 0.0025392624 0.0017017443 -0.021607485 -0.046995357 0.24847749
0.31712374 -0.22645001 0.31892216 0.09350604 -0.0059064566 0.09757608 -0.0012336929 -0.0043501793
-0.0404754 -0.07837245 -0.083459236 0.07968859 0.003787767 0.014848644 -0.004543449 0.27080944
0.0043213167 0.1364304 0.15128258 -0.018539071 -0.07240105 0.26044053 0.09024071 -0.00041141055
-0.07066268 0.00022986734 -0.0792668 0.12605122 0.34217054 0.0055152094 0.15776823 0.39842564
-0.023358699 0.36899886 -0.30967525 -0.0021826322 0.00044909128 0.121524304 0.1939276 -0.00084181584
0.0021183426 0.0001636966 0.21863982 0.006708791 -0.03310554 0.12959537 -0.008608129 -0.003526519
00000000: d276 2e3e e4e0 e0bd a92c b83d df4f f93d
00000010: f064 863e 3185 c93e 655c 57bc 1d67 a83d
00000020: c07c 0c3f fa15 91bd 5f65 933e 269b 163c
00000030: 609d 4b3d 1b00 73bd f487 65bc 0015 853e
00000040: b82c 8f3d 9ee3 723e a30f 01bc bdde 773a
00000050: de52 113d fa9f e2ba 3506 e83d 92f5 5cbd
00000060: 6059 793e 5652 bf3e 9788 873d e229 113e
00000070: 2161 5f3c a2e4 083f b933 b2bd 249b d03d
00000080: 4f14 293e c0d5 8fbf a734 1a3e d493 c93d
00000090: 1db0 073d d3dd 84be 0760 f9bc 21a2 b8ba
000000a0: 9d86 193e 0ad4 c73e 7db9 d13a f648 7e3e
000000b0: 18c0 733d 4829 fd3c 67f1 f0bd 6fd5 383b
000000c0: b549 2bbe 741d 1dbd 3560 c6be fbcf d13d
000000d0: 1d8d 443d 7eb3 fa3e 5121 7a3e 235c d7ba
000000e0: f918 133c 47f1 8439 4533 cb3e 26d0 a8bb
000000f0: d671 bb3d 9e78 093c 0029 a83b 73f7 2ebe
00000100: 36cd bdbb 0db2 db3d f9b5 6bbe ca8b b93d
00000110: 6116 323d 695d 29bb c043 a23d 5f13 6b3c
00000120: 8bd8 c13b 104b afbd c428 d0bd ce56 41be
00000130: 0dca 013e d925 be3d 6d2c 7fbe 34e2 c13e
00000140: 7ee0 babc 35cb 52bb 268a ec3e 1408 2dbb
00000150: 5310 c33d 9e91 46be 522b b6bd b5a2 273c
00000160: 715f 033b 30c8 053b e62a 0c3d 7c62 283c
00000170: 90ea ae3c a791 ae3e 0b15 903d f412 0a3c
00000180: 76fd bd3d 3ee3 ac3c 92bb 31bd 0a6d 2e3c
00000190: 312c 8e3e 0bce acbc 6a98 dd3e 83d7 173e
000001a0: 93c1 f2bb 51e8 e13d 05a9 393e 820c 03bc
000001b0: f06f 373e b79f eebb 7de2 9eba 0c57 3b39
000001c0: f53c d73c 47ee bd3e fd7b 3d3e c0bf f83d
000001d0: 3c6b 07bb 6f2e 6c39 30f3 ea3c 420d 203d
000001e0: c3c5 3d3e 384c 983c 3b9f babc 0057 4d3e
000001f0: fb06 ce3d 7fbf 433d 617d 733e 0379 2ebe
00000200: 75b6 a03c 0daf 35bc ad2f 9cbd 4630 23bd
00000210: a0ea 3abd 28bd ad3a 70be 0a3e 184a 073e
00000220: fbf8 613e a08d 353c 3354 123c be9a 043e
00000230: b403 ce3c 5766 733d 22ce bebd 7e03 58bc
00000240: 1bce b8bc f993 673e 6074 ff3d 3f2a 8fbc
00000250: 13ed 823a 6bdc 9ebb 1c9a 7abd 37da 273d
00000260: 9749 c53d 00c2 1b3c 651d 243e a88f e2bd
00000270: 0711 6e3e 153a 773b 2822 993c 794c 103e
00000280: 6e40 8e3e 7a88 d6bd bfa0 93ba de0d 10bc
00000290: 0cbb 473d 2bd6 d9bb 4a8d f73a f1af a6be
000002a0: 8bee d33d d09f 033b 0377 643e b290 35bd
000002b0: 98a9 cebb 0d81 1c3f 7a19 67bb 4527 3b3e
000002c0: 4018 a23d 3d86 843d f7b8 b3bb e65a 043d
000002d0: 5d41 26bd 8007 6c3c 2225 5cbc c086 e63d
000002e0: f263 d63a f047 9b3e 3c92 8d3e 8245 a3bb
000002f0: f519 123e ca3e 493e 0b41 033f f62b d13c
00000300: 3d41 03bd 8188 253e ed13 a33b 978e e1bd
00000310: 2089 41bf 144a 9b3e 04ca 7e3d c9a8 093e
00000320: b875 b43d 2dc6 2ebd 5a48 493e c169 263b
00000330: 100d df3a 2e02 b1bc 347e 40bd e270 7e3e
00000340: 0b5e a23e 83e2 67be c449 a33e 1880 bf3d
00000350: f38a c1bb f8d5 c73d ddb3 a1ba f38b 8ebb
00000360: 88c9 25bd bc81 a0bd adec aabd c533 a33d
00000370: 2f3c 783b ba47 733c 36e1 94bb 89a7 8a3e
00000380: d599 8d3b 69b4 0b3e d2e9 1a3e 40df 97bc
00000390: 0047 94bd 7658 853e 1fd0 b83d 97b2 d7b9
000003a0: 98b7 90bd 8b08 7139 a256 a2bd 9213 013e
000003b0: fa30 af3e eeb8 b43b ff8d 213e 72fe cb3e
000003c0: be5a bfbc 6bed bc3e c18d 9ebe 7e0a 0fbb
000003d0: 0374 eb39 bce1 f83d f594 463e 4ead 5cba
000003e0: e4d3 0a3b f9a5 2b39 1ee3 5f3e 6bd5 db3b
000003f0: ad99 07bd a6b4 043e 1c09 0dbc 2c1d 67bb

bn1.bias f4 [400]
0.013556657 -0.0038338418 0.0022264826 0.31466296 0.04331993 1.909613e-05 0.004734704 0.0071941856
0.23817322 0.0028503598 0.06374136 0.0014544561 0.008820729 0.004627258 0.0006860366 0.047960434
0.004228355 0.03204758 -1.0377464e-05 -0.004555667 0.0010588533 0.0044025043 0.00040648988 0.012476467
0.12284716 0.17146067 -0.00675658 -0.004907838 0.0003385407 0.16553146 -0.013380016 0.00037130198
0.017226702 -0.56594336 0.010971034 0.010097558 -0.0028315526 -0.009791353 0.00025234465 -8.2999584e-05
-0.025900913 -0.036807 -0.00075189443 0.06550557 0.00079520536 0.0035450538 -0.0012567769 -0.0005293111
0.0008258522 0.0021663315 0.002529799 0.006270457 -0.001501081 0.13231435 0.00018856405 0.0015532842
-0.0004908779 0.0015972567 0.061841257 0.0015063614 0.024240369 0.0043558637 -0.0005737576 0.0051895073
0.0009455003 -0.0039916453 -0.00042475353 0.017086864 0.0021799004 0.0009179326 -0.0024168233 0.0001551019
-0.0002976298 0.001322587 0.0030379596 -0.0022322072 -0.008456861 0.0012872488 0.005940795 0.13298744
-0.0042962483 -0.001901448 0.09019186 0.00024976666 -0.013017101 -0.050074168 0.009223635 -0.00044837463
0.0022143102 0.00091478135 0.0067180307 0.0015517082 -0.0017730952 -0.02118256 -0.005031652 0.0036710617
0.018629314 -0.0008965758 0.005427429 0.0011841625 -0.062349547 0.010129143 0.19778964 -0.004330396
-0.0015246328 -0.002211439 0.028458709 0.013204499 -0.0018370656 0.0009951656 -0.00080554024 -0.0016432318
0.00715536 -0.007941103 0.049829826 -0.020588111 -0.002660175 0.0014916244 0.0018641417 0.0010990629
0.021947145 0.0004883838 -0.007869286 0.060608234 -0.0006715003 0.0021992929 -0.022418573 0.01939395
-0.0011558647 0.00064028887 0.0004818005 0.0006318457 -0.004981346 0.0006055459 -0.013549807 -0.00640968
0.035860922 0.0006804797 0.0019982145 -0.0016958652 -0.0010962278 -0.0048383707 -0.0023451406 0.00080496375
-0.00019684329 0.009380906 -0.003500219 0.00012283557 0.0003744585 -0.0005917642 -0.0010106555 0.0012278329
0.024804585 0.0057295123 0.0149802305 0.00018744776 0.12832248 0.0004532929 0.004400938 -0.018419309
0.05105952 -0.0052676243 -0.00065642997 0.0013375593 0.007450615 -0.00096147123 0.00058882165 0.0025678233
-0.0067379544 -0.0006729857 0.04102339 0.0030546542 -0.00033501897 0.06814167 -0.0006655657 0.03828278
-0.0063145566 0.0037442513 -0.003683945 -0.0030509639 -0.003669333 -0.0023846994 0.0024377026 0.016153611
-0.00017746733 0.25675082 0.10538149 -0.002210391 -0.00078625145 -0.030924277 0.06837116 -0.0006367692
-0.003781218 0.024535133 0.0016381366 0.0037493815 0.00052191474 0.05729366 0.00062599644 0.032649565
0.00201457 -0.001897645 0.021853544 6.8019865e-05 0.00012742511 -0.0004209876 -0.003518874 -0.010253114
-0.022535615 -0.012369186 0.014717302 0.0060117287 0.0007404561 -0.0021173418 -0.0007874458 -0.0009195346
0.0011066244 0.0014722963 0.008288662 0.002636078 -0.0006520008 0.0011159903 -0.0010372385 0.012019011
0.0036073795 0.017918289 0.022869091 0.0025600751 -0.0042116265 0.0023432279 0.03454056 0.0028263319
-0.0043213703 0.0014021636 -0.0026968122 0.01269534 0.13525763 -0.0010594284 0.038050115 0.107729934
0.0002120893 -0.0012948957 0.0018063475 0.0007680032 -3.063665e-05 -0.000986269 0.028414859 0.00011902475
-0.0016099163 -0.0008225866 0.051839072 -0.0026972413 -0.0018690809 -0.007380595 6.626984e-05 0.00057267665
00000000: be1c 5e3c 3141 7bbb 2eea 113b 811b a13e
00000010: 3d70 313d a030 a037 9325 9b3b 34bd eb3b
00000020: aee3 733e 1acd 3a3b d58a 823d 73a3 be3a
00000030: d284 103c 41a0 973b 23d7 333a 2972 443d
00000040: 038e 8a3b 5344 033d de1a 2eb7 b447 95bb
00000050: 39c9 8a3a e242 903b 261e d539 186a 4c3c
00000060: 4b97 fb3d 6393 2f3e 4d66 ddbb eed1 a0bb
00000070: 2a7e b139 1481 293e db37 5bbc 4fab c239
00000080: 031f 8d3c aae1 10bf dabf 333c 3a70 253c
00000090: 9291 39bb e96b 20bc 204d 8439 1010 aeb8
000000a0: 272e d4bc f0c2 16bd c81a 45ba c927 863d
000000b0: 5475 503a 2254 683b 6fba a4ba 77c1 0aba
000000c0: 017e 583a 03f9 0d3b fcca 253b 6878 cd3b
000000d0: ecbf c4ba 6a7d 073e 47b9 4539 9297 cb3a
000000e0: 42ae 00ba 0b5b d13a 424d 7d3d 1a71 c53a
000000f0: bd93 c63c a2bb 8e3b 3968 16ba be0c aa3b
00000100: 73db 773a 59cc 82bb 74b1 deb9 c0f9 8b3c
00000110: a9dc 0e3b 6aa1 703a 9163 1ebb d9a2 2239
00000120: 320b 9cb9 a85a ad3a 8118 473b 394a 12bb
00000130: a58e 0abc e7b8 a83a 00ab c23b dc2d 083e
00000140: 8bc7 8cbb 023a f9ba 83b6 b83d 1df3 8239
00000150: ae45 55bc 921a 4dbd bb1e 173c d313 ebb9
00000160: f61d 113b f0cd 6f3a ed22 dc3b b062 cb3a
00000170: 3467 e8ba 0c87 adbc 8ee0 a4bb 3296 703b
00000180: 819c 983c 2f08 6bba 93d8 b13b e635 9b3a
00000190: 3d62 7fbd b4f4 253c 5e89 4a3e ffe5 8dbb
000001a0: 30d6 c7ba caed 10bb 3d22 e93c af57 583c
000001b0: b1c9 f0ba 3770 823a e42a 53ba b661 d7ba
000001c0: 8377 ea3b 661b 02bc 5c1a 4c3d 66a8 a8bc
000001d0: 5556 2ebb 9c82 c33a 3756 f43a 6e0e 903a
000001e0: 80ca b33c e206 003a 2eee 00bc 5740 783d
000001f0: 9f07 30ba 0322 103b 28a7 b7bc 10e0 9e3c
00000200: 6280 97ba 0fd9 273a 2b9a fc39 72a2 253a
00000210: 8f3a a3bb 7fbd 1e3a 0200 5ebc 4b08 d2bb
00000220: e7e2 123d 3862 323a 7af4 023b cb47 deba
00000230: 4daf 8fba 328b 9ebb eeb0 19bb 3404 533a
00000240: b867 4eb9 5fb2 193c ee63 65bb 6ccd 0039
00000250: f852 c439 a020 1bba f977 84ba 3cef a03a
00000260: fc32 cb3c a2be bb3b a46f 753c a08d 4439
00000270: f866 033e f1a7 ed39 be35 903b 17e4 96bc
00000280: ca23 513d 099c acbb 4514 2cba 0b51 af3a
00000290: 4a24 f43b 3e0b 7cba 275b 1a3a ed48 283b
000002a0: 0fca dcbb 4e6b 30ba 2408 283d 9830 483b
000002b0: 7ca5 afb9 dc8d 8b3d 5c79 2eba 68ce 1c3d
000002c0: 57ea cebb 1d62 753b 576e 71bb aef2 47bb
000002d0: 3179 70bb 9e48 1cbb ddc1 1f3b 9454 843c
000002e0: 8616 3ab9 d874 833e 40d2 d73d 35dc 10bb
000002f0: 711c 4eba e954 fdbc 2e06 8c3d dcec 26ba
00000300: 50ce 77bb e7fd c83c beb6 d63a 2fb8 753b
00000310: 1bd1 083a c2ac 6a3d e919 243a 8dbb 053d
00000320: e006 043b 66ba f8ba 3406 b33c e3a5 8e38
00000330: 6b9d 0539 00b8 dcb9 e99c 66bb adfc 27bc
00000340: 9c9c b8bc 20a8 4abc d720 713c 09fe c43b
00000350: 2b1b 423a 1ac3 0abb 986c 4eba ec0c 71ba
00000360: 270c 913a 11fa c03a 2bcd 073c 0dc2 2c3b
00000370: 08eb 2aba 6c46 923a f3f3 87ba 63eb 443c
00000380: c969 6c3b 60c9 923c f657 bb3c efc6 273b
00000390: af01 8abb d790 193b 677a 0d3d fb39 393b
000003a0: 489a 8dbb cec8 b73a 00bd 30bb 1e00 503c
000003b0: fa80 0a3e 85dc 8aba 70da 1b3d 83a1 dc3d
000003c0: 4a64 5e39 7db9 a9ba f7c2 ec3a d353 493a
000003d0: da7f 00b8 b245 81ba 47c6 e83c ed9c f938
000003e0: d403 d3ba daa2 57ba 3555 543d 33c4 30bb
000003f0: f3fb f4ba ebd8 f1bb 59fa 8a38 ae1f 163a

bn1.running_mean f4 [400]
2.4153981 1.7231715 0.043431558 4.402203 12.014537 6e-45 1.8131334 1.3055352
8.996589 0.5885836 11.965426 0.6076433 0.76660854 1.3588917 0.0353337 3.2553802
8.951361e-05 2.984044 1.7844787 1.6090399 6e-45 7.2454805 0.4996865 6e-45
7.3540096 30.420092 6e-45 1.3766357 0.035971645 28.42521 1.5690081 6e-45
36.19072 109.983765 6.0334325 11.081424 0.29710385 3.007321 1.4158169 42.985268
0.5053863 10.415537 0.078062676 6.9156327 0.0007153817 0.104053386 6e-45 16.838837
4.848379e-18 4.997076 1.1941444e-16 9.259145 0.30751657 4.2125955 3.451e-42 0.38499284
0.3586146 8.299518 4.1950297 0.3023548 4.9739695 0.3682183 0.64865553 6e-45
7.505925 6e-45 6e-45 1.216953 0.7341661 11.193279 4.5479174 0.9458894
9.058085 0.002194523 6.036904e-08 6e-45 6e-45 1.815045e-08 8.060562 3.3772078
0.18734764 5.7134542 13.299678 13.626978 3.3139849 2.5769083 6e-45 2.7584808
2.5244715 0.23683646 0.928883 0.3673229 0.6896352 11.210627 0.48394582 0.25038433
1.9605871 1.8267561 1.5679397e-35 0.0059227617 3.9499285 18.673319 3.028402 14.190612
4.444243 2.354741e-05 1.1687241 0.7870261 1.0809183e-33 1.0284977 0.27948937 6e-45
6.171091 6e-45 14.37605 1.4535025 0.6806137 1.0610204 0.00013302031 4.217611
15.072441 0.8454745 0.16975072 3.7956471 4.8728546e-29 0.0035954558 9.045251 1.5085598
0.43171915 0.24012533 6e-45 0.23215677 6e-45 0.43582416 1.163575 0.57450634
0.88695747 0.036878318 0.6464136 0.31362388 0.15143566 7.912909 3.0778568 0.6525066
0.01092557 9.503078 6e-45 0.32636124 1.1308432 0.41905594 0.9797281 0.06440974
19.203026 47.97204 3.5734544 6e-45 15.518168 17.032017 0.31130126 12.177062
2.2551913 1.2149467 0.036309276 3.4739978 1.0342219 0.61921406 3.717785 3.3843506e-05
0.002971697 1.9132403 2.8555634 0.27389228 0.77120703 0.7708788 3.1859298 0.4725993
1.0708159 0.48670033 6.041497 0.0023947228 0.5714532 0.081164934 0.3475595 2.073413
6.2697315 0.6240359 43.758713 0.35295743 2.1665535 5.243024 71.270096 3.4970996
2.5488868 4.148627 0.015554651 0.37114143 6e-45 1.1606716 4.2092137 3.7383099
10.830218 6e-45 10.425286 2.2659972 0.13841176 1.0358893 0.6927333 0.8051866
15.336528 11.241343 4.296028 0.85804194 0.9775088 2.203993e-08 1.2036915 0.0059817
0.3497967 6e-45 6e-45 0.6094967 0.23228772 1.3297446 1.5332123 30.696392
0.96531206 2.179383 2.1211252 0.66508657 1.3887535 6e-45 4.1611795 0.72762346
0.8000766 6.3032154e-29 6e-45 3.4052901 3.7084136 0.5990095 0.79180044 4.5040812
1.2740873 9.937615e-37 3.9880515e-06 7.2040706 15.646458 6e-45 0.7999281 6.3521414
1.1724802 0.7555759 0.7904406 0.06745316 0.2977058 4.8070927 0.7981492 1.762053
00000000: e295 1a40 e290 dc3f 4ae5 313d d9de 8c40
00000010: 8b3b 4041 0400 0000 c114 e83f c71b a73f
00000020: 07f2 0f41 6aad 163f 6372 3f41 838e 1b3f
00000030: 7540 443f 2af0 ad3f 12ba 103d 2658 5040
00000040: 41b9 bb38 94fa 3e40 cc69 e43f 05f5 cd3f
00000050: 0400 0000 fada e740 e9d6 ff3e 0400 0000
00000060: 0c54 eb40 595c f341 0400 0000 9935 b03f
00000070: 0157 133d d566 e341 42d5 c83f 0400 0000
00000080: 4cc3 1042 b0f7 db42 e111 c140 834d 3141
00000090: ff1d 983e f277 4040 7d39 b53f eaf0 2b42
000000a0: ff60 013f 0aa6 2641 53df 9f3d dd4c dd40
000000b0: 7488 3b3a f119 d53d 0400 0000 f0b5 8641
000000c0: a5df b222 0ce8 9f40 ecac 0925 7525 1441
000000d0: d072 9d3e 95cd 8640 9f09 0000 c81d c53e
000000e0: 559c b73e d3ca 0441 af3d 8640 40ce 9a3e
000000f0: c22a 9f40 1c87 bc3e 4a0e 263f 0400 0000
00000100: 8a30 f040 0400 0000 0400 0000 1ec5 9b3f
00000110: 4ff2 3b3f ac17 3341 8a88 9140 cf25 723f
00000120: ebed 1041 fdd1 0f3b 3ba4 8133 0400 0000
00000130: 0400 0000 43e9 9b32 10f8 0041 2c24 5840
00000140: 0fd8 3f3e 9ed4 b640 7bcb 5441 1a08 5a41
00000150: 5418 5440 11ec 2440 0400 0000 f38a 3040
00000160: f190 2140 4285 723e 47cb 6d3f bf11 bc3e
00000170: ef8b 303f ba5e 3341 bfc7 f73e 6032 803e
00000180: 85f4 fa3f 25d3 e93f 61bb a605 ba13 c23b
00000190: a1cb 7c40 f562 9541 57d1 4140 bf0c 6341
000001a0: 3d37 8e40 ae87 c537 c098 953f 8b7a 493f
000001b0: 2e99 b308 d0a5 833f 3b19 8f3e 0400 0000
000001c0: 9479 c540 0400 0000 4d04 6641 5f0c ba3f
000001d0: b33c 2e3f 84cf 873f 5e7b 0b39 abf6 8640
000001e0: b828 7141 0471 583f 22d3 2d3e e2eb 7240
000001f0: 4515 7710 bda1 6b3b 59b9 1041 7d18 c13f
00000200: 4b0a dd3e 6ae3 753e 0400 0000 81ba 6d3e
00000210: 0400 0000 5824 df3e 07f0 943f d912 133f
00000220: a50f 633f b80d 173d 5d7b 253f 4f93 a03e
00000230: f311 1b3e 8d36 fd40 9bfb 4440 ac0a 273f
00000240: 2901 333c 9c0c 1841 0400 0000 d218 a73e
00000250: 78bf 903f 808e d63e 76cf 7a3f 41e9 833d
00000260: cc9f 9941 5ee3 3f42 7ab3 6440 0400 0000
00000270: 6b4a 7841 9241 8841 e162 9f3e 3fd5 4241
00000280: 0e55 1040 6083 9b3f 09b9 143d fb55 5e40
00000290: 6261 843f d084 1e3f 30f0 6d40 30f3 0d38
000002a0: cdc0 423b 0fe5 f43f 8dc1 3640 9c3b 8c3e
000002b0: d36d 453f 5058 453f 46e6 4b40 89f8 f13e
000002c0: 7f10 893f c930 f93e f253 c140 c8f0 1c3b
000002d0: c24a 123f cd39 a63d 52f3 b13e ccb2 0440
000002e0: a4a1 c840 d1c0 1f3f ec08 2f42 d6b6 b43e
000002f0: d0a8 0a40 dac6 a740 4a8a 8e42 7bd0 5f40
00000300: f620 2340 8dc1 8440 efd8 7e3c 4006 be3e
00000310: 0400 0000 e390 943f e1b1 8640 7840 6f40
00000320: 9348 2d41 0400 0000 f9cd 2641 1906 1140
00000330: d0bb 0d3e 0598 843f f856 313f b620 4e3f
00000340: 6b62 7541 8adc 3341 1079 8940 a3a8 5b3f
00000350: 043e 7a3f 5252 bd32 9012 9a3f 2302 c43b
00000360: 8e18 b33e 0400 0000 0400 0000 fa07 1c3f
00000370: d5dc 6d3e 1235 aa3f 4d40 c43f 3692 f541
00000380: b11e 773f 037b 0b40 84c0 0740 1d43 2a3f
00000390: adc2 b13f 0400 0000 6228 8540 8845 3a3f
000003a0: d2d1 4c3f 35ce 9f10 0400 0000 46f0 5940
000003b0: a656 6d40 b058 193f 6fb3 4a3f 6f21 9040
000003c0: 4b15 a33f 6b14 a903 1ad1 8536 bf87 e640
000003d0: e457 7a41 0400 0000 17c8 4c3f be44 cb40
000003e0: d513 963f 6c6d 413f 515a 4a3f e224 8a3d
000003f0: e56c 983e b4d3 9940 8253 4c3f f48a e13f
