p3_collab-compet/implementation/my_critic_1.pth (torch_old, 575055 bytes, 9 tensors)

fcl1.weight f4 [400, 52]
000000 66 c0 b2 3f 74 13 14 3f a6 b8 1e be 8a 94 cc be
       1.3964965 0.57842183 -0.15500125 -0.39957076
000010 48 ce 74 3f a4 73 2c c0 71 f9 5a be 0d 4d cf be
       0.9562726 -2.6945581 -0.21384217 -0.40488473
000020 e3 12 ab 3f a9 e4 11 bc 94 89 ea 3c 5e b8 9b bf
       1.3365139 -0.0089046145 0.028630055 -1.2165639
000030 71 01 04 be ae 7b f0 bf 35 b8 68 3c 02 87 9b bf
       -0.12891175 -1.8787744 0.014204075 -1.2150576
000040 a8 61 a1 3e f8 8e 32 bf 85 68 3d 3d f6 c7 a5 3e
       0.31519818 -0.69749403 0.046242256 0.3237912
000050 ac f6 40 bf a5 2f a3 bd 01 1c 5f 3d 96 0d a5 3e
       -0.7537639 -0.07968072 0.054470066 0.32236928
000060 ab 52 b3 3f 61 5a c5 bf 6a 6b ec bd ad 70 6a bf
       1.4009603 -1.5418206 -0.11543925 -0.9157818
000070 ef a4 71 bf ec f2 2f c0 4a a9 29 be 10 d2 5b bf
       -0.94392294 -2.7492018 -0.16568485 -0.85867405
000080 1e 57 91 3f aa e1 1e c0 2b 52 99 3d 57 90 b4 bf
       1.1354711 -2.4825234 0.074863754 -1.4106549
000090 01 c9 f4 3d d5 4a f7 bf c8 33 d3 3d 34 fe b3 bf
       0.11952401 -1.9319712 0.10312611 -1.4061952
0000a0 86 17 25 3f d9 d1 2c c0 d3 fd 61 be 4e c7 66 3f
       0.6448902 -2.700308 -0.22069483 0.90147865
0000b0 49 d3 45 3f e9 25 07 be 85 84 67 be 67 04 61 3f
       0.7727552 -0.13198055 -0.22609146 0.8789734
0000c0 62 ef 1d 40 2d ca 2f c0 20 13 db bf af fb 48 c0
       2.4677358 -2.7467148 -1.7115211 -3.1403615
0000d0 38 9f 85 3f c2 39 72 ba 95 e9 17 be 38 6c ef be
       1.0439215 -0.0009240174 -0.14835198 -0.46762252
0000e0 6b 1f a9 3e 9b 14 4c bf ab f1 f0 bd 94 68 fd be
       0.33031783 -0.7971894 -0.117648445 -0.4949385
0000f0 9f 95 6b 3f 24 b9 ff bd c2 64 3c bf 36 2a b8 be
       0.9202518 -0.12486485 -0.73591244 -0.35969704
000100 c8 1b 94 3e e1 d3 40 bf 76 92 46 bf 3d 38 ca be
       0.28927445 -0.753233 -0.7756723 -0.3949603
000110 00 00 a5 3f 81 d3 17 be 16 ca 59 3f b9 06 0c bf
       1.2890625 -0.14826776 0.85073984 -0.5469776
000120 4f 6c c5 3e 68 28 58 bf 37 a9 4a 3f ba e5 15 bf
       0.38559195 -0.84436655 0.7916445 -0.5855366
000130 39 dc 1b 3f aa c7 a7 3e 5d 7f 3c be f9 92 48 be
       0.6088291 0.3276952 -0.1840796 -0.19587316
000140 60 6e a5 be 9b 74 5b bf 95 a4 58 be fd d0 05 be
       -0.32310772 -0.857248 -0.21156533 -0.13068004
000150 10 1e 37 3f 8b cc 83 3e cc 5f e3 3d c5 71 12 bf
       0.71530247 0.2574199 0.11102256 -0.5720485
000160 ce 4b 9f be e1 d3 3f bf 84 46 69 3d 19 b5 01 bf
       -0.31112522 -0.74932677 0.056952015 -0.5066696
000170 71 f9 3c 3f 4d d5 b7 3d 97 c6 37 be 82 69 89 be
       0.7381812 0.08976231 -0.1794685 -0.2683831
000180 01 e4 d2 be 21 71 61 bf 8b 24 aa bd 4a 7f a2 be
       -0.41189578 -0.88063246 -0.08307751 -0.3173774
000190 8a 60 45 3f 3f 0f c5 be d9 96 99 bd 73 a4 cd 3e
       0.7710043 -0.38488194 -0.07499475 0.40164527
0001a0 09 33 49 3d a5 cb cf 3f 16 f3 9c bc 7c 12 81 ba
       0.049120937 1.6234022 -0.019158881 -0.0009847428
0001b0 32 7a a9 bd 4f ea 2d bf b4 1a ed bc 8a f0 dd 3c
       -0.0827526 -0.6793565 -0.028943397 0.027092237
0001c0 9b 81 80 3e 37 b9 c8 3f 42 36 71 bb 6b 4c d7 be
       0.2509888 1.5681523 -0.0036806022 -0.4205049
0001d0 93 2a b6 3d e5 c3 3f bf f0 63 6d 3c 82 78 c1 be
       0.08894839 -0.74908286 0.014489159 -0.37787253
0001e0 4d 7f cf 3e 27 62 a5 3f ca 0f 1c be f0 98 cd bf
       0.4052681 1.2920579 -0.15240398 -1.6062298
0001f0 2d 74 27 3e 8a 78 58 bf 0d 80 10 be 5a 76 cb bf
       0.16352911 -0.8455893 -0.14111347 -1.5895493
000200 d6 56 f7 3f cd 98 7b bf 5b ec 03 3e 88 59 ec 3e
       1.9323375 -0.9828003 0.12883131 0.46162057
000210 ed bc fb 3d 58 32 2f bf 23 1f 1a 3e 45 7d fb 3e
       0.12291894 -0.68436193 0.1505094 0.4911901
000220 d8 3b fe 3f 68 58 41 bf 77 e9 2d bd bd 2e 61 3f
       1.9862013 -0.7552552 -0.042458978 0.8796194
000230 d1 b3 c4 bd de e7 4b bf 3d 09 82 bc 53 f2 71 3f
       -0.0960461 -0.79650676 -0.015873546 0.9451038
000240 3e b7 f3 3f 61 ce 12 bf be b5 a4 be c0 e4 82 3f
       1.9040296 -0.5734616 -0.32169908 1.0226059
000250 1d 7e 2b be 13 bb 5b bf e6 e3 aa be 84 fb 84 3f
       -0.16747327 -0.8583233 -0.33376998 1.0389256
000260 c0 68 4e bf 97 c2 3f 3f 68 18 88 bf 69 7e 68 3e
       -0.80628586 0.74906296 -1.0632448 0.22704472
000270 db 0c 96 3f 12 86 76 3e b1 74 97 bd 1b b7 9f 3e
       1.1722673 0.24074581 -0.07395304 0.31194386
000280 0f 2f a8 3d fb 2a 92 bf cd 7d 45 bd b2 5d 9f 3e
       0.08212101 -1.1419367 -0.048215676 0.3112617
000290 d2 de a5 3f a0 ae 7e 3e d3 1a 2f be aa 11 39 3e
       1.2958624 0.24871302 -0.17100076 0.18073145
0002a0 e8 d5 4d bc 60 c1 95 bf 59 7b 75 be ec ee 49 3e
       -0.012563206 -1.1699638 -0.23972835 0.19720048
0002b0 b5 01 af 3f c9 00 96 3e 6c 03 b3 3d 78 d9 05 bf
       1.3672396 0.29297474 0.08740887 -0.52284956
0002c0 e1 9d a5 bd f6 e0 96 bf 21 79 e2 3d c1 5d 06 bf
       -0.08086754 -1.1787403 0.1105826 -0.5248681
0002d0 37 86 9f 3f 37 61 f7 3e 27 1c c1 bd 56 7e 48 3e
       1.2462834 0.48316357 -0.09429198 0.19579443
0002e0 71 0e 27 be 72 3b 96 bf 64 c6 af bd e3 73 f4 3d
       -0.16314103 -1.1736891 -0.08582762 0.11936166
0002f0 57 74 a5 3f 74 8c 06 3f fc a0 7a bd 03 51 3b be
       1.2926129 0.52558064 -0.061188683 -0.18292622
000300 5e ea 5c bd 74 4f 95 bf 5b 7b 85 bd f0 37 2a be
       -0.053934447 -1.1664872 -0.06517669 -0.16622901
000310 33 79 af 3f ae 28 f5 3e 4d 03 48 be 22 31 18 bf
       1.3708862 0.478826 -0.19532509 -0.5944997
000320 18 2d 08 3d 55 43 99 bf 4c e2 43 be 0f 19 0a bf
       0.03324613 -1.1973673 -0.19129294 -0.53944486
000330 a2 37 81 3e 74 4c 52 3e f8 0f d9 3e 94 01 41 be
       0.25237757 0.20536977 0.42394996 -0.18848258
000340 f9 84 99 3f c5 37 d2 3d 60 f3 66 bd 16 55 96 bf
       1.1993705 0.102645434 -0.056384444 -1.1744716
000350 3c 21 04 be d7 6d 24 bf a6 23 2a bd 24 c3 92 bf
       -0.12903303 -0.642301 -0.041537903 -1.1465802
000360 7d 8d 92 3f ec 2e 24 3d a7 db 1d bf d0 c1 02 bf
       1.1449429 0.04008381 -0.6166329 -0.51076984
000370 d1 11 59 be 38 a9 43 bf 06 d1 1b bf 5c 7e f2 be
       -0.21198203 -0.7643008 -0.6086582 -0.4736203
000380 a2 2b a2 3f d9 20 ef bd 22 3b 43 bd 64 20 20 bf
       1.2669566 -0.11676187 -0.047663815 -0.62549424
000390 29 22 86 be 26 42 61 bf 8d c1 d0 3c a9 f2 2d bf
       -0.26197937 -0.8799156 0.025482917 -0.67948395
0003a0 c8 c3 3e 3f c5 54 9b 3d ac e4 4f be 5e 1b bd 3d
       0.7451749 0.07584528 -0.20302075 0.092337355
0003b0 3e c2 e4 3d 94 bf 16 bf 72 00 8f be 6e a6 5e 3d
       0.11169861 -0.58886075 -0.27930027 0.05435794
0003c0 7b e3 51 3f df ec 98 3d 17 c5 99 be 18 db 00 be
       0.8198773 0.074670546 -0.3003318 -0.12583578
0003d0 c5 d9 3c 3e ca 6c 42 bf 8b 48 a2 be 41 26 f0 bd
       0.18442447 -0.7594725 -0.3169597 -0.11726046
0003e0 9d 0d 5e 3f d6 8b e0 3d 3b c3 24 bf d0 c7 4c 3c
       0.8673952 0.109641716 -0.643604 0.012498811
0003f0 6a 3d 95 3e 3f f3 6b bf 63 33 28 bf bc 6a 1e bb
       0.29148418 -0.9216804 -0.6570341 -0.0024172505

fcl1.bias f4 [400]
000000 32 4c 01 bf 38 45 0e be 53 99 4e bf 4e 86 30 bf
       -0.5050689 -0.13893592 -0.80702704 -0.6895493
000010 50 2b b2 be 4d 84 a2 be ce 42 a8 bf 41 d3 9c bf
       -0.3479867 -0.31741562 -1.3145387 -1.225197
000020 97 6c 03 c0 b7 d5 14 be 66 f3 48 be 23 26 9a 3d
       -2.0535028 -0.1453465 -0.19624099 0.07526805
000030 24 33 d6 bc b6 2a 68 be b5 b9 c3 be 42 5f 6a bf
       -0.026147433 -0.22672543 -0.3822762 -0.915516
000040 8e 66 c3 be 8f f5 99 3f b4 ef 01 bf af a0 20 be
       -0.3816418 1.2028064 -0.5075638 -0.15686296
000050 14 19 01 c1 cc a6 ef be 2b dd a9 be 93 82 bf be
       -8.068623 -0.46806943 -0.3317655 -0.37404308
000060 67 0c b2 3e 9e a9 0f c0 52 6a 0f c0 61 3d 9e be
       0.34775087 -2.2447276 -2.2408643 -0.30906203
000070 e8 a6 dc be 81 e2 a7 be 13 c3 eb be 23 55 ed be
       -0.4309609 -0.32789996 -0.46047267 -0.46354017
000080 6f 3a f3 3f 58 37 24 be 1e f6 bf bf 2c 31 bf bf
       1.9002208 -0.16036737 -1.4996984 -1.4936881
000090 05 1d fa bd 3d 6a 1c bf 65 c1 5f be 18 d3 74 be
       -0.12212566 -0.61099607 -0.21851118 -0.23908651
0000a0 93 53 92 be f0 44 4e 3f 05 df 14 bf 26 63 ad bf
       -0.28579387 0.8057394 -0.581528 -1.3545883
0000b0 49 e5 a1 bd cf ef 9b be b3 4b 4a be 5d 0a 6f be
       -0.07905061 -0.30456397 -0.1975544 -0.23343797
0000c0 a8 80 69 be 08 1d 4a be c0 1c 38 be cc 2e 2a be
       -0.22802985 -0.19737637 -0.17979717 -0.16619414
0000d0 41 b8 01 c0 ff 7c 46 3c 2b eb ae be 42 c4 36 be
       -2.026871 0.012114762 -0.34163794 -0.17848304
0000e0 18 51 65 be ac b4 aa be 38 b1 a2 be 60 78 40 bf
       -0.22394216 -0.33340967 -0.31775832 -0.7518368
0000f0 ca 21 ff be 24 2e 87 be 51 b5 f6 bd 1c 43 82 be
       -0.49830467 -0.2640239 -0.12046302 -0.25441825
000100 f5 ea d6 be 63 61 df bd 99 14 74 bf c1 0d 97 be
       -0.41976133 -0.10907247 -0.9534393 -0.2950268
000110 f6 7c 38 c0 c4 8b 46 bf 9a a4 d9 be 61 62 af bf
       -2.882627 -0.77557015 -0.42508394 -1.3701898
000120 82 fd 26 bf 6b 90 27 c0 7d ea b2 be 9d 5b 0f be
       -0.6523057 -2.6181896 -0.34944525 -0.13999791
000130 93 9d 84 be b2 d7 cb bf 37 e1 af be d3 97 ee be
       -0.2590147 -1.59252 -0.34351513 -0.46600208
000140 f2 b0 d8 be 85 59 bb c0 19 37 4e c0 35 32 47 c0
       -0.423225 -5.8546777 -3.222113 -3.1124394
000150 f4 19 0e 3f 12 92 91 bf 83 a4 61 bf 8d 2a f3 bd
       0.5550835 -1.1372702 -0.8814165 -0.1187335
000160 ea c5 26 bf dd ac 77 be 41 9f b8 bf 83 48 10 bf
       -0.6514574 -0.24187036 -1.44236 -0.56360644
000170 85 15 46 be f1 0c ca 3c 99 ce 82 be a4 94 21 be
       -0.19344147 0.024664374 -0.25548247 -0.15779358
000180 66 7a c5 be f6 92 0b bf f7 3d 94 be da 3f f4 bd
       -0.38569945 -0.5452112 -0.28953525 -0.11926241
000190 48 51 e4 be bb 30 c4 be d5 02 53 c0 26 3d af be
       -0.44593263 -0.38318428 -3.2970479 -0.3422634
0001a0 d1 bc f2 be a8 22 10 bf a7 4d a7 be 9a 97 a5 bd
       -0.4740968 -0.5630288 -0.32676432 -0.08085556
0001b0 f9 76 3e bf 66 05 6c bc 6d f2 08 bf d3 7d 6d be
       -0.7440029 -0.014405584 -0.5349491 -0.2319253
0001c0 f5 65 a6 3e 11 51 a9 bf 77 ff 6c 3f 8b 80 02 bf
       0.32499662 -1.3227865 0.9257731 -0.5097739
0001d0 5a f4 c3 be 0e 6b a0 be a4 e0 3c be f2 c9 04 be
       -0.38272363 -0.31331676 -0.18445069 -0.12967661
0001e0 54 63 98 be 91 26 e0 be 09 67 4d bf a2 39 fd 3e
       -0.2976328 -0.43779424 -0.80235344 0.49458033
0001f0 58 f5 47 c0 fe fe 86 be ee a2 8a 3f 35 d2 53 c0
       -3.1243496 -0.2636642 1.0830972 -3.309705
000200 19 c6 c8 be 60 89 d5 c0 46 a7 d0 be 3a 1f a0 bd
       -0.39213637 -6.6730194 -0.4075262 -0.07818456
000210 f6 21 87 bf a0 45 e9 bd 12 80 8c be 29 f3 27 bf
       -1.0557239 -0.11390233 -0.2744146 -0.6560541
000220 f5 79 3b bf bd 51 3a bf 14 3e c8 be 29 e8 90 3e
       -0.73232967 -0.7278097 -0.39109862 0.28302124
000230 ee 0b ec be 3c 8b d1 be ab 63 ac bf 98 87 65 be
       -0.46102852 -0.4092654 -1.3467916 -0.22415006
000240 69 55 0a bf 59 bd d6 bf 60 c1 ff be 35 ff 8f bf
       -0.54036576 -1.6776534 -0.4995222 -1.1249758
000250 23 19 0d bf 21 ec 48 c0 da 26 d7 be d0 75 14 bf
       -0.5511648 -3.1394122 -0.4202183 -0.5799227
000260 5e 9c 9b 3c b0 5a b1 bf c4 66 80 c0 1a 52 97 be
       0.01899546 -1.3855801 -4.0125446 -0.29554826
000270 63 07 83 bf 8f 5c d0 bf 54 78 03 bf 40 72 dc be
       -1.0236629 -1.6278247 -0.5135548 -0.43055916
000280 17 c6 fc be 38 7a e3 bf 78 23 2b bf a5 2a 1d bf
       -0.4936988 -1.7771673 -0.66850996 -0.61393195
000290 04 09 1f bf f6 b8 05 bf 54 68 3b bf 3b 73 47 be
       -0.6212313 -0.52235353 -0.7320607 -0.1947755
0002a0 1c 7c 84 be 59 99 48 c0 37 06 46 bf 22 76 bd be
       -0.25875938 -3.1343596 -0.77353233 -0.3700419
0002b0 75 cf 13 bf ea fe cd 40 85 2e d0 be 1d 51 c2 3e
       -0.5773843 6.4373674 -0.40660492 0.3795251
0002c0 15 8a 96 be 3a 9f d3 bd 97 77 00 bf 91 de 81 be
       -0.29402223 -0.103331044 -0.5018248 -0.25365117
0002d0 4b 72 d9 be f5 5d 3e bf 14 27 50 be e9 60 f7 bf
       -0.4247001 -0.7436212 -0.20327407 -1.932645
0002e0 47 fe c2 3c a3 46 94 be e1 7f 92 be 26 0d 88 be
       0.02380289 -0.28960142 -0.2861319 -0.2657253
0002f0 26 dc c0 bf 59 ed b6 be 84 e0 7b c0 ac 9c 5e be
       -1.5067184 -0.35727957 -3.9355783 -0.21739453
000300 a3 c1 ed be 4b 30 70 bf 90 41 c2 be 08 ef 17 be
       -0.46436796 -0.9382369 -0.37940645 -0.14837277
000310 a2 02 91 be 5e 07 85 c0 51 85 30 bf ef c6 2b bf
       -0.2832232 -4.1571493 -0.68953425 -0.67100424
000320 d4 53 9b be 61 29 b7 be 4f b4 5d c0 79 95 ed be
       -0.30337393 -0.35773757 -3.4641302 -0.464031
000330 f2 0c 82 be e1 fb 3a bf ce dd a7 be 35 6c 07 c0
       -0.254005 -0.73040587 -0.3278641 -2.1159794
000340 4a 17 76 be 50 c0 ef bf b8 1b 65 be 9a 2f 00 bf
       -0.24032322 -1.8730564 -0.22373855 -0.50072634
000350 19 60 7f c0 4f 7e 1f bf 4e 18 00 bf 6e 2b 28 bf
       -3.9902403 -0.62302107 -0.50037086 -0.6569127
000360 9c 1a 8d bf b5 a1 00 3f 6e 84 53 be 72 ea d3 3e
       -1.1023746 0.50246745 -0.20655987 0.41389805
000370 f6 bc 61 be f9 54 56 3f 70 dc 0e bf c1 7a ac 3e
       -0.22044739 0.8372341 -0.5580511 0.33687404
000380 68 5f 14 bf 1e 53 50 bf d5 e3 07 bf be c9 09 bf
       -0.5795808 -0.81376827 -0.5308202 -0.5382346
000390 0f 3d 43 bf c5 0c 0b bf fd 9d 14 bf 42 ba b2 bf
       -0.76265043 -0.5431636 -0.5805357 -1.3963091
0003a0 08 b5 7b 3d a4 6c 08 bf 79 40 a0 c0 5f fb 0a be
       0.06145194 -0.5329077 -5.00787 -0.13572453
0003b0 50 6b ba be 56 92 e7 be 54 6e b2 bf aa 13 0c c0
       -0.36409998 -0.45228833 -1.393992 -2.1887002
0003c0 a0 20 13 bf bc 1a d7 bf 36 f1 ce bd 1e bc 26 be
       -0.57471657 -1.6805034 -0.10104601 -0.16282699
0003d0 c8 9f b2 be eb a7 97 be c1 d4 ff be cc 0c 01 bf
       -0.34887528 -0.296203 -0.49967006 -0.5041015
0003e0 96 b4 9c be 25 a4 52 be f2 ae 09 bf 2f ed 30 be
       -0.30606526 -0.20570429 -0.5378257 -0.17277978
0003f0 81 9b 87 be a5 ac ab bf 14 7d a2 be f0 d6 c3 be
       -0.26485828 -1.3412062 -0.31736052 -0.38249922

fcl2.weight f4 [300, 400]
000000 a9 18 67 bc 1d a1 90 3b 88 62 fb bc 39 53 16 3d
       -0.0141050005 0.0044137374 -0.030686632 0.03670046
000010 98 5a 30 ba 66 53 cc bc 0c a2 d0 bc 5d 0c e3 3d
       -0.00067273667 -0.024942111 -0.025467895 0.110863425
000020 f2 29 e3 bd 0a 18 69 3b 8b b8 bd bd f4 c9 ad bb
       -0.11091985 0.0035567307 -0.092637144 -0.0053036157
000030 80 52 8e be a7 30 8b ba c3 84 4a bd ef 26 36 bd
       -0.27797318 -0.0010619358 -0.049443018 -0.044470724
000040 2b bd 99 bc 3d 6d cc bc 81 6b 0d 3d 43 62 d8 3a
       -0.01876696 -0.024954433 0.03452635 0.0016508776
000050 e9 c3 e6 bd e7 86 ff bd c1 8f 62 3c 28 9f 05 3d
       -0.11267836 -0.124769025 0.013828219 0.032622486
000060 a9 df 95 bd d5 46 b6 bd 84 e0 56 3e 7e e7 cb bc
       -0.073180504 -0.08900229 0.20984083 -0.024890658
000070 af 5f 9a 3a 3b 92 60 bc 52 7e af bc 26 a7 4f bc
       0.0011777784 -0.013706739 -0.021422539 -0.012674129
000080 0e cf 36 be 5f 31 41 3e 00 f7 7b be 61 11 9a bd
       -0.17852423 0.1886649 -0.24605942 -0.07522846
000090 ee 77 ab bd c0 df b3 3e 1a 79 0c 3d f3 d0 8d bd
       -0.08372484 0.35131645 0.03429518 -0.069246195
0000a0 94 a8 19 3c f5 12 95 bd dc 38 f0 3b e8 57 fd bc
       0.009378571 -0.072790064 0.007330997 -0.030925706
0000b0 09 78 df 3c 19 87 24 3c 35 db 2d 3c 4d 85 fd 3c
       0.027278917 0.010041975 0.010611345 0.030947352
0000c0 55 7e 6c bd db 0a 8c 3d 7e 04 12 bd 9e 2f 0a 3c
       -0.057737667 0.06838008 -0.035648815 0.008434204
0000d0 3f 74 29 3d b2 ae c8 bd d6 bf ee 3c a9 b2 7f 3d
       0.041370627 -0.097989455 0.029144209 0.062426243
0000e0 26 76 e3 3c ca 5a 13 3d e6 89 ef bc 56 95 2d 3d
       0.027766299 0.035975255 -0.02924056 0.042378746
0000f0 93 68 74 bc 17 23 fe bd d0 1a c4 3c a9 76 51 3c
       -0.014917511 -0.124090366 0.023938566 0.012784638
000100 d9 de dc 3c ff 0b 84 bd 91 e0 9f 3d ef 6c 9f be
       0.02696173 -0.064476006 0.078065045 -0.31137797
000110 6c b5 42 3e fe 8a 33 bd 3d 5d e0 bd 6f 40 0a 3e
       0.1901452 -0.043833725 -0.10955284 0.13501142
000120 57 e4 cd bc 40 e9 9f 3d a8 30 4c bd 94 e9 97 3a
       -0.025133295 0.07808161 -0.04985109 0.0011589997
000130 0c 2b 87 3a 0c 86 f9 3c 69 0e 50 b9 79 4d c1 bb
       0.0010312512 0.030459426 -0.00019841794 -0.005899128
000140 5a 27 92 bc 1e 28 58 bc c1 23 b8 3d ac fd 7c 3d
       -0.01784103 -0.013193158 0.089911945 0.061765358
000150 9d b7 ad 3c 58 93 17 bc f9 31 e0 3d 0e a1 c5 bc
       0.021205718 -0.009251438 0.109470315 -0.024124648
000160 7f 52 d1 3b 67 9a 49 bd 2e 80 d0 bc db 77 4a b9
       0.006388008 -0.049219515 -0.025451746 -0.00019308871
000170 b9 f6 8a 3c 72 90 a1 bb 36 99 ed 3d 6f 0b fd bb
       0.01696335 -0.0049305493 0.11601488 -0.0077223103
000180 74 d8 81 bc ce 67 31 bd f8 c1 15 bd 6b 2b 7f bd
       -0.015850283 -0.043311886 -0.036561936 -0.062297266
000190 76 6f 63 bd 5e 74 9f 3a 51 de 5e be 32 a2 48 3d
       -0.05552622 0.0012165417 -0.21764494 0.048982807
0001a0 99 5b 2d 3d 29 7d 50 bd aa 06 51 3d 98 15 94 3d
       0.042323682 -0.050900612 0.051031746 0.07230681
0001b0 f2 af 1e bd d3 e3 11 3e 37 8b 15 bb d9 30 95 bc
       -0.038742013 0.14247064 -0.0022818574 -0.018211769
0001c0 0b f7 34 be fd 3c ee 3c eb 52 00 3d 8d 5c 5a bd
       -0.17672364 0.029081816 0.031329077 -0.05331092
0001d0 cd 44 e9 bc 4a a2 37 bc ab 7f 36 3c ef be ef 3c
       -0.02847519 -0.011208126 0.011138837 0.029265849
0001e0 de 0b 2c bd fa f9 12 bd 7f 8a 30 bd 8a f9 43 3d
       -0.042003505 -0.035882927 -0.04310083 0.0478454
0001f0 3b be a5 bd 3a f3 a5 3c 72 86 b2 3d 3c 4c 05 3d
       -0.08092924 0.020257581 0.0871705 0.032543406
000200 d2 5d 5b bd db 8d d6 bd 16 52 08 3c 1b a7 f0 bd
       -0.05355627 -0.104762755 0.008320352 -0.11750623
000210 bf d3 10 3d 40 06 da 3c ed 88 ec bc 65 ae 74 3c
       0.035358187 0.026614308 -0.028873885 0.014934157
000220 16 ed a4 bc 07 a2 fe bc 80 d7 2a bd f3 ba 92 3b
       -0.020132583 -0.03108312 -0.041709423 0.0044778525
000230 cd 02 04 bd 2e 20 df ba 7a 2a 07 be 7f be 87 39
       -0.032229234 -0.001702314 -0.13199797 0.00025891137
000240 ac b2 90 bb c5 29 12 bc fc 03 99 bd 90 53 25 be
       -0.0044158306 -0.008921091 -0.07471463 -0.16145158
000250 1d ba 1e 3e 5c 5a 10 bd 5c a0 51 bd e3 8d af 3c
       0.15500684 -0.035242423 -0.05117832 0.021429962
000260 25 fd ff 3b 12 04 e1 3d 55 03 3f be 68 7b a5 bd
       0.0078121596 0.109871045 -0.18653615 -0.080801785
000270 dc cd 54 be cf df c0 bc 4e be 08 ba 5b 56 b0 3d
       -0.20781654 -0.02354422 -0.0005216346 0.08610221
000280 43 ba 3b 3d 9d ec 89 bd d4 27 b1 3c 13 9a 7c bd
       0.04583193 -0.067345835 0.021625437 -0.061670374
000290 a7 77 d5 bd c3 a5 f3 3d 9b 26 3c bd 3f 0c 31 3c
       -0.104232125 0.11896851 -0.045935255 0.010806142
0002a0 f9 db ce ba 8f 94 22 3d 8d ca 80 bb f7 31 8d 3d
       -0.001578211 0.039692458 -0.003930396 0.06894296
0002b0 60 e6 0e 3d cb f3 d1 3d 53 05 ca bd a1 d0 0f 3d
       0.03488767 0.10251578 -0.09864297 0.035111073
0002c0 46 51 fc ba 59 68 a8 bd d2 4e a2 bc 1e 88 10 3d
       -0.0019250296 -0.08223028 -0.019812975 0.03528606
0002d0 79 3d 06 3c e7 e2 48 bd 54 59 94 bc 86 87 35 be
       0.008193367 -0.049044516 -0.018109001 -0.1772748
0002e0 31 d6 83 3d c9 98 61 bd 18 81 4d bd 23 8f 0f bd
       0.06437338 -0.055077348 -0.05017194 -0.035048615
0002f0 d7 e7 f3 bc a4 cd a7 bd dc 5a 89 be dc 21 18 bc
       -0.029773636 -0.0819352 -0.26827133 -0.009285416
000300 0f 3f 92 3b 7d 4a fc bb 98 a4 dd bc f4 f1 b5 bd
       0.0044630836 -0.0076993094 -0.027056023 -0.088840395
000310 35 af b5 bc 7c cb 41 3d ec e4 3a 3d 9d 80 1b bc
       -0.022178272 0.0473132 0.045628473 -0.009491113
000320 8d 6b 60 bd 31 e3 b7 3c 65 9f 19 bc 96 47 15 bd
       -0.05479007 0.0224472 -0.0093763815 -0.036445223
000330 b5 19 26 3d 5a 61 19 3c de 32 7e bd 32 02 59 bc
       0.04055186 0.009361589 -0.06206023 -0.013245152
000340 ec ef 2f bd 28 72 22 3d e3 68 14 3c c1 3b 88 bc
       -0.042953417 0.03965965 0.00905821 -0.016630055
000350 d8 7e 41 3d db b5 3c 3d 89 78 9d bd 96 0e 82 3c
       0.04724011 0.04607187 -0.07689006 0.015876096
000360 48 0b 86 bc 46 b7 36 3d 1e 2a 5f 3c d3 33 8e 3d
       -0.016362801 0.044608377 0.013620881 0.069434784
000370 f6 e2 1a 3d 79 d4 3f be d0 44 6c bc 1b 6b ce bd
       0.037814103 -0.18733396 -0.014420703 -0.100790225
000380 28 91 81 bc 19 21 9d bc c2 50 0a 3d 05 ed 20 3d
       -0.015816286 -0.019180821 0.033768423 0.03928854
000390 c5 e5 e8 bd ac b8 3c 3d a3 d6 a9 3c 0f 63 35 bc
       -0.1137195 0.046074554 0.02073223 -0.011070981
0003a0 b7 99 f4 3d cd cd 37 bd 29 b9 87 3d 1f 9f c7 3c
       0.11943381 -0.044874 0.06627113 0.024367867
0003b0 aa 68 12 bc ea 18 df 3c 1e 4f 12 be 67 1d 71 3d
       -0.008936087 0.02723356 -0.14287993 0.05886593
0003c0 75 14 48 b9 b9 d4 d7 bd 41 7d 42 3c b6 86 80 3d
       -0.00019081107 -0.105386205 0.011870683 0.06275694
0003d0 86 7d 42 3d fe 68 6c bd 8f c4 0f 3d f6 ef 6a bd
       0.04748299 -0.057717316 0.035099562 -0.05735775
0003e0 bc 15 c8 3c d9 39 33 bc 5b ea 0e 3d 24 0d b7 bb
       0.024424426 -0.010939085 0.034891468 -0.0055862833
0003f0 6d d1 9c 3c 45 30 61 be 1f e4 2c 3d b0 b6 0d 3d
       0.01914283 -0.2199107 0.04220974 0.034598053

fcl2.bias f4 [300]
000000 a2 ca c2 be 56 28 27 bf e7 82 53 bf 95 db bb be
       -0.38045222 -0.6529592 -0.82621616 -0.36690965
000010 09 bf a7 be 51 6a fc be 61 cd bb be 91 46 36 bf
       -0.32762936 -0.49299863 -0.3668013 -0.71201426
000020 ca 26 fa be 91 a9 03 bf f8 ac 09 bf fa 7c 01 bf
       -0.4885772 -0.5143061 -0.53779554 -0.50581324
000030 4a 5d 0e bf 56 44 1b bf 66 69 64 bf 0c 2d 00 bf
       -0.556111 -0.6065115 -0.89223325 -0.50068736
000040 68 f9 0a bf 93 87 4a bf 29 68 06 bf 6b 75 7b bf
       -0.54286814 -0.7911312 -0.52502686 -0.9822604
000050 ed 9d 04 bf b3 70 19 bf e5 bc d0 be 6a 07 c0 be
       -0.51803476 -0.5993759 -0.40769115 -0.37505656
000060 88 b1 73 bf 09 ed d8 be ba a2 00 bf c5 61 e6 be
       -0.95192766 -0.42368343 -0.502483 -0.44996467
000070 cd 30 fb be af c1 00 bf 67 cf e0 be 4a 4f 02 bf
       -0.4906067 -0.5029554 -0.43908235 -0.50902236
000080 4b d0 69 bf 81 ec 02 bf 20 6c 18 bf a2 c5 ec be
       -0.91333455 -0.51142126 -0.59539986 -0.46244532
000090 b5 d7 8e bf f3 78 e6 be fa 86 67 bf 28 f3 b3 be
       -1.1159579 -0.45014152 -0.9044033 -0.3514645
0000a0 09 31 b8 be ee a5 2e bf da 23 58 bf bc 74 19 bf
       -0.3597491 -0.6822194 -0.84429705 -0.5994375
0000b0 7e ee cc be c4 6c 0b bf d5 fe df be 79 e6 f1 be
       -0.40025705 -0.5446284 -0.4374911 -0.4724615
0000c0 9a 4e 0b bf ec d8 26 bf dc 25 aa 3d c0 c7 32 be
       -0.5441681 -0.65174747 0.08308002 -0.17459011
0000d0 db 64 34 bf 13 5d 54 bf fd da 06 bf 6f a5 63 bf
       -0.70466393 -0.8295452 -0.526779 -0.88924307
0000e0 e1 ef 7d be 5a 00 1d bf ea ce c8 be 67 37 d1 be
       -0.24798538 -0.6132866 -0.39220363 -0.4086258
0000f0 48 d6 22 bf 11 5c cf be 71 80 53 bf 45 ca 0c bf
       -0.6360822 -0.4049993 -0.8261786 -0.5499614
000100 cd 5a 41 bf 0c 7e d4 be 02 d8 e1 be 79 f5 4c bf
       -0.75529176 -0.41502416 -0.44110113 -0.8006206
000110 f0 6b 76 be e4 29 35 bf 59 38 0e bf a1 12 5c bf
       -0.24064612 -0.70767045 -0.5555473 -0.85965925
000120 da 45 b7 be 16 f1 e1 be 31 52 c9 be 83 71 4f bf
       -0.3579548 -0.44129246 -0.3932052 -0.8103258
000130 73 02 62 bf 16 3f 27 bf 5b 6c c5 be 13 88 a9 be
       -0.8828499 -0.65330637 -0.3855923 -0.3311163
000140 ca fd 53 bf 72 a3 e3 be 32 d4 d3 be 85 63 57 3e
       -0.82809126 -0.44460636 -0.4137283 0.21034057
000150 a4 cf d4 be e6 60 50 bf ad 0a f1 be a8 d6 35 bf
       -0.41564667 -0.81397855 -0.47078457 -0.71030664
000160 85 36 9f be 53 68 08 bf fe da 17 bf 34 a7 2a bf
       -0.31096283 -0.53284186 -0.5931853 -0.6666138
000170 d0 63 09 bf 5e c2 cb be 6f 86 0b bf ed bd 77 bf
       -0.53667927 -0.39796728 -0.54502004 -0.9677418
000180 bf 93 2d bf 0f cb 02 bf 66 1e 05 bf 39 95 10 bf
       -0.6780357 -0.5109109 -0.5199951 -0.56477696
000190 1c c4 18 bf ca 36 bc be 34 e1 76 bf bd 15 34 bf
       -0.5967424 -0.3676055 -0.9643738 -0.7034567
0001a0 9d 8a 60 bf 9b 2b 0a bf 6e 99 bf be da 73 80 bf
       -0.8771151 -0.53972787 -0.37421745 -1.0035355
0001b0 ae ee 49 bf 14 89 52 bf 61 fd 06 bf 61 1d 41 bf
       -0.7887982 -0.82240415 -0.52730376 -0.75435454
0001c0 75 1d a3 be 93 cf d2 be 4a 74 15 bf f9 6b 37 bf
       -0.3185841 -0.41173992 -0.5838057 -0.7164913
0001d0 ff 8c 02 bf 2b d2 4d be 0e 67 61 bf 68 3b a5 be
       -0.5099639 -0.20099704 -0.88047874 -0.32271886
0001e0 a0 96 e4 be 92 2f 30 bf 95 ea 05 bf b5 3f 1d bf
       -0.44646168 -0.68822587 -0.5231107 -0.61425334
0001f0 89 08 0f bf 79 39 a0 be 36 17 06 bf 9d 8f c7 be
       -0.558724 -0.31293848 -0.5237917 -0.38976756
000200 41 36 27 bf 62 27 0a bf 32 fa fc be c0 e7 97 be
       -0.6531716 -0.53966343 -0.49409634 -0.29669
000210 83 30 e7 be e6 3f 17 bf 54 22 bc be 11 5b f7 be
       -0.451542 -0.59081876 -0.3674494 -0.48311666
000220 ef 36 29 bf a5 b6 dd be 79 58 06 bf be e5 c1 be
       -0.66099447 -0.4330341 -0.5247875 -0.37870592
000230 03 ce 85 bf c0 2a 3a bf 4b 2d 7e be 2a ab 09 bf
       -1.0453495 -0.7272148 -0.24821965 -0.537768
000240 ed 93 20 bf 80 75 ee be 5a 41 1c bf 66 5c ea be
       -0.62725717 -0.4657402 -0.6103722 -0.4577362
000250 2b b0 b6 be 51 10 db be 1b 59 e3 be 8e e6 00 bf
       -0.3568128 -0.42785886 -0.4440392 -0.503518
000260 8e 75 8d be 41 1c 82 bf 8c ca 13 bf 35 41 37 bf
       -0.2762875 -1.0164872 -0.57730937 -0.71583873
000270 87 27 74 bf f1 10 1c bf 7f 23 b2 be 88 c7 34 bf
       -0.95372814 -0.6096335 -0.34792706 -0.7061696
000280 fd 99 d9 be e1 29 fe be 64 8c cb be cb c8 c3 be
       -0.42500296 -0.49641326 -0.39755547 -0.3823913
000290 96 10 48 3e d0 b5 2a bf 4f ee 04 bf c9 b4 f6 be
       0.19537577 -0.66683674 -0.5192613 -0.48184803
0002a0 42 9b d7 be e1 b4 f0 be 32 44 b6 be 59 46 80 bf
       -0.4211064 -0.47013 -0.35598904 -1.0021468
0002b0 98 43 11 bf a9 39 e4 be 89 a4 f7 be 76 5e 12 bf
       -0.56743765 -0.4457524 -0.48367718 -0.57175386
0002c0 04 64 b4 be 14 3a 1f bf 0e 5e e7 be 1b f6 71 be
       -0.35232556 -0.62197995 -0.45188946 -0.23629038
0002d0 03 8b ff be 7b dd 96 be 04 70 12 bf e3 d5 2d bf
       -0.49910745 -0.2946585 -0.5720217 -0.6790449
0002e0 e2 af ea be 3a 87 25 bf 6f 31 11 bf f4 22 e2 be
       -0.45837313 -0.64659464 -0.56716055 -0.44167292
0002f0 a9 7d 36 bf e3 d4 ac be 2a 17 c7 3e 80 81 69 bf
       -0.7128549 -0.3375617 0.3888486 -0.91213226
000300 b5 3e 3e bf 4c 9b 23 bf be f9 56 bf 0d 76 30 bf
       -0.74314433 -0.6390884 -0.83974826 -0.6893013
000310 a9 fd 9d be 9c b2 1c bf 7e 7b 0e bf 55 a1 bc be
       -0.3085759 -0.61210036 -0.55657184 -0.36841837
000320 bf 75 4b bf 0d a3 09 bf b8 9e e0 be a2 fc fd be
       -0.7947654 -0.5376442 -0.43871093 -0.49606806
000330 ae ab 12 bf ef a3 0b bf 6d 84 74 bf 12 9e 29 bf
       -0.5729321 -0.5454702 -0.95514566 -0.6625682
000340 87 73 56 bf d4 71 23 bf 14 8d bd be 13 bf 87 be
       -0.8377003 -0.6384556 -0.37021697 -0.26512966
000350 db eb 8b be 07 6c 13 bf 5d ae bc be b4 9f 4c bf
       -0.2732838 -0.5758671 -0.3685178 -0.7993119
000360 74 ad 01 bf a6 3e 6d bf 5e 00 a3 be 7d 0b 1f be
       -0.50655293 -0.9267372 -0.31836218 -0.15531726
000370 bf c4 0f bf 06 a0 90 be 9c 87 a3 be e3 0a f9 be
       -0.56159586 -0.28247088 -0.319394 -0.48641118
000380 12 85 e0 be c4 7b 0c bf a2 78 09 bf fd b0 c2 be
       -0.43851525 -0.5487635 -0.53699696 -0.38025656
000390 51 cc 95 bf 55 48 31 bf f4 3b 3d bf a7 3a c6 be
       -1.1702977 -0.69250995 -0.73919606 -0.38716623
0003a0 df a4 e0 be 46 07 07 bf 30 45 d8 be 4a 0e 17 bf
       -0.43875787 -0.52745473 -0.42240286 -0.5900618
0003b0 e6 d0 cb be 32 ab 34 bf e0 5b b6 be 90 e1 64 bf
       -0.39807814 -0.70573723 -0.3561697 -0.8940668
0003c0 df 21 33 bf a8 9e 21 bf 39 d7 7f bf de 49 33 bf
       -0.6997356 -0.63132715 -0.9993778 -0.7003459
0003d0 15 c1 1d bf 68 cb 66 be e7 33 3b bf 4a 15 75 bf
       -0.61622745 -0.22538531 -0.7312607 -0.9573561
0003e0 8a 16 0e bf 33 65 82 bf cb d3 a2 be 7d fc 02 bf
       -0.5550314 -1.0187134 -0.3180221 -0.51166517
0003f0 da b2 18 bf 0f ae f3 be 5c a7 4c bf 90 65 13 bf
       -0.59647906 -0.47593734 -0.7994287 -0.5757685

fcl3.weight f4 [1, 300]
000000 d4 85 96 3d a2 05 70 bd 74 02 3f bd 04 0a 28 3b
       0.073497444 -0.058599122 -0.0466332 0.0025640735
000010 77 03 89 3d ed 41 e3 bb 08 1a dd bc 08 22 75 bc
       0.06690114 -0.006935349 -0.026989952 -0.014961727
000020 b1 c7 9f 3d 74 54 ad bd c3 72 62 39 ec df ee 3c
       0.0780176 -0.08463374 0.00021595792 0.029159509
000030 9a 72 16 3d 6c 07 3c 3d ca e7 39 3d 6b 80 35 bd
       0.036730386 0.045905516 0.045387067 -0.044311922
000040 2b 16 4d 3b 2a 01 48 3c bd b0 b5 bc eb 4b 57 bd
       0.003129373 0.012207309 -0.022179002 -0.052562635
000050 f6 fd a3 b9 11 e5 a3 bc e2 2d 14 bc f1 d3 9b 3d
       -0.00031278998 -0.020006688 -0.009044142 0.07608784
000060 c0 48 7b 3d d8 3c c6 3c ef e2 d5 bc ed 5e 97 3d
       0.061348677 0.024198934 -0.026109187 0.073911525
000070 e6 48 c5 3d e7 5b 7e bc 5c 79 91 bd 94 3b f0 3b
       0.09633045 -0.015524841 -0.071032256 0.007331321
000080 2e 98 a3 bd ca b3 e7 3c df 82 71 bd 57 3c d7 bd
       -0.0798801 0.028283972 -0.0589627 -0.10509556
000090 8b 3f 42 bc d9 1d 39 3d b1 c4 7b 3d 50 e2 8f bd
       -0.01185597 0.04519448 0.061466876 -0.070255876
0000a0 eb 97 a8 bd d6 58 8e bd f4 e9 8c bc 92 d3 71 3d
       -0.08232101 -0.06950538 -0.017201401 0.05903966
0000b0 4f 9a a3 3c 7f cd 99 3b 10 b3 d5 bc fc 78 8a bd
       0.019971041 0.0046936865 -0.02608636 -0.06761357
0000c0 dc 68 a9 3d df 04 6a 3c 53 29 f8 3c be 16 d4 bc
       0.082719535 0.014283388 0.030293142 -0.02588975
0000d0 8d e7 83 3d 3b be a7 bd 9e 0c 18 3d 54 37 6c bd
       0.06440649 -0.081905805 0.037121408 -0.057669953
0000e0 6a 28 22 bc 04 51 be bc 1e 4a 77 3c 25 af 9a bc
       -0.009897331 -0.02323199 0.0150933545 -0.018882344
0000f0 ac d2 36 3d 85 d4 65 bd 2b 45 70 3d 86 f9 09 3d
       0.044634506 -0.056110878 0.058659714 0.03368523
000100 b6 31 d8 3b 70 df 5d 3d a5 d1 cf 3b c0 8e 74 bd
       0.006597723 0.054168165 0.0063421302 -0.05970645
000110 fa 99 9b 3c c2 3b e5 bc b2 f2 eb bc fd f6 94 bd
       0.01899432 -0.027982596 -0.02880225 -0.07273672
000120 52 6c 11 3d dc 6c 64 3c 56 2d 79 3c 33 18 81 bd
       0.035503693 0.01394197 0.015208563 -0.06303444
000130 c2 04 7c 3c f3 68 38 3d 4f 91 f2 3c 08 33 6b bc
       0.015381994 0.045021962 0.029610304 -0.0143554285
000140 80 92 0b 3d 5c f3 09 bd ab 00 16 bd e8 95 02 bd
       0.03407526 -0.03367935 -0.03662173 -0.031881243
000150 0c db 5c bc d4 04 ad bd cb 63 28 bd c3 55 8e bd
       -0.013479959 -0.084481865 -0.041110795 -0.069499515
000160 26 fd 0c 3d 40 1b 93 3d 60 8b 5a bd 19 0c a9 3d
       0.03442111 0.07182932 -0.053355575 0.082542606
000170 cb bf ec 3d 02 14 ee 3c 8c ec 9b bd 0d 03 66 3d
       0.11560019 0.029062275 -0.07613477 0.056155253
000180 e8 7f bb 3d b5 2b 71 3d 0a 7d 7d 3d 9e f4 5a bd
       0.091552556 0.058879573 0.061886825 -0.05345594
000190 e7 bf e7 3b 88 b2 3c 3c a7 58 fe bc 5e 45 a9 3c
       0.007072437 0.011517175 -0.031048132 0.02066296
0001a0 a9 41 d8 3c 6d 90 b3 3d 82 76 b5 3d 4f 65 3c 3d
       0.026398497 0.087677814 0.08860494 0.045995053
0001b0 26 72 82 3d af 81 0b bd 11 14 89 bd 33 3f 6f 3d
       0.06369428 -0.034059223 -0.066932805 0.05840988
0001c0 e9 cd 64 bd 16 51 72 3c 65 ef 10 3e 4c ac 9c bb
       -0.055860434 0.01478984 0.14153822 -0.0047812816
0001d0 c9 f7 df 3d fa a3 86 3d 92 88 b8 bd e1 13 0d bd
       0.10935933 0.06574245 -0.09010424 -0.034442786
0001e0 3a 45 e8 bc c4 9d 9a bd 8b 01 cf bc 40 f3 59 bd
       -0.028353322 -0.07549623 -0.02526929 -0.053210497
0001f0 10 3e 08 bc 91 a1 74 bd 1c 93 a2 3d 7c cc 81 bd
       -0.008315578 -0.059724394 0.07938215 -0.063378304
000200 84 fe 53 bc 52 29 c4 3d b4 e4 71 3c 7f ea 62 bd
       -0.012939099 0.09578194 0.014764 -0.055399414
000210 cd 4f b5 bd 64 67 12 3d 15 86 f1 bc 6e 7f 54 3d
       -0.088531114 0.035743132 -0.02948288 0.05187934
000220 ad 17 87 bd e4 f3 28 bd 39 e4 44 3d ec a2 84 3d
       -0.06596313 -0.041248217 0.048069213 0.064763874
000230 4a 5e ac bd e1 9e 47 3d ef df 35 bd 1b 59 02 3d
       -0.08416422 0.048735503 -0.044403013 0.03182326
000240 8f d5 07 3d 3c 2b 78 3d 17 bb 9f bd bd 99 3a 3d
       0.03316265 0.060588107 -0.077993564 0.045556773
000250 35 bc 9d bd ca 28 14 bd 70 32 a7 3d 13 04 28 bd
       -0.07701913 -0.036171712 0.08163917 -0.04101951
000260 1d 6a 8e 3d 9d ae c0 3d 6f 23 97 bd f4 38 d6 bc
       0.06953833 0.09408305 -0.07379805 -0.026150204
000270 69 9f d6 bc b8 71 51 3d 93 a1 2e bd 3a 29 9f 3d
       -0.02619906 0.05113384 -0.042634558 0.07771535
000280 49 16 4f 3d 19 f7 96 bc 65 a4 95 3d e7 d0 60 bc
       0.050558362 -0.018428372 0.073067464 -0.013721681
000290 41 d8 14 3d bf 17 28 bd d7 a5 11 3d 29 a0 e3 bd
       0.03633905 -0.04103827 0.035558548 -0.111145325
0002a0 41 94 e7 bb ee d2 28 3d a2 e7 a6 bc a1 64 96 39
       -0.007067234 0.041216783 -0.020374123 0.00028685204
0002b0 a0 72 75 3d a6 3c 50 bd 7b 6c 76 bd 01 fb 23 3c
       0.059923768 -0.05083909 -0.06016205 0.010008574
0002c0 d8 2b 5b bd ee 7d bf bc 5a b2 af 3d 9a 7e fe 3b
       -0.05350861 -0.023375478 0.0857894 0.007766557
0002d0 19 ac 16 3e 4b 28 d0 3d a8 b2 65 3b 64 d2 12 bc
       0.14714088 0.10163935 0.0035049114 -0.008961294
0002e0 c3 44 74 3d bb 04 45 bd 42 2d 85 3d fd 90 40 3c
       0.05963589 -0.048100214 0.06502773 0.011753318
0002f0 d4 49 87 3d 11 2e b9 bd 9f 9c e8 3c f0 95 c0 bc
       0.066058785 -0.090419896 0.028394995 -0.023508996
000300 08 9d 5f 3d 9e f7 9e 3d ae 43 3a bd 73 15 9c 3d
       0.054593116 0.07762073 -0.0454747 0.076212786
000310 fc 27 1c 3d ca be 90 ba fc 4c 93 bd 24 1e 79 bc
       0.03812407 -0.0011043188 -0.07192418 -0.01520494
000320 c0 b7 21 bc 51 4b 54 3c fb fa 20 3b 14 fb 80 3d
       -0.00987047 0.01295741 0.0024563659 0.06297889
000330 fc 10 67 3d 7b 93 1f 3d 5f ec 7e 3d 29 18 b0 bd
       0.056412682 0.038959008 0.06223714 -0.08598358
000340 7a 35 a3 bc 83 45 4e 3d a3 ac b1 bc 2a 4a 8a bd
       -0.01992296 0.05035926 -0.021688765 -0.06752427
000350 f2 f5 8f bb de 57 00 3c 5c 85 6a bc f2 37 b2 bc
       -0.0043933326 0.007833449 -0.014314022 -0.021755192
000360 65 a5 b6 3d a1 0b 54 3d c9 57 b6 bd e5 5c 27 3d
       0.08918265 0.051768903 -0.089034624 0.040860076
000370 b3 7e 7d bd 0a 41 96 bd d4 b4 73 bc 13 9f 07 bd
       -0.061888408 -0.07336624 -0.014874656 -0.03311069
000380 43 dc f5 bd 5d 89 c4 bd fe 0f 43 bd d9 2f af bd
       -0.12004902 -0.095965125 -0.047622673 -0.08554048
000390 8c 41 d7 bc a6 2c 7c bd c4 df 8c 3d aa 52 34 bd
       -0.026276372 -0.061566018 0.068786174 -0.044024147
0003a0 5f 02 19 3d 00 e9 54 bd 5b 7f ea 3d 77 4a 53 3d
       0.037355777 -0.05198002 0.114500724 0.051584687
0003b0 32 9d 1c 3d 48 6e 60 3c 87 41 9c 3c f2 d3 33 3d
       0.03823585 0.013698168 0.019074215 0.0439033
0003c0 f6 11 de bc cf fb 41 3d 5e f5 99 3d 4a c5 1e bd
       -0.027108174 0.047359284 0.07517503 -0.03876237
0003d0 dd 61 81 3d a6 88 da bd 01 f4 3c 3b 25 32 2f 3d
       0.06317494 -0.10670595 0.002883196 0.04277243
0003e0 dd d2 20 bd 4b 72 9b 3d 7b 9f 86 bd af 64 3c bd
       -0.039263595 0.07590159 -0.06573387 -0.045994457
0003f0 7f 38 c0 bc 8f aa 76 bd 2c 77 8b bd be 12 a0 bd
       -0.02346444 -0.06022125 -0.068098396 -0.07816075

bn1.weight f4 [400]
000000 61 1a 72 3d ab 2d 2c bd 86 7f ff 3d 2c e5 21 bd
       0.059107188 -0.04203574 0.12475495 -0.039525196
000010 03 14 0b 3d ad 1e a3 bb f3 82 30 3d 70 bb e1 3f
       0.03395463 -0.004978022 0.043093633 1.7635326
000020 88 34 86 3e 94 af 9b 3c 6f 16 a4 bc ab bd ea bd
       0.26211953 0.01900462 -0.020030228 -0.114619575
000030 7a fc ea 3e 3a da 98 ba f6 e5 38 bd 17 ed e3 b9
       0.4589575 -0.0011661716 -0.045141183 -0.0004347346
000040 be f9 48 3d 38 76 8b 3e 9b 3d 88 be ce b3 13 3b
       0.049066298 0.2723863 -0.266095 0.0022537592
000050 a8 a4 ec 3e 62 96 99 3e 77 76 25 be 3a b6 b6 bc
       0.46219373 0.29997545 -0.16158472 -0.02230369
000060 cd 5f 7b 3d d0 4b 26 3e 0a 88 7d 3e 82 66 df bb
       0.06137066 0.16239858 0.24758926 -0.00681764
000070 5b aa 94 3d 66 89 8c 3e b2 b8 13 3e bd e1 00 3c
       0.07259055 0.27448577 0.14425924 0.00786632
000080 07 11 c8 3e c0 1e 35 be 6c 92 ac bd 76 82 9f 3d
       0.3907549 -0.17687511 -0.08426365 0.07788555
000090 dc 64 81 3b 3c 17 1f bf 0b de 1b bd 3c e6 92 bd
       0.003948791 -0.6214483 -0.038053554 -0.0717282
0000a0 0b 3b 6c 3c 51 6c 0d 3f d5 b2 04 3e 01 7e c0 bd
       0.014418374 0.552434 0.12958844 -0.09399033
0000b0 00 32 b8 b9 c9 6e b0 be 08 1d 8e bc 03 6e 3b 3b
       -0.00035132468 -0.34459522 -0.017347828 0.0028599508
0000c0 b2 4d 8b 3a a2 54 8f bb 21 cd 77 3c 45 53 0c 3c
       0.0010628013 -0.0043741027 0.01512459 0.008564775
0000d0 0b 1f eb bd 13 e6 3b 3d 7b 60 08 3d 93 bc 26 bd
       -0.1148053 0.045873713 0.033295136 -0.040707182
0000e0 0d a2 19 be 8f 29 0f bd 6d a6 03 bb db aa c7 bc
       -0.15003224 -0.034951743 -0.0020088211 -0.024373462
0000f0 9e 3f 43 bc aa 65 90 3e 28 39 05 3a 6e 16 3f 3e
       -0.011917023 0.28202564 0.00050820643 0.186609
000100 b9 35 27 3d 44 9a 16 be 83 64 33 3e 20 f5 ea 3d
       0.04082272 -0.14707285 0.17518811 0.11472535
000110 da 33 63 3e 16 a1 d3 3d bf 72 17 3d 93 45 17 be
       0.22187749 0.10333459 0.036974665 -0.14772634
000120 e4 24 44 3e 47 e5 03 3e 13 e1 90 bd d0 f8 83 be
       0.19154698 0.12880431 -0.070741795 -0.25775766
000130 4c 44 26 3c 1f f2 93 3d 3d 87 64 3b 40 c8 0a 3e
       0.010148119 0.07223915 0.0034870647 0.13552952
000140 65 a3 7c bd 4d c4 62 3e dc 58 4a 3e 9e 76 31 3e
       -0.061679263 0.22145195 0.1976046 0.17330405
000150 e9 50 f0 3e 12 a1 b0 3e 55 79 ae 3e d6 43 9b 3a
       0.4693673 0.34497887 0.34076944 0.0011845778
000160 24 51 e7 3a bb 7a 08 bc 93 cf bf 3b 98 25 a8 bd
       0.0017648083 -0.0083300425 0.005853602 -0.082102954
000170 4d 6e ab bb 50 9f 98 ba 4e b4 66 be 91 e9 95 bb
       -0.0052316547 -0.0011644159 -0.22529718 -0.0045749624
000180 2a 34 67 bb 8a a4 8b bb 0b 77 ef 38 4c b1 a7 3c
       -0.0035278895 -0.004261558 0.000114185816 0.020470284
000190 a8 a9 bb 3c df 19 99 3e 09 52 22 3e 29 21 7b bb
       0.022908047 0.2990255 0.15851606 -0.0038319326
0001a0 72 03 6c 3d cb 51 c5 3c e0 38 5c 3a 8b e9 fc 3c
       0.057620473 0.024086853 0.0008400809 0.03087308
0001b0 06 fe 48 3d 55 51 08 be 28 0f 6a 3e 16 19 81 bb
       0.04907038 -0.13312276 0.22857344 -0.003939758
0001c0 08 43 66 3d 91 62 e8 bb 12 93 6a 3e 9a 9a e1 bd
       0.05621627 -0.007091828 0.22907665 -0.11015816
0001d0 cf c2 6c bd cc 06 84 3d 45 e1 ee bb 65 51 04 bc
       -0.05780297 0.06446609 -0.007290038 -0.008076047
0001e0 c7 cf 09 3a 86 b2 83 3d 4b bc 8a bd 5b 22 92 3e
       0.00052570965 0.06430535 -0.06774195 0.28541836
0001f0 f8 ac 59 3e 2a 11 07 3d 1b 48 9b 3e 22 b1 8b be
       0.21257389 0.032975353 0.3032845 -0.2728358
000200 d7 9b 8b 3c 64 f0 fa 3e 87 b7 96 ba a8 3a 80 3c
       0.017042084 0.49011528 -0.0011498787 0.01565297
000210 01 df b8 3d 3b 2d d3 bb 20 ac 73 39 fa ca 91 3d
       0.090269096 -0.006444601 0.00023238407 0.07118793
000220 be 20 04 3e d4 6a 93 3e 34 47 5b 3b 6d c5 28 3e
       0.12903115 0.2879244 0.0033459188 0.16481562
000230 d1 55 b6 3b c5 b3 bd 3d 34 c6 57 3d 35 fe 3f 3d
       0.0055644293 0.09262804 0.052679256 0.04687329
000240 2f ea 1e 3d 00 91 33 3e b3 ca aa bb e8 4c bd 3d
       0.038797554 0.17535782 -0.005212152 0.09243184
000250 10 b0 0a bf ff 44 89 3e d4 0f 31 bc c1 d1 32 b8
       -0.541749 0.26810452 -0.010806996 -4.2633856e-05
000260 f0 bf f1 3b 01 13 a6 3d e9 56 0c 3e 9d c5 d5 be
       0.007377617 0.081090935 0.13705029 -0.4175233
000270 e6 1e 3f be 2f de 0c be bc c7 af 3d 58 4f bb 3e
       -0.1866413 -0.13756631 0.08583018 0.36583972
000280 05 1c 06 3e 18 02 e6 3d 7c ed 78 bb 46 81 fb 3b
       0.13096626 0.11230868 -0.0037983349 0.0076753227
000290 08 df d3 3b 99 03 3d 3e 71 0e 48 3d 6e 95 0d 3c
       0.0064657964 0.18458404 0.048841897 0.008641584
0002a0 91 f3 ac bb 5e 69 28 3e 0c 13 a7 3d 87 11 61 3a
       -0.005278059 0.16446444 0.0815793 0.00085856806
0002b0 2f 22 ac 3e de 74 05 3f 0b 79 03 bd ac de d1 3e
       0.3361983 0.5213145 -0.032097857 0.40990198
0002c0 e4 e6 74 3c 97 92 ae bb a6 87 98 3d 84 8c b7 3d
       0.014947627 -0.0053275335 0.07447748 0.08962348
0002d0 4f 4e 19 3c 00 a5 8e 3d 3e 2a f5 bb d5 f1 17 3f
       0.009357049 0.06965065 -0.0074818423 0.5935338
0002e0 4a 54 6e bb 5b e0 b9 bb e2 1e f5 3c 4f 28 98 be
       -0.0036366158 -0.005672497 0.029921953 -0.29718253
0002f0 cd 94 10 3e 95 12 8c 3a 12 9e 7a 3e a4 4f 7b bb
       0.14119263 0.001068669 0.24474362 -0.003834703
000300 7f 67 24 3e 32 3a 37 3e 07 70 17 bb 18 5c 1a 39
       0.16055106 0.17893293 -0.0023107545 0.00014720892
000310 5f 63 8f ba 16 22 99 3e 58 be 69 bc 1e 70 15 be
       -0.0010939649 0.29908818 -0.014266573 -0.1459355
000320 42 09 c6 ba 07 54 1e bb c5 0c 05 3e 9f e0 93 be
       -0.001510896 -0.002415897 0.12993152 -0.2888231
000330 0d 51 56 3d d5 9f 17 be 40 7d c4 be 89 e6 82 3d
       0.05232339 -0.14807065 -0.38376808 0.06391627
000340 0e 5a f2 3c 19 46 30 3e 0a 28 ec 3b a5 88 a0 bb
       0.029583957 0.1721424 0.0072069215 -0.004899102
000350 ef 44 ce 3d 38 d2 20 be ba fb 90 bc 0e ef 98 3c
       0.10071742 -0.15705192 -0.017698158 0.018668678
000360 6d 1b 88 3e 6d f9 02 3f f7 d1 a9 bb d1 89 97 3e
       0.26583424 0.51161844 -0.0051825005 0.29597333
000370 ec c4 3c 3d 24 7c 3a 3e 7f 59 9f bd a3 b1 37 be
       0.046086237 0.18211418 -0.07780742 -0.17938857
000380 6b 99 69 3d 56 ff 96 be 51 16 8e 3b 65 7c 16 ba
       0.057031076 -0.2949168 0.0043361564 -0.0005740582
000390 35 fc 1c bc df 18 10 3d 11 b7 ec b9 d6 be c2 bf
       -0.009581615 0.03517997 -0.00045149823 -1.5214489
0003a0 a5 f9 a1 3d b9 35 1a bd 46 49 b6 be fc 9e 6e 3c
       0.07908944 -0.03764889 -0.35602778 0.014564272
0003b0 62 59 29 3d f7 7d 53 3d 3f df 91 bb da 2b 8f 3e
       0.041345008 0.0516338 -0.004451662 0.27963144
0003c0 06 f3 aa 3c 64 bf 0b 3e e8 54 25 bd 82 8d e2 3d
       0.020867836 0.13647228 -0.040364176 0.11062147
0003d0 44 c4 91 bd 25 04 c1 3b 4d e2 bc bd 32 04 e7 ba
       -0.07117513 0.0058903866 -0.09222851 -0.0017625152
0003e0 9a 02 28 3d b0 50 b8 bc 10 da fc bb 96 cb 0e 3d
       0.041018106 -0.022499412 -0.0077164248 0.034862123
0003f0 d5 5d bf bc 37 56 a4 3d 8e 12 48 bd fc ae 11 be
       -0.023360172 0.08024257 -0.04884582 -0.14226907

bn1.bias f4 [400]
000000 c4 9d 13 bb 22 0e 02 3b 5e 38 07 3c c4 cf 8c 38
       -0.0022524456 0.001984485 0.008253185 6.7144196e-05
000010 4e 36 da 3a f9 f4 21 3b f0 e7 82 3a 3e 24 10 3f
       0.0016648264 0.0024712665 0.0009987336 0.563053
000020 2a de 87 3d 97 79 4e 3a 5d 97 39 bb c7 65 9e 3a
       0.06634171 0.00078763947 -0.002831898 0.0012084775
000030 81 46 8b 3e c5 a2 c2 b9 36 18 f7 bb 45 e5 99 b9
       0.27202228 -0.00037123836 -0.007540728 -0.00029353253
000040 59 69 47 3a f8 52 a7 3c c3 12 e2 b8 12 c8 3a 3a
       0.00076069456 0.020425305 -0.000107800144 0.000712515
000050 84 83 0d 3e d4 bd 26 3e 1e 25 a5 3a fb 0d dc 3b
       0.138197 0.16283351 0.0012599563 0.006715534
000060 69 31 e8 ba 3a 6b da bc e3 d5 68 3c b7 b4 6b ba
       -0.0017714921 -0.026662458 0.014211151 -0.0008991467
000070 3e 4b 30 3c 0a 4d b5 bb 07 8a fa 3a f6 39 64 3a
       0.010760127 -0.0055328654 0.0019114622 0.00087061466
000080 ac cf cd 3d 6a 57 89 3b b6 15 b9 3b b8 84 f1 ba
       0.10049376 0.004191329 0.00564834 -0.0018426394
000090 78 63 d1 39 08 36 94 be 07 18 1d 3b 00 31 89 3b
       0.00039937696 -0.28947473 0.002397062 0.0041867495
0000a0 44 d9 c9 3b a6 c9 22 3e fc 05 1e ba 96 61 31 bc
       0.0061599333 0.15897235 -0.00060281134 -0.010826489
0000b0 2a 13 81 ba cf 08 12 b8 bf bc 5f ba c0 6e 59 3a
       -0.000984763 -3.4817316e-05 -0.00085349 0.0008294396
0000c0 71 90 b7 b9 9e 95 41 3a b1 a2 38 3b ca 0e dd 3a
       -0.00035012097 0.00073846604 0.0028173144 0.0016865369
0000d0 da 97 88 bb 12 8b b7 3b f6 8b 39 b8 55 e3 99 bb
       -0.0041684927 0.0056012953 -4.4237786e-05 -0.0046962895
0000e0 2d 32 9f 3c 82 86 46 bb d8 57 72 39 f7 60 8e 39
       0.019433105 -0.0030292575 0.00023111643 0.00027156595
0000f0 21 1d bf b5 b2 81 33 bb 8f 65 25 3a 95 0b 87 b8
       -1.4239087e-06 -0.0027390537 0.0006309384 -6.439459e-05
000100 12 34 fa 3a 6b ce ac 3b 60 c7 50 3d 55 1d c7 3b
       0.0019089004 0.0052736304 0.05097139 0.0060764947
000110 c8 89 c8 bc 78 37 3f b8 67 56 8c ba 87 16 93 3c
       -0.024479762 -4.5589608e-05 -0.0010706902 0.017955078
000120 17 b1 cb 36 e0 76 3c 3d c5 d4 04 37 5e 07 ac 38
       6.0704874e-06 0.046011806 7.917352e-06 8.2029714e-05
000130 f3 5d 01 39 45 0d 0b 3c 3b 7b 36 b9 c0 07 4d 3b
       0.00012337397 0.00848705 -0.0001740278 0.0031285137
000140 17 c2 25 38 50 a8 19 3d ee 77 a1 bb 98 3a 1e bd
       3.9519826e-05 0.03751403 -0.004927627 -0.038630098
000150 47 21 82 3c 41 0a d8 3d c9 18 e6 3c dc 45 cd 39
       0.015885008 0.10548831 0.02808799 0.00039152696
000160 55 5e 2a 39 4f 33 2d bb 8b 9e 83 39 98 31 7e b8
       0.00016247605 -0.0026428287 0.0002510439 -6.0604507e-05
000170 37 1d 8c ba 5a 11 98 39 6c aa 4d bd cb d6 97 ba
       -0.0010689859 0.00029004627 -0.050211355 -0.0011584399
000180 a6 94 19 3a 13 fd 03 b9 fb 03 df b9 94 c0 96 3b
       0.0005858637 -0.00012587411 -0.0004253684 0.004600594
000190 e5 7c cc 39 b5 bd 05 b9 ec e1 69 3c 08 73 ae ba
       0.00039002966 -0.0001275454 0.014275055 -0.0013309428
0001a0 20 da fe 37 5f 57 74 bb 9e 73 16 39 a1 ff 85 b9
       3.0380732e-05 -0.0037283523 0.00014348186 -0.00025558195
0001b0 8a ab 0a ba 60 4c 43 bc 1c a7 a2 3b 12 5c 21 b8
       -0.00052898435 -0.011920065 0.0049637686 -3.847114e-05
0001c0 b0 0c 44 3c 95 eb 93 39 fa d3 68 3d d7 04 8b 38
       0.011965916 0.00028213547 0.05684278 6.628938e-05
0001d0 76 04 90 b5 b0 a2 94 3a 78 d9 cb 38 fb 8d 04 3a
       -1.0730134e-06 0.0011339989 9.720301e-05 0.0005056557
0001e0 55 e0 16 b9 92 a5 34 b8 bd b5 f0 bb b2 7a 12 3d
       -0.00014388685 -4.3069544e-05 -0.0073458836 0.035761543
0001f0 d5 41 eb bc 88 b8 8a 3a f2 9a b4 bb bf 40 2c bc
       -0.028717915 0.0010583559 -0.005511635 -0.010513484
000200 40 97 58 ba 9b 5f 1d 3e fc f6 d8 37 3e b5 d2 3a
       -0.0008262284 0.15368502 2.5864218e-05 0.0016075743
000210 94 64 53 3b 85 c6 85 ba 60 be 80 3a 3f 3e 5f b9
       0.0032255994 -0.0010206258 0.0009822361 -0.00021290126
000220 40 74 69 3c 0a e2 09 3d 59 94 8c 3a 3e 9d 1e 3d
       0.014248908 0.033662833 0.0010725363 0.038724177
000230 e3 e6 e7 b9 0b b6 91 38 2e 0a 7f 3c ff 60 b0 3b
       -0.00044231777 6.948047e-05 0.015566392 0.0053826566
000240 94 2f 4b bb 17 b9 9f 3c 83 05 3d ba 08 55 b0 ba
       -0.00310037 0.019497437 -0.0007210599 -0.0013453076
000250 e4 5d 9e 3b 1a aa 84 3d bb fe b0 b9 37 6e 13 37
       0.00483297 0.06477757 -0.00033759125 8.787544e-06
000260 86 7f 1e 3a 45 54 85 3c 06 5d 07 3e f5 f6 f0 37
       0.0006046224 0.016275534 0.1321908 2.8725228e-05
000270 21 91 9c bb b9 61 4d bc c4 51 76 b8 83 3a 8f 3d
       -0.004778043 -0.012535506 -5.872712e-05 0.06993582
000280 dd a2 01 bb d4 ac 57 ba 36 9a 42 b7 bf 19 0a ba
       -0.0019780912 -0.00082273525 -1.1599206e-05 -0.00052681187
000290 d6 2f 0a 39 bf 0b a8 3c cf e5 19 38 4c f9 8f 3a
       0.00013178526 0.020513413 3.669207e-05 0.001098433
0002a0 b9 7d 02 3b 48 2b 81 bc eb 1a fe 3b 99 a8 93 39
       0.0019911362 -0.015767708 0.0077546737 0.0002816364
0002b0 a9 92 3f bb ba 27 e0 bd c5 95 43 bb 81 c0 83 3d
       -0.0029231703 -0.10945077 -0.0029843908 0.064332016
0002c0 9a 12 85 ba 59 72 dc 3a 6a 8e c3 b8 40 96 3e 3a
       -0.0010152638 0.0016818746 -9.324851e-05 0.0007270314
0002d0 83 f7 a3 3a b5 a9 8e 38 ef bc 6b ba 29 bd c3 3e
       0.0012509677 6.802698e-05 -0.0008992692 0.38230255
0002e0 6c 3a 8e 3a 74 22 cf b7 ed e6 10 38 f6 4f 81 3a
       0.0010851151 -2.4692366e-05 3.454734e-05 0.0009865749
0002f0 b0 80 6c b9 f7 82 26 39 12 c9 63 3e 88 ee 87 ba
       -0.00022554654 0.00015879782 0.22244671 -0.001037077
000300 e0 a3 44 39 e6 f3 1b 39 37 f7 3c bb b1 d0 85 b7
       0.00018753065 0.00014872811 -0.0028833875 -1.5952015e-05
000310 b8 be a3 3a 54 99 27 3d 1c d6 bf 3a 3a 40 92 b6
       0.0012492752 0.04091771 0.0014635953 -4.358616e-06
000320 72 b0 00 ba 41 ef 98 ba 9d 40 86 3c c3 2e 68 ba
       -0.0004909105 -0.0011667983 0.016388232 -0.00088570657
000330 49 bc 69 b9 09 b6 08 3a e6 0a 27 3b 83 fe 38 3c
       -0.00022290753 0.00052151136 0.0025488674 0.011291149
000340 72 12 d5 3b 44 77 56 3d b6 13 aa ba c0 ac d8 b9
       0.006502443 0.052359834 -0.0012975845 -0.0004132744
000350 30 6e 74 bc 8e 9f 6b b7 40 de 87 bb 0f 82 b9 ba
       -0.014918849 -1.4044241e-05 -0.0041463673 -0.001415314
000360 08 da 85 3d 9c 62 8f 3c 3a a0 01 38 63 7e 9b 3d
       0.06535727 0.017503075 3.090522e-05 0.07592466
000370 e4 d1 f0 3b ed 4a df 3c 9a 78 f8 38 c5 17 11 3d
       0.0073492397 0.027257407 0.00011848025 0.03542306
000380 fa f6 bf 39 84 36 c9 38 61 25 68 b9 cc 05 8e 39
       0.0003661437 9.594581e-05 -0.00022139169 0.0002708867
000390 85 64 49 37 45 25 02 3a 6c 0d fb b9 0d b8 02 bf
       1.2003938e-05 0.000496466 -0.0004788445 -0.5106209
0003a0 ad aa c1 bb ed 02 09 3b 39 95 16 3d bd 19 f5 3a
       -0.0059102387 0.0020906285 0.036763404 0.0018699687
0003b0 cb 50 ad 3b 3d 87 88 3a 22 92 3f b4 f7 b2 3a 3d
       0.0052891723 0.0010416281 -1.7841424e-07 0.04558083
0003c0 4c 49 45 3a 9e 67 8b 3d 18 76 c2 bb ea 73 38 bc
       0.00075258757 0.06806873 -0.005934488 -0.011258105
0003d0 af ba 58 39 32 12 e8 36 bd 7a 03 bb 0d b2 8e ba
       0.0002066891 6.916257e-06 -0.0020062171 -0.0010886804
0003e0 1a 13 93 b9 d7 e2 a2 ba 57 3e db ba 8e 66 87 bb
       -0.00028052257 -0.0012427223 -0.0016726953 -0.0041320985
0003f0 0f b2 49 bb 02 58 22 3b a7 be e2 36 f3 0e c8 bc
       -0.0030776297 0.0024771695 6.7575197e-06 -0.02442119
