MADDPG/workspace/model_dir/episode-0.pt (torch_old, 24730 bytes, 33 tensors)

fc1.weight f4 [16, 14]
00000000: d203 0d3e be96 f1bd 7838 54bd 6c74 003e
00000010: f9d2 80be c020 243e 3835 61bd 123b 0b3e
00000020: a02e 183d 340a 06bd 54d0 973d c003 583c
00000030: 74e8 c73d a24d d5bd 70a0 9fbc 301b c5bc
00000040: a0ab 1e3d 00f1 8bba ee3c 6f3e 8c54 aa3d
00000050: 42d6 cbbd 184a 25be 3c7d 37bd 4218 ecbd
00000060: d865 afbd 20aa 513c 4425 233e b0c0 143e
00000070: 10c4 85be 34a8 293e fce8 983d 57cc 813e
00000080: 68a4 343e 285b 79be 431b 82be a300 04be
00000090: 5251 703e ec57 36bd 783e ea3d 3a5c febd
000000a0: 8544 863e 5895 e7bd 6e3c 4d3e 0069 4f3b
000000b0: 522d 10be 5cac 0c3e c045 11be 80fa a03d
000000c0: 320d 9ebd b808 f0bc df8d 83be c57b 02be
000000d0: 7281 143e 700c 85bd 134c 883e 0860 5b3e
000000e0: 2008 4dbc 7cac 36be 74a8 263e d0df a93d
000000f0: c5e8 30be b2c3 313e 1e26 263e aeb8 723e
00000100: 5469 19be cc31 34bd c0a6 a9bb b0e3 1f3d
00000110: 86b2 4fbe ce34 42be 78e1 143e 7259 80bd
00000120: e6ae 053e c0a2 793c 48b8 b33d 70b6 703d
00000130: 3c04 c73d f4a9 073e 4674 7dbe 46c1 093e
00000140: 786d 40be 9a7d 4ebe b025 853c 8c8b 3abd
00000150: 78bc 203e c87e 1ebe e74a 73be 282c 473e
00000160: 0c53 22bd 46ee 193e 04f7 af3d f638 4dbe
00000170: 78ec 5b3d cc78 833d e63d 37be f8d9 01be
00000180: 24a2 ba3d f815 443d 00d4 e8bd 1eb1 a5bd
00000190: 9aa7 7a3e 0c8b 4abd c44b 1a3e 3801 ed3d
000001a0: e2e7 30be e2bd 68be 5959 833e a0a5 643c
000001b0: d497 3b3e 50db 623d 600a b03d 9e6c 4c3e
000001c0: 67c0 813e 1a9b 35be 98de 083d 7c3b 4c3e
000001d0: 9842 463e 8c04 2a3e 6b10 46be 2c13 45be
000001e0: dc82 25be 9086 093d a361 883e c8df 2cbe
000001f0: 22d6 113e e479 17be 32a8 80be e8aa 68bd
00000200: 12af 1d3e ce12 7e3e 8ef6 29be 0890 6d3d
00000210: ca24 6c3e 205a 353e 968f 2a3e 947b 423e
00000220: b01a 2d3e f860 8d3d 1325 3bbe 43d2 65be
00000230: b8ce fabd 78f2 febc 01c0 27be 1840 c83d
00000240: 0466 a93d 14e1 77bd 8c5e d23d 40e5 b03d
00000250: ee16 273e 184e 383e a65c b9bd a9b1 853e
00000260: b01c fdbc 4070 16bc 8f28 81be 5a24 30be
00000270: d7e1 1fbe 561d eabd 3093 423e 2add b2bd
00000280: 3783 4cbe e097 d23d c03e af3d d041 313e
00000290: 949e 0dbe 0859 6d3d 7443 c7bd acf3 75bd
000002a0: d818 5abe 1276 f9bd 66a1 a7bd 1011 ea3d
000002b0: 90fd 473d 6834 873d 1794 883e a75d 853e
000002c0: dca8 3a3e c06f 0b3c 8c53 3dbe 4ae1 553e
000002d0: 5adf 88bd d000 b1bc 6bc5 6bbe 283c 58bd
000002e0: 7284 30be 6a7b 7b3e 2699 6cbe 4953 55be
000002f0: 20b0 14bc 07fb 13be 3cd9 c33d 7eb0 d2bd
00000300: c08a 00be 6001 783c f61c 463e 8682 40be
00000310: 0e85 003e 0ad2 2f3e b5da 853e d08d 3fbe
00000320: 1890 843d ef5c 4abe 88a6 693e 2852 d4bd
00000330: 64d9 243e 005d 023c 4084 aabc e0b7 0bbc
00000340: e017 3a3d 7202 013e 7891 2f3d dcf8 a63d
00000350: 892d 76be 0262 473e 9a9b 6e3e c638 623e
00000360: a04e 4a3e 2b7e 45be 2ce7 cabd 7e4e 713e
00000370: 8272 50be c248 783e a53e 57be 84c7 40be
0.13770989 -0.1179633 -0.051811665 0.12544411 -0.2516096 0.16028118 -0.054982394 0.13596752
0.03715384 -0.032724574 0.07412782 0.013184488 0.09761134 -0.10415198 -0.019485682 -0.024060816
0.038737893 -0.0010676682 0.23363087 0.08316907 -0.09952976 -0.16141546 -0.044797167 -0.11528064
-0.08564347 0.012796909 0.15932184 0.1452663 -0.26126146 0.1656807 0.07466313 0.2535121
0.17640841 -0.2435118 -0.25411424 -0.12890868 0.23468521 -0.044517443 0.11437696 -0.124199346
0.2622415 -0.11307782 0.20042583 0.0031648278 -0.14079788 0.13737625 -0.14186764 0.07860279
-0.077173606 -0.029301032 -0.25694177 -0.12742527 0.14502504 -0.06496513 0.2662054 0.21423352
-0.012514144 -0.17839235 0.16275197 0.08294642 -0.17276295 0.17359808 0.16225478 0.23703262
-0.14981586 -0.043992803 -0.005177349 0.0390355 -0.20282945 -0.18965456 0.14539135 -0.0626706
0.13055 0.0152365565 0.08775383 0.058767736 0.097176045 0.13248426 -0.24751386 0.13452634
-0.18791759 -0.201651 0.016253322 -0.04554324 0.15696895 -0.1547805 -0.23759042 0.19450438
-0.03962998 0.150323 0.08592036 -0.2004126 0.05369231 0.064195246 -0.17894706 -0.12680805
0.09112957 0.047872514 -0.11368561 -0.08090423 0.24477997 -0.04944901 0.15067965 0.11572498
-0.17275956 -0.22728685 0.25654104 0.013955504 0.18319637 0.055384934 0.08595729 0.19963309
0.25342104 -0.17734948 0.033415407 0.19944566 0.19361341 0.16603297 -0.193422 -0.19245595
-0.161632 0.033575594 0.2663699 -0.16882241 0.14241841 -0.14792591 -0.25128323 -0.056803614
0.15398815 0.24811861 -0.1659796 0.057998687 0.23060909 0.17710161 0.16656336 0.18992454
0.16904712 0.06903261 -0.18275861 -0.2244349 -0.1224646 -0.031121477 -0.16381837 0.0977785
0.08271411 -0.060517386 0.1027194 0.08637476 0.1631734 0.1799854 -0.090508744 0.26112106
-0.030897468 -0.009182036 -0.25226256 -0.17201367 -0.15613495 -0.11431377 0.1900146 -0.0873359
-0.1997193 0.10282874 0.085568905 0.17310262 -0.13830024 0.057946235 -0.097296625 -0.060046837
-0.2129854 -0.12180723 -0.08185081 0.11429036 0.0488258 0.066017926 0.26675484 0.26048014
0.18228477 0.00851053 -0.18488902 0.20886722 -0.06683226 -0.021606833 -0.23024528 -0.052791744
-0.17238024 0.24558797 -0.23105296 -0.20832552 -0.009075195 -0.14451228 0.095629185 -0.102875695
-0.12552929 0.015137047 0.19346985 -0.1879979 0.12550756 0.17169967 0.26143423 -0.18706441
0.06472796 -0.19762014 0.22817433 -0.103672326 0.16098553 0.007956743 -0.020815015 -0.008527726
0.045432925 0.12598589 0.04286334 0.08152935 -0.24040808 0.19470981 0.23301545 0.2209197
0.19756556 -0.1928641 -0.09907374 0.23565099 -0.20356181 0.24246505 -0.2101999 -0.18826109

fc1.bias f4 [16]
00000000: 40cb 053e 03a2 44be 08cc 7abd c218 473e
00000010: 7cc6 583e 436a 813e 5822 5ebd 9db7 54be
00000020: 61bb 863e 4033 69bd 0e33 e1bd 0c6e 853d
00000030: 5363 3fbe aae1 333e 7a85 2b3e 0828 59be
0.13065815 -0.19202428 -0.061229736 0.19443038 0.21169466 0.25276384 -0.05423197 -0.20773168
0.26314834 -0.05693364 -0.10996066 0.065151304 -0.18690233 0.17566553 0.16750136 -0.21206677

fc2.weight f4 [8, 16]
00000000: 7645 52be c065 b3bc 940d d73d 0042 edbb
00000010: d6cf 01be 004a bb3b 669f 70be 4aee 34be
00000020: 9e6a 2abe e2d2 523e 5eaa 613e cce8 adbd
00000030: 00b5 373c 3857 e43d d062 f53c 5231 00be
00000040: 20a5 133e 385f 1d3e c062 6dbc 301d fcbc
00000050: 86a3 683e e8c6 5f3e 7c25 11be 9c77 7a3e
00000060: 7069 7d3d 000d 2abe 3a23 0c3e 821f 3fbe
00000070: 9686 6c3e ba93 24be d4ce 903d 74e7 9b3d
00000080: 0891 733d 0455 543e b0a8 d4bd b426 d8bd
00000090: a0d7 5dbe 4019 28bc 808b f2bd a01f 243c
000000a0: 20eb 51bd dce0 a93d a475 5d3e 7c14 973d
000000b0: 90ef a4bd 883c fbbd 6c45 5fbe 1069 573e
000000c0: 98fc 41bd 18b3 4e3d 0084 173c f023 23be
000000d0: a82c 103e 9a77 0f3e 4046 4e3c 627b 11be
000000e0: 5c8d d9bd 00a0 613b 2843 12be 5ad6 0ebe
000000f0: 40bf 18bd 3c6e 93bd 505f 7b3d b093 86bd
00000100: a0be 07bd c46b c3bd c4f2 69be b643 5f3e
00000110: 705c 433d e6eb 643e 6807 25bd 14ac 80bd
00000120: ccaa 70be 545c c2bd ace0 273e f2bc 7abe
00000130: 7414 b3bd 6af8 1b3e 5e8b 133e b80d bd3d
00000140: 20b2 4abd d010 9bbc f076 42bd 70be bcbd
00000150: 90ab d53d 8063 aebd dad0 0fbe 184e 683d
00000160: d009 39be 6889 5abd cad1 023e 7859 bf3d
00000170: 4cf1 593e a29a 2ebe 8073 0e3b ec31 97bd
00000180: 622f 0fbe 8203 10be c4fd 803d 7045 d63c
00000190: c0ac 02be ac71 34be 6c1a 54be 84e5 7a3e
000001a0: 4089 2ebd f0c8 6cbd 8845 bcbd de0a 00be
000001b0: 781d 6abe 8049 16be 7879 1c3e a06f 603d
000001c0: c89c b4bd bc7d c1bd 4e89 233e 4689 383e
000001d0: a2a3 763e 705a 953d 585a f73d a08d a4bc
000001e0: aeaa 15be 6ccc 7abe 9aed 1b3e d0d5 14bd
000001f0: 645a d23d c09c 493c 20ee 6ebe 402f fbbd
-0.2053431 -0.021899104 0.10500637 -0.007240534 -0.1267694 0.0057156086 -0.23498306 -0.17669025
-0.16642234 0.20588258 0.22037646 -0.08491668 0.011212587 0.11149448 0.029954344 -0.12518814
0.14418459 0.15368354 -0.014488876 -0.030775636 0.22718629 0.2185322 -0.14174455 0.2445969
0.06186813 -0.16606522 0.13685313 -0.18664363 0.23098215 -0.16071978 0.07070699 0.076125056
0.059464484 0.20735556 -0.10383737 -0.10554257 -0.21664286 -0.010259926 -0.11843014 0.010017306
-0.051249623 0.08294842 0.21626908 0.07376954 -0.080535054 -0.12267405 -0.21803826 0.21036172
-0.047360033 0.050463766 0.00924778 -0.15931678 0.14079535 0.14010468 0.012589991 -0.14207223
-0.10622665 0.0034427643 -0.1428343 -0.13948956 -0.037291765 -0.0719876 0.061370194 -0.06571138
-0.03314078 -0.09542039 -0.22846514 0.21803173 0.047695577 0.22355613 -0.040290266 -0.06282821
-0.23502654 -0.094902664 0.163943 -0.2448614 -0.087441355 0.15231481 0.14408633 0.09231132
-0.04948628 -0.018928915 -0.04747671 -0.092160106 0.104331136 -0.08515072 -0.14044514 0.0567151
-0.1807015 -0.053353697 0.1277534 0.09343237 0.21283454 -0.17051175 0.0021736324 -0.07382569
-0.13982919 -0.14063838 0.06298402 0.026156157 -0.12761211 -0.17621487 -0.20713204 0.24501616
-0.04261136 -0.057808816 -0.091929495 -0.12504146 -0.22862804 -0.14676476 0.15280712 0.054793954
-0.08818966 -0.0944781 0.15970346 0.18021116 0.24085858 0.0729264 0.120777786 -0.020087063
-0.1461589 -0.24492043 0.15227357 -0.03633672 0.10271147 0.0123054385 -0.23333025 -0.122648716

fc2.bias f4 [8]
00000000: c80a 903d 1042 4fbd a835 77be a489 b33d
00000010: c016 1d3c 008c a4bd 58d5 ce3d b82f 583d
0.07033306 -0.05060011 -0.24141562 0.08766487 0.009587944 -0.080345154 0.10099286 0.052779883

fc3.weight f4 [2, 8]
00000000: 5d85 05be 4f9e a23e 9ea0 353e 88d5 353d
00000010: 600f 8bbd a154 99be cdc2 8b3e 50d7 babd
00000020: 6af5 69be 2e1f 683e 1294 003e bc2f b33d
00000030: 0492 8fbd 86f6 e1bd e8bf 753d e514 8c3e
-0.13039155 0.31761405 0.17737052 0.044393092 -0.06790042 -0.2994738 0.2729706 -0.09123099
-0.22847524 0.22668144 0.12556484 0.08749339 -0.07010272 -0.11033349 0.05999747 0.2735969

fc3.bias f4 [2]
00000000: b861 4f3d 7230 2bbe
0.0506303 -0.16717699

fc1.weight f4 [32, 20]
00000000: 9c75 633e e0b4 9c3b ea01 353e b038 5f3d
00000010: e43d 4d3e 941c 043e 4279 e9bd f2d7 203e
00000020: 008c bc3a 06cd 37be f8eb 3fbd 93ac 4ebe
00000030: 6043 edbd 8436 22be 509b 1c3e 186b 40bd
00000040: c83e 1ebd 8474 db3d f05e ba3d 751d 17be
00000050: ecc4 a83d cc8b c23d 120f 36be f213 473e
00000060: 7053 0bbe 9814 b3bd 219a 3cbe d046 513e
00000070: f866 2e3d b4cd 403e 003c 6f3c 00ea f83d
00000080: 3c37 92bd 5cab 36be b006 133d 285b a3bc
00000090: 30f4 b8bc 89e7 e0bd 60af 973b cc83 833d
000000a0: 0c34 a53d e873 38be 483e dd3d 305e bc3c
000000b0: 4eed 1d3e 94d1 213e e451 34be 42e3 5b3e
000000c0: 1c2f 61be 04a1 033e c0ed 803c 54b4 d83d
000000d0: 66a4 f7bd 70a8 093e 679b e2bd 7e63 4abe
000000e0: 686d 993d 58a9 fa3d daf8 623e e871 bfbc
000000f0: 7a44 5c3e e419 133e 0720 e3bd 099e 30be
00000100: 406c 003e e1e5 fabd cc0e d23d ec19 44be
00000110: 540d 273e 3841 893d 6096 d2bc f806 d23d
00000120: 4e04 23be 7c38 48bd 80a9 0f3b 934e 04be
00000130: f407 6abd e47d c5bd 4c38 5a3e 6485 423e
00000140: 2c7c 453e f425 3b3e 144a 5bbe 2c2f 993d
00000150: 44cb a83d 74f2 27be e09f b93d 537d f8bd
00000160: 70a4 113d 74af 973d 7894 453e de3e f0bd
00000170: 8626 34be 08dc 533e 383b c03d 7095 de3d
00000180: 38d8 a43d 5c18 a2bd 14bd 093e d0e6 47be
00000190: 70eb fe3c 9802 cf3d e071 1c3e 6baf e4bd
000001a0: bec2 1abe e8a6 ab3d aad7 35be 944a 3ebe
000001b0: 81eb 4dbe 0213 debd e0d2 2ebd b498 07be
000001c0: c2a1 c1bd c0c0 4abe acbc 0c3e e4ac 51bd
000001d0: 3e78 10be 1875 6e3d 8834 2bbe 7447 203e
000001e0: caa9 033e c803 61be 53bb 33be cafa 16be
000001f0: 9de6 f7bd 60b8 e43c ff6b 62be d6c0 29be
00000200: 3023 d13d b8fb 95bd 2e3a b6bd e46c 3dbe
00000210: 709c b93d 885a 813c 9e02 b1bd 3638 0cbe
00000220: 00c9 423d 0035 793d c443 cb3d b817 883d
00000230: 1cb7 0bbd 1140 31be 30c4 113e 803c fbba
00000240: 3b2c 18be de76 453e c453 ff3d f8f4 33be
00000250: d7b4 e4bd 5ed7 9bbd b82e 04be e8da d53d
00000260: 2959 23be fccc 543e fe48 bdbd 4828 073e
00000270: 6086 f93b a066 c9bd 8ce7 183e e1b6 2ebe
00000280: 954a f2bd 108f db3c 86a3 353e b035 c4bd
00000290: cf6d 0bbe 222e 12be f2e5 c9bd d430 9ebd
000002a0: c054 55bd 7d42 02be 0821 8f3d 8007 ee3a
000002b0: 9a9a 15be 32c2 02be 38f1 413d 8057 51bb
000002c0: 2c0e 223e 88d8 0abd e17d 39be ff59 29be
000002d0: 366b 86bd 70d9 4abd 600c d13c 6868 4dbd
000002e0: acf8 a83d 404e 98bd 500e 283e 885e 523d
000002f0: 08ca 8cbd ae0f 4c3e 70d2 693d a69b 1bbe
00000300: 08de febd da91 0f3e 6427 d13d f4c7 323e
00000310: c8b5 8cbc 1026 203e 64ae e33d 909f 8d3d
00000320: d4fa 53bd 4aba 5c3e f857 393d 2450 6cbd
00000330: 8059 50bb 8617 613e 48ca 193e 30bf 87bc
00000340: 427a 603e c419 c93d 93d1 f3bd ad61 50be
00000350: b410 053e 1cbd 563e d467 05be d416 bc3d
00000360: 90f6 1b3c 84d5 43bd 7c0a 79bd 90cd 7e3d
00000370: 18ea 493d 8ea6 1a3e 78a4 a73d 5864 d03d
00000380: 8efd 493e 0c99 8e3d 20f5 073d dcb8 a6bd
00000390: 38ed 273e a842 073d c896 133e 7a1b 5d3e
000003a0: a0d7 4cbd 6838 213e 0800 3abd e2a1 4e3e
000003b0: 4e39 343e f824 a4bd d063 033c 2afd c7bd
000003c0: 1c37 b9bd 4870 39bd 00d1 c7ba 18a3 9fbd
000003d0: 8526 58be 477d 0abe 9088 9cbc c430 92bd
000003e0: 3812 2a3e 621f 3a3e d0de 113e c4ad ca3d
000003f0: 8f85 35be 7053 583e 0dc6 49be 988d 96bd
0.22212833 0.004782304 0.17676511 0.05449742 0.2004314 0.12901527 -0.11400081 0.15707377
0.0014384985 -0.17949304 -0.046855897 -0.2018302 -0.115851164 -0.15841109 0.15293622 -0.046977133
-0.03863409 0.10715583 0.09100139 -0.1475733 0.08240685 0.094993204 -0.17779186 0.19441202
-0.13606048 -0.08744162 -0.1841817 0.20437169 0.042578667 0.1882847 0.014601707 0.12154007
-0.07139441 -0.17838806 0.03589505 -0.019940928 -0.022577375 -0.10981662 0.0046290606 0.06421623
0.08066568 -0.18012965 0.10802895 0.02299413 0.15422556 0.15802604 -0.17609364 0.2147341
-0.21990627 0.12854391 0.015738368 0.1058127 -0.120919034 0.1344316 -0.11064797 -0.19764516
0.07491571 0.12239331 0.22165242 -0.023369744 0.21510497 0.14365345 -0.11090093 -0.17247786
0.12541294 -0.12250877 0.102567285 -0.19150513 0.16313678 0.067018926 -0.02570647 0.102552354
-0.15919611 -0.048881993 0.0021921098 -0.12920599 -0.05713649 -0.09643152 0.21310538 0.18996197
0.19285649 0.18276197 -0.21414977 0.074797004 0.08241895 -0.16401082 0.09063697 -0.12133279
0.03555721 0.07406512 0.19294918 -0.11730741 -0.1759282 0.20689404 0.09386295 0.10868347
0.08049053 -0.079148024 0.13451034 -0.19521642 0.031118125 0.101079166 0.15277815 -0.11166271
-0.15113351 0.08381444 -0.1775805 -0.18583137 -0.20109369 -0.10843469 -0.042681575 -0.13241845
-0.09454681 -0.19800091 0.13743848 -0.051190272 -0.14108369 0.058217138 -0.16719258 0.15652257
0.12857738 -0.21974099 -0.17551927 -0.14744106 -0.12104533 0.027919948 -0.2211151 -0.16577467
0.102117896 -0.07323402 -0.08897816 -0.1849857 0.09063041 0.015790239 -0.08643077 -0.13693318
0.04755497 0.06084156 0.09925035 0.06645149 -0.034110174 -0.17309596 0.14234996 -0.0019167811
-0.14860623 0.19283625 0.12467149 -0.17573917 -0.11167305 -0.076094374 -0.12908447 0.10442144
-0.1595198 0.2078132 -0.09242438 0.1319896 0.0076148957 -0.09834027 0.14932078 -0.1706195
-0.11830632 0.026801616 0.1773816 -0.095805526 -0.13616107 -0.14275411 -0.09858312 -0.07724157
-0.052082777 -0.12720676 0.06988722 0.0018160194 -0.14609757 -0.12769392 0.047349185 -0.0031943023
0.15825719 -0.033897907 -0.18114425 -0.16538237 -0.065634176 -0.04952377 0.025518596 -0.050148398
0.082505554 -0.074368 0.1641171 0.051359683 -0.06874472 0.19927856 0.057085454 -0.15196094
-0.12444693 0.14020482 0.10212591 0.17459089 -0.017176524 0.1563952 0.11117247 0.069152
-0.05175288 0.21555439 0.04524991 -0.057693616 -0.0031791627 0.2198163 0.1501857 -0.016570657
0.21921638 0.098193675 -0.119052075 -0.2034976 0.12994653 0.20970577 -0.13027889 0.091840416
0.009519234 -0.047811046 -0.060801014 0.06220776 0.049295515 0.15102598 0.08185667 0.10175389
0.1972563 0.06962785 0.033192754 -0.08140728 0.16399086 0.033022553 0.14412987 0.21592513
-0.050010324 0.15744174 -0.045410186 0.20178941 0.17599985 -0.08014864 0.008019403 -0.09765084
-0.090437144 -0.045273095 -0.0015244782 -0.077947795 -0.21108444 -0.13524352 -0.019108087 -0.071382076
0.16608512 0.18176034 0.14245152 0.098964244 -0.1772673 0.21125579 -0.19704457 -0.073512256

fc1.bias f4 [32]
00000000: b426 d13d 78f7 7fbd efaf 35be 48a0 363d
00000010: 08a3 17be e0f6 e23c 2ab2 32be fc9e 2c3e
00000020: d6fa 1bbe fac8 463e 5ebf 213e 3a17 2d3e
00000030: d464 093e 10fe 533d a08e 32bc 40ea 69bb
00000040: a022 b6bd b578 52be 0eb4 503e 90d1 3d3c
00000050: 9061 d73d b076 063c e099 833d d813 0dbe
00000060: fcfe 31be f29f 2e3e 28a9 ad3d fc1d e23d
00000070: d144 63be d0af 773c 6493 55be c89f d1bc
0.1021246 -0.062491864 -0.17742895 0.04458645 -0.14808285 0.02770561 -0.17450777 0.16857523
-0.15232405 0.19412604 0.15795657 0.16903391 0.13417369 0.051755965 -0.010898262 -0.0035692602
-0.08893323 -0.20553859 0.20381185 0.011585608 0.105166554 0.008207008 0.06425834 -0.13777101
-0.17382425 0.17053202 0.084795296 0.11040875 -0.2219422 0.015117601 -0.20857006 -0.025588885

fc2.weight f4 [16, 32]
00000000: 801c 19bc 93b3 febd fa3f 33be 0080 983a
00000010: 61ca 223e 9d23 233e b96a dcbd 48a0 00bd
00000020: 5060 17be 245e 0dbe 3c88 46bd 85be 2f3e
00000030: a4e6 3cbd 3093 273c ed4b 2a3e 2c09 013d
00000040: 2907 123e 4e92 f03d 69be 293e 1858 f83c
00000050: 1b63 12be 6ab9 1bbe ac0e bbbd b568 153e
00000060: 162f d03d 98eb 533d fbd9 09be 5452 05be
00000070: 3baf 133e e852 96bc 543c 34be 1006 b3bc
00000080: 24d5 2dbd 80c0 2e3b 2e84 973d c64e 8b3d
00000090: 1b83 0abe 00f5 fdba 9b6a b3bd aae4 f43d
000000a0: 7a46 b33d 66b7 c63d 9392 243e 92d5 b13d
000000b0: 23e4 34be d8b4 363d f96c f8bd 4863 c13c
000000c0: 00aa f73a ef89 333e 5c5a f7bd 115b 31be
000000d0: 2c1c 42bd a85c e93c c99a 043e 51c5 123e
000000e0: 4d69 0b3e 5c92 643d 58ed 4ebd e019 19bd
000000f0: 37fd c5bd 0098 0d3d c2c6 fbbd 3cf1 783d
00000100: f2ce e93d 699b 193e 846c 32be 5985 143e
00000110: 176e e3bd c07b 6cbc 733f 253e ca30 c43d
00000120: eaad 65bd beb8 d53d e810 30be 7384 0d3e
00000130: 01b8 2f3e c086 03bc 0856 ee3c 88e7 29bd
00000140: 8a30 e5bd 33c1 a3bd a057 40bc 3318 14be
00000150: 6a4d 12be 50ee 9e3c c291 ebbd f3ed c4bd
00000160: 8060 c8ba a2cb bebd 718f 273e 1eb2 82bd
00000170: ee4d c9bd 30e6 40bd 59b0 13be d281 ba3d
00000180: ef87 1b3e b5ca d0bd f195 86bd 83f0 283e
00000190: c6f2 02be d81b 443d fd7c 13be 8e1d 21be
000001a0: 003e 8c39 0ba1 cebd 3213 c43d 12f6 5fbd
000001b0: 004b e43a 3703 bdbd 3ac6 943d f3b7 273e
000001c0: 60b3 d9bc 3e74 dfbd 6e8d 30be d576 2d3e
000001d0: 4297 983d 5884 953d 008e f63c 62aa b53d
000001e0: 4890 803d 52c6 b03d b66c e23d 3059 cd3c
000001f0: 3beb 1b3e 7a1f e13d a052 b1bb 1bb4 a1bd
00000200: 80ff 3f3c dffa 0c3e fe57 e53d f8b4 92bd
00000210: ac2a 17bd 74be 8f3d c668 883d bf5f 2c3e
00000220: 22cd af3d 50ae 663d 0859 273d 291f 2abe
00000230: a561 85bd 7044 993c 52db fbbd 719a 1ebe
00000240: 2a4c f43d 5043 763d 9013 12be e0e6 2b3c
00000250: 7a36 d53d b68f d03d f54e 253e b426 8fbd
00000260: a234 a13d f5d6 12be 18a1 b2bc 4541 e6bd
00000270: 30e0 09bd 4a1a ce3d 3e7c b43d 0a70 bebd
00000280: 608c 33bd 00db 10bd adba 89bd a152 c6bd
00000290: 15ec 043e 7240 fa3d b31e 173e b5cc c6bd
000002a0: d78e 043e 1290 5bbd ac1d 2abd 40f2 42bd
000002b0: 40d5 0cbc 4489 9ebd e80b c63c 1359 e9bd
000002c0: f4e6 943d 94ce 17be 593f 83bd 33de fcbd
000002d0: 5a38 f43d f2bc f83d 8cf9 0fbe de8d c5bd
000002e0: 6902 223e 58fd 523d 7e4a f93d 9cc7 0abe
000002f0: 9a65 a33d ca73 e63d 3400 28bd 2077 05bc
00000300: d3fe 033e f070 453d e8c2 4f3d 00f4 0c3a
00000310: 7b25 97bd ae98 ddbd b9a4 343e d0cd 64bc
00000320: 55a4 203e 191c 143e 5e50 bdbd d0dd 443c
00000330: bc35 39bd 805b 52bb fe9a ee3d 765b c73d
00000340: 58a2 cdbd ff23 b3bd c198 00be 3eb1 19be
00000350: f63e e83d d9b5 dfbd 0067 173b 00d0 7bb9
00000360: 78bd f73c f074 29bc 12e0 bb3d 60e1 c63c
00000370: 81ce 013e 784c 1c3d 807f 10bb c834 cd3c
00000380: e64c f13d 7093 da3c 560c ff3d c052 89bc
00000390: 80e7 c83a 1715 183e 12e6 2abe 9877 903c
000003a0: 5d56 253e e3ac b5bd d88f 05bd 307f 2ebc
000003b0: 8c8b 6e3d 8ed6 883d 4008 243d a8d0 8e3d
000003c0: c055 9bbd 1650 983d 8e97 65bd 6a7b e33d
000003d0: a281 54bd bc23 1abe c0d8 4e3c da62 bc3d
000003e0: 2006 e3bb 0062 163b 0034 243a 6225 c03d
000003f0: d09e 623c 2eb6 21be ba18 01be a033 2b3c
-0.009345174 -0.12436595 -0.17504874 0.0011634827 0.15897514 0.15931554 -0.10762543 -0.031402856
-0.14782834 -0.13805443 -0.048469767 0.17162521 -0.046118394 0.010227963 0.16630526 0.031502888
0.14260544 0.117466554 0.16576542 0.030315444 -0.14295618 -0.15207449 -0.09133658 0.14590724
0.10165231 0.05173835 -0.13462059 -0.13019687 0.14422314 -0.01835008 -0.17601138 -0.021853477
-0.042439595 0.0026665032 0.07398258 0.06802134 -0.13526575 -0.0019375384 -0.08760568 0.11957677
0.08753677 0.09702949 0.16071539 0.086833134 -0.17665152 0.04460606 -0.1213016 0.023606911
0.0018895268 0.17533086 -0.120777816 -0.17319895 -0.047390148 0.028486565 0.12949671 0.14333083
0.13614388 0.05580364 -0.050519317 -0.037378192 -0.096674375 0.034568787 -0.122937694 0.060776934
0.11416425 0.1500069 -0.17424208 0.14503993 -0.11104982 -0.014433801 0.16137485 0.09579618
-0.05607406 0.104356274 -0.17193949 0.13820057 0.17160036 -0.008027732 0.029093757 -0.04148057
-0.11190899 -0.07995834 -0.011739641 -0.14462356 -0.14287344 0.019400746 -0.115024105 -0.09615698
-0.0015287548 -0.093161836 0.16363312 -0.063816294 -0.09829317 -0.047094524 -0.1442274 0.091067925
0.15188573 -0.10194913 -0.06571568 0.16497998 -0.12787923 0.047878116 -0.14403148 -0.1573393
0.00026749074 -0.1008931 0.09573974 -0.05467803 0.0017417371 -0.09229129 0.07264371 0.16378765
-0.02657479 -0.10910843 -0.17241451 0.16939862 0.07450725 0.07300633 0.030097008 0.088703886
0.062775195 0.086315766 0.11055891 0.025066942 0.15226452 0.10992332 -0.005411461 -0.078956805
0.011718631 0.13767575 0.11198424 -0.07163423 -0.03690593 0.07018748 0.06660609 0.16833399
0.08584048 0.05631858 0.04085639 -0.16613449 -0.06512765 0.018709391 -0.122976914 -0.15488602
0.1192859 0.060122788 -0.14265275 0.010492057 0.10410781 0.10183661 0.16143401 -0.06989804
0.07871367 -0.14339812 -0.021805331 -0.11242918 -0.033661067 0.10063608 0.0881276 -0.092987135
-0.043835044 -0.035365105 -0.06725059 -0.09683729 0.12980683 0.12219323 0.14757805 -0.097070135
0.12945114 -0.053604193 -0.041532204 -0.04759431 -0.008595765 -0.07741025 0.0241756 -0.11393943
0.07270613 -0.14824897 -0.06408567 -0.12347069 0.11924811 0.121454135 -0.14060038 -0.096462
0.15821232 0.05151114 0.121724114 -0.13552707 0.07978363 0.11252554 -0.04101582 -0.008146077
0.12890176 0.04820341 0.050722986 0.0005376935 -0.07380196 -0.10820137 0.17640962 -0.013965085
0.15687688 0.14463843 -0.092438444 0.012015775 -0.04521726 -0.0032097995 0.11650656 0.09734242
-0.1004073 -0.087471 -0.12558271 -0.15009019 0.11340134 -0.109233566 0.0023102164 -0.00024014711
0.030241713 -0.0103428215 0.091735974 0.024277389 0.12676431 0.038158864 -0.0022048652 0.025049582
0.11782245 0.026681632 0.12453525 -0.016763091 0.0015327781 0.14851795 -0.16689327 0.017635152
0.16146226 -0.08870866 -0.032607883 -0.010650441 0.05823855 0.06681548 0.04004693 0.06973392
-0.07584715 0.0743715 -0.056052737 0.11107524 -0.05188144 -0.15052694 0.012624919 0.09198542
-0.0069282204 0.0022946596 0.0006263852 0.0938213 0.013831809 -0.15792152 -0.12607089 0.01044932

fc2.bias f4 [16]
00000000: 1d8a 2a3e ada2 053e d694 f03d 40b3 5b3c
00000010: 9068 043c a862 0cbe c069 933c b711 303e
00000020: b01c 193c fb89 21be dab5 c63d 2575 223e
00000030: 9fc1 173e 909a 083c 0c07 083d 105b ea3c
0.16654249 0.13050337 0.11747138 0.013409436 0.00808157 -0.1370951 0.017994761 0.17194258
0.009345219 -0.15775292 0.09702654 0.15865 0.14819954 0.008337632 0.033209845 0.028607875

fc3.weight f4 [1, 16]
00000000: 24d8 d1bd b069 15bd b2d8 503e 70f1 d03c
00000010: bc46 713e 4c00 2abe 98a7 15bd 00ff 3f3b
00000020: ea5c 18be 54a7 453e 14cb 323e 5016 0abe
00000030: 3088 613e 5eb6 6e3e 0e86 16be 8047 0dbc
-0.10246304 -0.036477745 0.20395163 0.025505751 0.2356214 -0.16601676 -0.036536783 0.002929628
-0.14879194 0.19302112 0.1746028 -0.13485074 0.22024608 0.23311755 -0.14699575 -0.008623004

fc1.weight f4 [16, 14]
00000000: 0fe4 7fbe 76db 8ebd c089 623e 8055 d73c
00000010: 9253 c6bd 76fb 13be 9e2b 89bd ba78 17be
00000020: d08e 96bc fe4f 7f3e de83 153e a2e5 b0bd
00000030: 280c 2a3e 9751 7ebe 007d 333b 704c 673e
00000040: d0f7 763d 5c70 5ebe 40ff 443d 9eae 283e
00000050: 90ff abbc 8a26 213e a66e 67be 10c1 3a3e
00000060: 1369 85be c477 ef3d 26b7 6abe 0ed0 a6bd
00000070: a8b0 cebc 64af 25bd 700a f4bc 1922 51be
00000080: 56d4 43be 36c4 2c3e b4a5 823d 907a e43c
00000090: 4006 3ebd 281f 8e3d 5890 6e3d 0808 6cbd
000000a0: d0a6 9e3c 7044 aa3c 8228 713e 802a 7abe
000000b0: c7dc 33be c0cb f5bd 90b7 ed3d 7a32 3abe
000000c0: 2667 04be 2eaa f0bd f085 bbbc 63cf 7fbe
000000d0: 580f 453d 24a5 4e3e 7638 2b3e c08f 55be
000000e0: fa0b a5bd c00c 0f3e 7cfb c33d e817 f43d
000000f0: a415 e53d 98e2 83bd 4eeb 343e 191b 803e
00000100: a46e ca3d 7073 34bd b0fe ed3d 26e4 3d3e
00000110: 9b77 58be 4001 973d 459c 02be 206e 5e3c
00000120: 5986 35be a8ac 4abd 009e 863a 6297 29be
00000130: c9e3 45be 9c44 ff3d 3a5e 06be 3463 3d3e
00000140: 8ede ffbd fad5 643e e0cb 103c 5e41 1fbe
00000150: 20a9 45bc c2e4 bbbd 18c9 433d 98ee e53d
00000160: 379e 7abe f8cd 263d 265d 113e 2490 f7bd
00000170: c0d4 a73b 9eb6 123e 49ab 54be 9e94 4b3e
00000180: 323c 65be 0ea4 a5bd 20e8 ac3d 2899 35bd
00000190: 2118 85be 3886 3abe 206f 62bc 4aec cbbd
000001a0: 840a 42bd e6a7 363e 6426 f1bd e0ef cd3c
000001b0: ae03 6cbe ae95 eabd a2fe 5c3e 04e1 e33d
000001c0: 8097 99bb c08f ddbd 701f 52be 266e 093e
000001d0: 96f0 f1bd 4093 13bc e5d7 23be 128e c7bd
000001e0: 20c2 2f3c f49e 25bd 480e 9cbc 689b 52bd
000001f0: c45e d53d 30ae 533d 22f1 753e 40a9 973c
00000200: be38 76be e000 5fbc 9a30 5f3e 58ec d3bd
00000210: e001 063c 40b3 6b3c a6b3 3ebe c545 823e
00000220: 2ee2 83bd 073f 4bbe 325f 42be a200 25be
00000230: c4f3 83be 7424 523e 72c7 743e 3a84 61be
00000240: 023a 1abe 20b8 043e 705a 92bd 1740 853e
00000250: 1d8f 0bbe 9e3a d5bd 5ec5 60be 4ef3 a9bd
00000260: ba86 393e 489e 2ebd f73b 7bbe 9c27 173e
00000270: f8cd 18be 2882 a23d 2d90 853e dc7d fc3d
00000280: 303e 643e a615 4dbe 9a06 4ebe 9b52 85be
00000290: c228 373e 280c 47bd d0f5 d13d e0a6 30be
000002a0: 6039 a23c daf7 7c3e a05a 383c 04f4 663e
000002b0: e04b 3abe 302c d73c 3c01 73bd 3e7e 79be
000002c0: 4398 0bbe 70b2 d5bc f132 83be 26be 423e
000002d0: fe53 1abe 40b3 68bc 003d 3cbb 3797 83be
000002e0: 7683 f7bd 2002 303d baba 9cbd fc52 213e
000002f0: c42c 9c3d 2470 ce3d 104a 1a3e 2850 383d
00000300: b887 70be 7c87 ee3d 006f 99bd 50cb 603d
00000310: 84a0 b83d 4071 9c3d ba51 463e 92c3 7d3e
00000320: d81a 49be 8edf febd 9c5c e93d 40cb bcbb
00000330: 58ab 773d db21 74be bca6 debd 8028 8ebb
00000340: ee4a 5f3e e80f 49be 98f3 793d 8092 073d
00000350: 4040 edbd 7893 ec3d a243 713e 061c 633e
00000360: 283f 79bd e025 48bc 405e 36bc 2e54 203e
00000370: 57b9 13be b045 883d 6e65 1d3e 066a 1c3e
-0.24989341 -0.069754526 0.2212286 0.026285887 -0.096839085 -0.14451393 -0.066977724 -0.14792147
-0.018378645 0.24932858 0.14601085 -0.08637549 0.166062 -0.24835812 0.0027387738 0.22587752
0.060294926 -0.21722549 0.048094988 0.16472861 -0.020995885 0.15737358 -0.22600803 0.1823771
-0.26056728 0.11692765 -0.22921428 -0.08145152 -0.02523072 -0.04045047 -0.029790133 -0.20423163
-0.19123968 0.16871724 0.063792616 0.027890474 -0.04639268 0.06939536 0.058243126 -0.057624847
0.019366652 0.020784587 0.23550609 -0.24430275 -0.17564689 -0.12001753 0.116072774 -0.18183318
-0.12929973 -0.11751209 -0.022891015 -0.24981456 0.048110336 0.20180184 0.16720757 -0.20855618
-0.08058925 0.13969707 0.09569451 0.11918622 0.11185768 -0.06439704 0.17667887 0.25020674
0.09884384 -0.044055402 0.116208434 0.18544063 -0.21139376 0.07373285 -0.12754925 0.0135760605
-0.17727031 -0.049481064 0.0010270476 -0.16561654 -0.19325174 0.12464258 -0.13121882 0.18494874
-0.12493621 0.2234725 0.00883767 -0.1555228 -0.012064248 -0.091744915 0.0477992 0.11227149
-0.24474417 0.04072377 0.1419569 -0.120880395 0.0051217973 0.14327475 -0.20768465 0.19880912
-0.22386244 -0.080879316 0.08442712 -0.044335514 -0.2599497 -0.18215263 -0.01382044 -0.09957178
-0.04737331 0.17837486 -0.117749006 0.025138795 -0.23048279 -0.114543304 0.2158151 0.11126903
-0.0046872497 -0.10818434 -0.20519805 0.13420925 -0.11813466 -0.009007275 -0.16000326 -0.09743895
0.010727435 -0.040434793 -0.019049779 -0.05141774 0.10418466 0.05167979 0.24017766 0.018513322
-0.24045083 -0.013611048 0.21795884 -0.10347813 0.008179158 0.014385998 -0.18623218 0.25443855
-0.06439625 -0.19848262 -0.18981627 -0.16113523 -0.25771916 0.20521718 0.23904207 -0.22023097
-0.1506119 0.12960863 -0.07146156 0.2602546 -0.13628812 -0.10411571 -0.2195029 -0.0829836
0.181178 -0.042631418 -0.24534594 0.14761204 -0.14922321 0.079349816 0.2608656 0.12328693
0.22289348 -0.2002779 -0.20119706 -0.26039585 0.17886642 -0.048595577 0.10251963 -0.17251158
0.01980275 0.24703923 0.011252075 0.22554022 -0.18193007 0.026266187 -0.05932735 -0.24364564
-0.13632302 -0.026086062 -0.25624803 0.19017848 -0.15071103 -0.014202893 -0.0028722882 -0.25701305
-0.12085621 0.042970777 -0.07652803 0.15754312 0.07625726 0.10079983 0.15067315 0.044998318
-0.23489273 0.11646935 -0.07491875 0.054881394 0.09014991 0.07638788 0.19367114 0.24781635
-0.19639146 -0.124449834 0.11394617 -0.005761534 0.06046614 -0.2384104 -0.10871646 -0.004338324
0.21805927 -0.19634974 0.061023325 0.033098698 -0.1158452 0.11551565 0.23560956 0.22178659
-0.060851246 -0.012216061 -0.011130869 0.15657112 -0.1442617 0.06653917 0.15370724 0.1527482

fc1.bias f4 [16]
00000000: 182d dcbd be4f 1c3e 1a85 68be 7cd4 a8bd
00000010: 1896 5c3e e44a febd 60ed 223c d951 813e
00000020: c05f 053d 00c7 d5ba c4c8 843d 96d1 42be
00000030: 56e7 86be 3c65 013e 50ce eabc 0059 f83d
-0.107507885 0.15264794 -0.22707024 -0.08243653 0.21541631 -0.12416628 0.00994429 0.25257757
0.032562017 -0.0016309917 0.064836055 -0.19025263 -0.2634837 0.12636274 -0.02866283 0.121263504

fc2.weight f4 [8, 16]
00000000: 605e 51bc 7a6c 393e b0e2 34be 6e37 03be
00000010: 6c8e 62be 7852 53be d607 463e 40ff 5abd
00000020: ced9 00be 7cef a2bd e07e aabc c87a 9bbd
00000030: 046b 73be 5ca6 2e3e 4066 66bc f24d 38be
00000040: 8c6f 923d 1058 a0bd cc42 8abd f068 4bbe
00000050: b43f 7abe c428 993d 1479 64be 1c10 263e
00000060: 2810 68be 7827 03bd a6b3 46be 0e4d 32be
00000070: 8eca 54be 28b5 10be 7087 813c 509f ee3c
00000080: cc22 eabd f057 193e a4d0 c1bd 6036 b7bc
00000090: 3e62 063e e234 6b3e 7467 593e 02a7 70be
000000a0: d26f 33be 28c9 2e3d 00eb 35bb ba65 433e
000000b0: da42 0c3e 4ea3 3abe a279 6c3e 80a7 983d
000000c0: 34f1 023e 907e 3cbd dafc 3a3e dc58 2ebe
000000d0: 60f4 e13d 4ea5 7d3e 2cf7 943d 6467 b2bd
000000e0: c010 073c d4d2 393e 789f 14be 4096 ffbd
000000f0: 3881 233d 485b debd aca3 8bbd f4ba b7bd
00000100: 9210 0c3e 3856 5cbe d097 5bbe 8e81 473e
00000110: 003f 0fbd e8e5 60be 58bd f43d 7e50 23be
00000120: 20af 64bc 0476 1b3e 383a 10be 40d8 44be
00000130: a050 0f3d f449 fbbd 586d 6fbd bc88 3a3e
00000140: 182d 573d 447c 923d de29 67be 9244 1ebe
00000150: aa3a 31be 68a5 793e 8466 c0bd 32a2 763e
00000160: ce20 7c3e 4e96 1cbe 743e da3d 34b5 cabd
00000170: 8628 763e 5eb9 383e e077 903d 2843 053e
00000180: 087c 0cbd c8d9 03bd 88f1 09bd e027 ebbd
00000190: d224 57be 701c 07bd 1021 9bbd 7022 513e
000001a0: 12d9 693e a44f 64be 8810 4bbe fcb2 fbbd
000001b0: 1003 7abe b048 95bc f872 863d b08e d9bc
000001c0: 6838 783d 50f3 2cbd cad1 77be cebc 10be
000001d0: 1231 78be de6c 11be 3a3c 15be 400d 3b3e
000001e0: 8cdc b1bd c0cc 4fbd e45d 46be acb0 a8bd
000001f0: a0a1 093d c8bc 603d e017 683e bcf3 d33d
-0.012778848 0.18107787 -0.176646 -0.12814113 -0.22124642 -0.20636928 0.19338927 -0.05346608
-0.12583086 -0.07955834 -0.020812452 -0.07591778 -0.23771292 0.17055649 -0.014062464 -0.17998484
0.07150182 -0.078292966 -0.06751022 -0.19864249 -0.24438363 0.074784786 -0.22311813 0.16217083
-0.22662413 -0.032020062 -0.19404468 -0.17412207 -0.20780393 -0.14131606 0.015811652 0.0291287
-0.11432418 0.14974952 -0.09463623 -0.022364795 0.13123414 0.22969392 0.2123087 -0.23501208
-0.17523125 0.042672306 -0.002775848 0.19081774 0.13697377 -0.18226358 0.23093274 0.07453823
0.12787324 -0.046019137 0.18260518 -0.17026085 0.11032939 0.2477009 0.07273707 -0.087111264
0.00824374 0.18146831 -0.14513958 -0.1247983 0.039918154 -0.10857254 -0.06818327 -0.08971205
0.13678196 -0.21517265 -0.2144463 0.19483015 -0.03497219 -0.21962702 0.11950177 -0.15948674
-0.013957769 0.15181738 -0.14084709 -0.19223118 0.034989 -0.12269965 -0.058453888 0.18216223
0.05253324 0.07152608 -0.22574565 -0.15455845 -0.17307535 0.24379504 -0.09394553 0.2408531
0.24621889 -0.15291712 0.10656443 -0.09897843 0.24038896 0.18039462 0.07054114 0.130139
-0.034297973 -0.032190114 -0.033677608 -0.11482215 -0.2101014 -0.032986104 -0.075746655 0.20423293
0.22836712 -0.22296005 -0.19830525 -0.12289998 -0.24415231 -0.018223137 0.06564897 -0.026557297
0.06060067 -0.04222423 -0.24201122 -0.14134523 -0.24237469 -0.14201686 -0.14573756 0.18266773
-0.08684644 -0.050732374 -0.19371754 -0.082368225 0.033601403 0.054867536 0.22665358 0.10349223

fc2.bias f4 [8]
00000000: 40a4 aebc a60a 3d3e 1412 11be c063 c5bc
00000010: 60c7 4d3d 642b 913d a00f abbd d0de e53c
-0.021318555 0.18461093 -0.14167053 -0.024095416 0.050238967 0.07088354 -0.083525896 0.028060347

fc3.weight f4 [2, 8]
00000000: d4ae 123e 0053 aebc a87f ebbd cf99 a4be
00000010: 47b9 5abe 1a5b b4be 34b5 8abd daf4 8fbe
00000020: c3ad 22be fb77 8e3e e0bf a9be cecf 703e
00000030: 2025 16bc dd4b 43be 750c a93e f5cd 963e
0.14324504 -0.021279812 -0.11498958 -0.32148597 -0.2135974 -0.35225755 -0.06772843 -0.28116494
-0.15886597 0.27825913 -0.33154202 0.23516771 -0.009164125 -0.19071908 0.33017316 0.29454008

fc3.bias f4 [2]
00000000: 87f6 4abe 20be 663c
-0.19820605 0.014083415

fc1.weight f4 [32, 20]
00000000: 9005 bdbd 9825 55be d08e ed3d e015 f93d
00000010: 2279 433e 942e 0abe 44f9 75bd 204c f13d
00000020: f2da ffbd 86e0 473e 4063 963b b806 213d
00000030: e0d2 a53d c61d 093e 10a4 6c3d 246b 06be
00000040: 2054 4d3e c972 cabd 109f e33c aecb 63be
00000050: ea09 c4bd 06ca 263e 4090 db3c 0871 a53c
00000060: b0d6 afbd 1f15 3abe 7a9e 2b3e 866b 1cbe
00000070: 2ea0 253e d45d 03be 14c4 3b3e a038 083c
00000080: f858 12be ba1f 613e 9e6d 383e 91c5 f3bd
00000090: 3ffd 04be 5435 80bd a036 8bbb 3e00 1e3e
000000a0: 49eb 0bbe 7cf0 dd3d d657 4b3e 202a 9e3d
000000b0: 7e2e acbd 5a5f 583e 5080 aabd e000 163d
000000c0: f385 1ebe 6ca6 bb3d e67a 60be d4ec a43d
000000d0: 50ec 25be 34db 58be 5629 afbd 0e23 283e
000000e0: b86a d43d 1452 3cbe cccb f03d b0f5 68bd
000000f0: 1a9b d8bd 7770 59be a86a e3bd 361d 573e
00000100: c444 0dbe 0e97 1f3e 7cd7 9fbd 689b 53be
00000110: 28e8 07be 88f9 9e3d 905f cc3d f060 3e3d
00000120: 68de 7d3d f611 9abd 6033 02bc b0f8 6e3d
00000130: 6068 edbc 245a 353e ba62 473e 109f 4b3e
00000140: 0a51 4e3e b62a 5ebe 0c76 8fbd 7043 173e
00000150: f4f1 153e 68b1 b13c ecd4 8d3d e0e8 f43c
00000160: 2062 0c3d 9add 9ebd a8ed adbc dc2d e93d
00000170: f212 583e 40ef 54bd 7eba 173e 10ff 5c3e
00000180: 7880 5e3d 6a00 3c3e 8cb8 ee3d cd06 48be
00000190: 1e71 0bbe bc4f b33d 48db b3bd e2f2 8bbd
000001a0: 7483 80bd 6c58 3bbe 806c 3dbc 28e2 233d
000001b0: c4ed 14bd c53c 14be 9457 1dbe 6639 3f3e
000001c0: dcc2 443e 6ef9 dbbd d5ac 1cbe 04cd 41bd
000001d0: 9b64 04be 2586 5fbe e8de 27be 505b 443e
000001e0: 0cc9 64bd 12cb 2d3e 1884 b53d d00c 84bc
000001f0: 08d2 a7bd fef4 1c3e e05f 63bd eadc 17be
00000200: 9498 b03d 7a08 d3bd 4455 d93d 7097 743d
00000210: 6261 47be 4bec dbbd 4883 163d e01d e73b
00000220: e81f 2b3d f00b 51bc c0ca 50bd cc45 0abd
00000230: 3c71 dc3d 38e7 b6bd 2e79 98bd 0086 503e
00000240: 960b 553e 6a3b 273e 02f6 443e 386e 16be
00000250: ccb9 78bd 32ee 27be cc8e c5bd 7cf2 ee3d
00000260: d0d6 553e 26bf 59be 3634 1e3e e4b1 b6bd
00000270: 5afa 363e c8cb 423d 920c 11be 5abe 163e
00000280: 60ec 0dbe 64dc bdbd 9024 e7bd e0a7 cb3d
00000290: a4e7 a93d 3fc8 f1bd 5897 08be a084 183d
000002a0: 1c49 d23d 1854 dd3d cb15 3abe 08ad 9b3d
000002b0: 39c4 4ebe fcd9 35bd 9801 91bc 00a9 4fbe
000002c0: 6277 053e cc60 27be c0f3 2b3d be55 e7bd
000002d0: 006f dc3d 380c 823d 4c67 d43d 6010 babc
000002e0: 6b48 cdbd 308a b1bd 245d 263e 9820 593d
000002f0: 10fc d0bd 0e6d e7bd 8c36 4bbd cc2d aebd
00000300: 34c1 abbd 7843 563e 13a8 efbd 6426 633e
00000310: 7ce8 3d3e b80f 08be 7811 cb3d bfe0 4fbe
00000320: 702e bb3c fcca 15be 9bb9 14be d421 873d
00000330: 2452 c43d 2048 68bd 504b e4bc 4cdf a23d
00000340: 5e48 5bbe 00a3 0f3c 8161 5dbe 8ef8 98bd
00000350: 4200 473e 646d a3bd 76e0 c9bd 581a 56be
00000360: 604f 5e3e 042a a43d 96c3 30be 9c00 56bd
00000370: 22af 383e a716 5cbe 1088 a33c 45c7 28be
00000380: abb3 2cbe 184f 44bd 7c93 b43d 2f94 62be
00000390: 20e7 fcbd 2412 37be 508b 3dbd 192b d5bd
000003a0: 88ee f73d 0010 1f3a a0cf edbc 8327 48be
000003b0: 60fb d23b 540b 5ebe b440 4dbe 2432 bb3d
000003c0: 3ec1 63be 5000 2c3c b00f 5c3d f0a6 5ebc
000003d0: 6cc2 193e ccac 47bd 3832 1f3e 6afb 01be
000003e0: 46a2 35be 2fb8 16be 6004 fa3d b89a a53c
000003f0: d877 dfbc f8bd c7bc ccc0 b9bd f845 3a3d
-0.092295766 -0.20815122 0.11599505 0.121623755 0.19089177 -0.1349433 -0.06005217 0.11782098
-0.124929324 0.19519243 0.0045894682 0.039313048 0.08096862 0.13390264 0.05777365 -0.13126808
0.20051622 -0.09885175 0.027785808 -0.22245666 -0.095722035 0.16288003 0.026802182 0.020195499
-0.0858587 -0.1817212 0.16759673 -0.15275392 0.16174385 -0.12828761 0.18336517 0.008314282
-0.14291751 0.21984759 0.18010566 -0.11902917 -0.1298723 -0.062601715 -0.004248455 0.1542978
-0.13663973 0.108368844 0.19857726 0.077228785 -0.08407305 0.21130124 -0.08325255 0.03662193
-0.15480785 0.09162602 -0.21921882 0.08052984 -0.16203427 -0.2117737 -0.08552806 0.16419622
0.103719175 -0.18390685 0.11757621 -0.05687493 -0.10576458 -0.21234308 -0.111043274 0.21007237
-0.13795763 0.15584967 -0.07804772 -0.20664752 -0.13272154 0.07762438 0.099791646 0.046479166
0.06197968 -0.07522957 -0.007946819 0.058342636 -0.028980434 0.17710167 0.19471255 0.19884896
0.20148101 -0.2169598 -0.070049375 0.14771819 0.14643079 0.02169104 0.06925377 0.0298962
0.034273267 -0.07757111 -0.021231487 0.113857 0.21100977 -0.05198598 0.14817235 0.21581674
0.054321736 0.18359533 0.11656293 -0.19533844 -0.1361737 0.087554425 -0.08782059 -0.068334356
-0.06275073 -0.18295449 -0.011561513 0.0400106 -0.036359563 -0.14476307 -0.1536544 0.1867424
0.19214958 -0.10740934 -0.15300305 -0.04731466 -0.12929003 -0.21828516 -0.16393626 0.19175458
-0.055855796 0.16971996 0.088630855 -0.01611939 -0.08194357 0.15327832 -0.055511355 -0.14830366
0.08622852 -0.10304351 0.10611966 0.059714735 -0.19470742 -0.10738429 0.036746293 0.007053122
0.041778475 -0.012759194 -0.050974607 -0.03375797 0.10763785 -0.0893082 -0.07444988 0.20363617
0.20805201 0.16331258 0.1923447 -0.14690483 -0.060724065 -0.16399458 -0.09646377 0.11667344
0.20882726 -0.21264324 0.15449604 -0.08920649 0.17868939 0.047557622 -0.14164951 0.14721051
-0.13859701 -0.09270552 -0.112862706 0.09944129 0.08296135 -0.11805772 -0.13338983 0.037235856
0.10267851 0.10807055 -0.18172376 0.076013625 -0.2019204 -0.04439734 -0.017700955 -0.20279312
0.13033822 -0.16345519 0.041980505 -0.11295651 0.10763359 0.06349987 0.10371265 -0.022712886
-0.10023578 -0.08668935 0.16246468 0.0530096 -0.10204327 -0.113000974 -0.049612567 -0.08504829
-0.0838646 0.20924175 -0.117019795 0.22182614 0.18545717 -0.13287246 0.09915441 -0.20300578
0.022849292 -0.14628214 -0.14523928 0.06598249 0.095859796 -0.05670941 -0.027867943 0.07952747
-0.21414325 0.00876689 -0.21619226 -0.07469283 0.19433692 -0.07979849 -0.09857266 -0.20908487
0.21709967 0.08015826 -0.1726211 -0.052246675 0.18035558 -0.21493016 0.01996234 -0.16482265
-0.16865413 -0.047926992 0.08817193 -0.2212684 -0.12348771 -0.17878014 -0.046275437 -0.10408611
0.12106043 0.0006067753 -0.029029667 -0.19546323 0.0064386576 -0.21684009 -0.20044214 0.09140423
-0.22241685 0.010498121 0.0537259 -0.013589606 0.15015572 -0.048748776 0.155465 -0.12693563
-0.17737684 -0.14718698 0.12207866 0.020215377 -0.027278826 -0.024382576 -0.09069976 0.045476884

fc1.bias f4 [32]
00000000: 6fa4 52be f15b cdbd 0c26 d2bd 04fb 5d3e
00000010: 8c19 e5bd 4079 bdbb f8f1 82bd 313d 34be
00000020: 64ff 813d 4387 28be 404d ae3d 64d0 b9bd
00000030: 484d ca3d 1c82 163e baff 2f3e 7867 573e
00000040: 14f3 43bd 6cf7 62be 4c09 95bd b3ed 5cbe
00000050: 5014 183d a4d0 4ebe e827 15bd c49d 3c3e
00000060: d002 00bc 8008 7b3b a670 543e eaff e2bd
00000070: c847 54be ecf8 f23d 4ca3 1b3e 408d 99bc
-0.20570539 -0.10027302 -0.10261163 0.21677786 -0.11186513 -0.0057822764 -0.06393808 -0.17601468
0.0634754 -0.16457848 0.08510828 -0.090729505 0.098780215 0.1469807 0.17187396 0.21035564
-0.04783924 -0.22164696 -0.07277164 -0.2157505 0.037128747 -0.20196778 -0.03641501 0.18419558
-0.007813171 0.0038304627 0.20746097 -0.11083968 -0.20730507 0.11863884 0.15199012 -0.018744111

fc2.weight f4 [16, 32]
00000000: 2026 0fbe 4808 1c3d 58b4 5d3d 1027 fbbd
00000010: b3ad a3bd 8011 833a 5279 d63d 00d4 64ba
00000020: 9935 2b3e 51fb 293e 780c 373d af43 ddbd
00000030: 7742 afbd 5c7d 3ebd a01a 7e3c 3a64 debd
00000040: 3260 2cbe f40e 58bd fd4d 03be 7839 703d
00000050: 658f c0bd 66d2 59bd 26eb 993d 1853 163d
00000060: c024 003b 22fe cd3d ab77 00be 2c41 3d3d
00000070: 503b 563c 8709 2dbe c08c 553d f7d3 f2bd
00000080: 34ac 3abd 6e45 aabd 67ea 29be 3219 ea3d
00000090: 2a2e d63d 2868 aa3c 693f ebbd 1540 223e
000000a0: 1b3f 81bd 42ad f9bd 28aa 04be e03d cc3c
000000b0: 2d9f d0bd a8f9 cfbc 95e1 2fbe 88e0 3dbd
000000c0: fe80 29be 583a 01be eaa6 13be e133 e6bd
000000d0: 6d22 123e 3e8f 61bd bd13 f3bd 2d6a 2c3e
000000e0: 60dc 793c 7af7 13be d8aa 0cbe 2005 9d3c
000000f0: 2a72 ffbd 0c80 943d 4c5e 1abe 3f18 22be
00000100: 466f cc3d 2072 9cbb 48a3 663d c050 4abd
00000110: 2ac8 fdbd 4a93 f03d 3899 f3bc 0f81 073e
00000120: 682c 46bd bc4b 19bd 0410 25bd a5e4 cfbd
00000130: 0489 0d3d 4c6f 363d 4100 91bd 03be ddbd
00000140: b3fd 0e3e 8082 02bc 8834 e43c 52ea d2bd
00000150: 9358 013e f12c 153e b0b1 1c3d 77b0 203e
00000160: 72cb d23d c3e4 113e 156f b7bd f037 83bd
00000170: 0860 e9bc c6c7 b6bd 3658 ba3d 6f9b c7bd
00000180: 647d 763d a6b9 c53d 140b 06bd 33b8 243e
00000190: 6be3 a9bd 8e04 9f3d caa6 f53d bda0 dabd
000001a0: 00d3 12bb 1f36 0c3e ca03 10be b085 bbbd
000001b0: c151 32be c206 fc3d c275 f43d 983b f23c
000001c0: c400 013d af63 2ebe defd a33d b148 aebd
000001d0: e628 c23d dcd2 e8bd ba7f f5bd 2e47 fe3d
000001e0: 98b8 4c3d c467 52bd 9ef2 e9bd 0fa1 1ebe
000001f0: f2ed fe3d 24f0 76bd 98c5 1c3d 1a84 d73d
00000200: 44df 32bd 1320 aabd 7ecc c9bd 9080 773c
00000210: 48d6 9abc 00c7 943a f035 3a3d 9843 22be
00000220: f608 b73d e88f e4bc c31b 1cbe a70b 83bd
00000230: 0005 3c3b f3f3 1d3e c7f7 2f3e 96dd 87bd
00000240: e2ca f6bd 192f 0d3e 75aa 123e becb d13d
00000250: 904b 27be 78d9 f33c e0be 233d 5cda 583d
00000260: 9d9f f9bd d0cf 6e3c 3bdb 8ebd 4a75 e23d
00000270: c50e eebd 3b2d 193e d8a2 4b3d 7090 2f3d
00000280: 6150 a4bd 60db 29bc 7833 343d 0b69 09be
00000290: e800 c33c 7e72 c33d 689a 903d 7da6 173e
000002a0: bf03 b7bd dc33 34be a4a1 8dbd 7c27 cdbd
000002b0: 6a1c cf3d 9841 5d3d 2b5f 2cbe ac7e ffbd
000002c0: 47eb 22be dc27 6d3d 7c3b 363d a004 5b3c
000002d0: 74f7 4cbd c71b 1e3e 15cd 0a3e d797 23be
000002e0: 5565 e4bd fc15 413d 4e96 f6bd b06f d83c
000002f0: 4078 1d3d c477 04be 02a5 fa3d d074 ecbd
00000300: 2507 e2bd 1036 efbc 7c7e a2bd 307d 6b3c
00000310: d49f e1bd 56e4 e33d fa1b 2bbe b2a3 67bd
00000320: 0466 3b3d 78c5 5a3d e61f b43d 644e 44bd
00000330: 9437 053d a767 16be 100b 6dbd 60f9 c93b
00000340: 2826 23be e2d5 c7bd 10d5 403d c6af 1ebe
00000350: 9740 043e 6ce5 adbd deac 8fbd 4e30 d63d
00000360: 4cff 50bd 7421 3e3d d192 1e3e 6f0b 0b3e
00000370: 3390 123e def7 1cbe 9926 293e 2842 743d
00000380: 984f 683d 74eb 3dbd a9ea d0bd 1bd1 02be
00000390: e03f 3d3c 1c90 0bbe a3e7 2dbe c523 023e
000003a0: 54d7 86bd 4c25 1cbe cbdd 2ebe 30c4 173d
000003b0: e818 edbd 9a1f 5abd 9152 e5bd 56e6 a9bd
000003c0: aa54 c63d fbf8 343e 8ed2 bd3d 20d6 363c
000003d0: 70b4 813c 2200 0dbe 4c70 56bd 8aae cb3d
000003e0: b8fe f5bd 7e5e c63d 99fd d4bd 65f5 24be
000003f0: 10d7 7d3d e340 2a3e b303 293e 18ff f3bd
-0.13979387 0.038093835 0.054127067 -0.1226331 -0.07992115 0.0009999722 0.10472359 -0.00087291
0.16719665 0.16599776 0.044689626 -0.10803925 -0.08557599 -0.04650627 0.015509278 -0.108589604
-0.1683357 -0.052748635 -0.12822719 0.058648556 -0.0940235 -0.053179167 0.07515554 0.036700338
0.0019553155 0.100582376 -0.1254565 0.04620473 0.013075665 -0.16898166 0.052136183 -0.11856835
-0.045574382 -0.08314024 -0.16593324 0.11430587 0.10458024 0.020801619 -0.11486704 0.15844758
-0.063108645 -0.121912494 -0.12955534 0.024931848 -0.1018661 -0.0253876 -0.17175896 -0.046356708
-0.16553113 -0.12619913 -0.14419141 -0.11240364 0.14270945 -0.055068247 -0.11868999 0.16837378
0.015250295 -0.14449874 -0.13737047 0.019167483 -0.12472947 0.072509855 -0.15075034 -0.15829562
0.09982161 -0.004774347 0.05630806 -0.049393415 -0.12391694 0.11746843 -0.029736146 0.13232826
-0.048382193 -0.03742574 -0.040298477 -0.10151032 0.034554496 0.044539735 -0.070801266 -0.108272575
0.13963966 -0.007965684 0.02785708 -0.10298599 0.12631445 0.14567925 0.038255394 0.15692316
0.1029271 0.14247422 -0.08956734 -0.064071536 -0.028488174 -0.089248225 0.09098856 -0.097464435
0.060178176 0.0965455 -0.03272541 0.16085891 -0.0829533 0.077645406 0.11994703 -0.1067519
-0.0022403598 0.1369252 -0.14063945 -0.09156358 -0.17413999 0.123059765 0.11936523 0.029569432
0.03149487 -0.17030214 0.08007406 -0.085099585 0.09480457 -0.11368343 -0.119872525 0.1241592
0.04998073 -0.05136849 -0.11423229 -0.15491126 0.12447728 -0.06028761 0.038274378 0.10523243
-0.043669954 -0.08306899 -0.09853457 0.015106335 -0.018901005 0.001135081 0.045461595 -0.15846097
0.08937256 -0.027900651 -0.15244965 -0.06398707 0.0028689504 0.1542509 0.17184363 -0.06634061
-0.120504156 0.13787498 0.14322837 0.10243939 -0.16337419 0.029766783 0.039976954 0.05294262
-0.12188647 0.014575914 -0.06975409 0.11057527 -0.11623911 0.1495866 0.049715847 0.042862356
-0.080231436 -0.0103672445 0.043994397 -0.13418977 0.023804143 0.09543322 0.07060701 0.14809604
-0.089362614 -0.17597908 -0.06915596 -0.10017297 0.101128414 0.054017633 -0.16833179 -0.124753326
-0.15910064 0.05789934 0.044490322 0.013367802 -0.050040677 0.15440284 0.13554795 -0.15975891
-0.1115214 0.047140107 -0.12040387 0.026420444 0.038444757 -0.12936312 0.12238504 -0.11545718
-0.11036519 -0.029200584 -0.07934281 0.014373109 -0.11016813 0.11127536 -0.16709891 -0.056552596
0.045751587 0.053410977 0.08795147 -0.04792632 0.032523707 -0.14687978 -0.05787188 0.006163761
-0.15932524 -0.09757592 0.047078192 -0.1549674 0.12915264 -0.084910244 -0.07015394 0.10458432
-0.05102472 0.046418622 0.15485694 0.1357858 0.1431282 -0.15328929 0.1651863 0.059633404
0.05671653 -0.046367124 -0.10201008 -0.1277508 0.0115508735 -0.13629192 -0.16982894 0.12708957
-0.06584039 -0.15248603 -0.17076795 0.037052333 -0.11577016 -0.053252794 -0.11197389 -0.08295886
0.09684117 0.17673104 0.09268676 0.01115945 0.01583311 -0.13769582 -0.05235319 0.099454
-0.12011474 0.09685992 -0.103999324 -0.16109236 0.061972678 0.16626315 0.16505317 -0.1191389

fc2.bias f4 [16]
00000000: b9de 2d3e 22ff c93d f6a6 e93d 596c c5bd
00000010: 202c d3bd 2491 6d3d 4072 103b 599a 043e
00000020: 035d 1f3e e740 103e 9cb8 553d 0c75 ecbd
00000030: 5027 523c 9816 bb3c c0d5 dcbd b089 b1bc
0.16979493 0.09863116 0.114087984 -0.09639806 -0.103111506 0.057999745 0.0022040755 0.12949504
0.15562825 0.14087258 0.05217801 -0.115457624 0.012826756 0.022837922 -0.10782957 -0.0216721

fc3.weight f4 [1, 16]
00000000: 48d3 043d 8c14 34be e0ab e63c ac6b 66be
00000010: 2471 053e 0ab4 07be e817 bd3d 30e6 0bbd
00000020: 0a4b 19be 2c01 833d e885 3fbe 3888 1e3e
00000030: 5036 8e3c 6875 5d3d 62ca 213e f038 2b3e
0.032428056 -0.17585963 0.028158128 -0.22502011 0.13031441 -0.13252273 0.092330754 -0.03415507
-0.14970031 0.06396708 -0.18703425 0.15481651 0.017359883 0.054067045 0.15799859 0.16720939
