cross-entropy/checkpoint.pth (torch_old, 978 bytes, 3 tensors)

fc1.weight f4 [16, 2]
000000 cd a3 95 3f 19 fc 5e 40 eb 9f b5 3f b8 c7 7b 3f
       1.1690613 3.4841368 1.4189428 0.9835162
000010 27 da 6b 3f 3b b7 19 bd e2 d0 7a 3f 2c 69 14 40
       0.9212975 -0.037528258 0.9797498 2.3189192
000020 98 50 5b bf 8c e5 e0 40 93 37 90 bd 67 9d 75 bf
       -0.8566985 7.028021 -0.0704185 -0.959433
000030 7b e5 6b bf e6 2e f3 3e 60 70 7b be 96 5b 95 3f
       -0.92147034 0.47496718 -0.24554586 1.1668575
000040 cd c5 db 3f a3 8a 46 3f 0b c7 1d bf ac 4d 70 40
       1.7169739 0.7755529 -0.6163184 3.7547407
000050 29 b5 29 c0 dc 5e d6 be ef ba 85 3e 28 06 fe 3c
       -2.6516821 -0.41869247 0.26119182 0.031008795
000060 94 66 0c bf c3 71 88 40 e6 bd 14 c0 ac 00 bf 3e
       -0.5484402 4.263887 -2.3240905 0.373052
000070 08 d4 96 40 9d 28 1e c0 ff 55 7f 40 5a 4e 5d c0
       4.7133827 -2.4712288 3.9896238 -3.4579072

fc1.bias f4 [16]
000000 41 cd 18 3f 52 2d 34 c0 96 b0 71 c0 0d 82 8e 3b
       0.5968819 -2.8152661 -3.776403 0.0043489994
000010 2f fb 8b bd 93 49 b1 be ec 44 2e bf 91 18 b5 bf
       -0.06835019 -0.34626445 -0.68073916 -1.4148122
000020 3d c4 7d 3f 37 60 1a bf f4 76 6c c0 12 5b 06 bf
       0.9912756 -0.6030306 -3.6947603 -0.5248271
000030 61 44 6a be 4e 41 5b c0 95 5d 9f bf 6c da 89 bf
       -0.22877647 -3.425861 -1.2450434 -1.0769782

fc2.weight f4 [1, 16]
000000 6d 63 e4 3f 01 88 25 3f ec 8c 11 3c 6a 86 40 be
       1.7842842 0.6466065 0.008883696 -0.18801275
000010 73 a0 3f 40 30 60 73 bf d5 f5 13 40 6a d5 57 3e
       2.994168 -0.95068645 2.3118794 0.21077505
000020 8d 96 b0 3f 43 db 2e bf 05 cd a7 3f 3e 8b 0f 3f
       1.3795944 -0.68303317 1.3109442 0.5607184
000030 a4 6a d4 3f d6 f6 9b 3f 82 05 67 40 59 f7 26 c0
       1.6595044 1.2184703 3.6097112 -2.608847
