convolutional-pytorch/saved_models/model_1.pt (torch_old, 28723 bytes, 6 tensors)

conv1.weight f4 [10, 1, 3, 3]
000000 57 29 02 3e ba 9b 9d 3d ae 37 ce be 75 5c 25 bd
       0.12711082 0.07695718 -0.40276855 -0.040371377
000010 b0 77 fd be 04 c1 00 bf 62 11 a2 3e bf c5 c4 3c
       -0.49505377 -0.5029452 0.31653887 0.024020074
000020 1d d4 14 be e4 99 ea 3e f3 e4 12 3e ce 0b 07 3f
       -0.1453404 0.45820534 0.1434515 0.5275239
000030 58 7b a5 3e c6 02 21 3f 44 f2 2c be fa e7 b2 3c
       0.32320666 0.62894857 -0.16889292 0.02183913
000040 5c eb d6 3d 00 ca ce 3e 1f d1 30 3e 2c 81 46 3f
       0.1049411 0.4038849 0.17267273 0.7754085
000050 f6 41 12 3e 7b 9a aa 3e bf 06 e1 3e 61 56 9f 3e
       0.14282975 0.33320984 0.4395046 0.3112059
000060 99 ba 21 be 6d 6e 1b 3e 50 b4 d9 3e 74 3c 54 3e
       -0.15793838 0.15178843 0.4252038 0.20726186
000070 c2 b3 70 be 33 5d c2 bd a5 80 05 3d ae 75 d7 3d
       -0.23506072 -0.094904326 0.032593388 0.105204925
000080 92 00 5a be 29 9c 93 3e b0 5f 5b 3e df 42 33 be
       -0.2128928 0.28830078 0.2142322 -0.17505978
000090 41 1d 22 3e 19 5d ed 3d 2b 09 d2 be 74 73 ed 3e
       0.15831472 0.115900226 -0.4102262 0.46377146
0000a0 94 22 4c be f0 52 21 be 11 11 e3 bd 95 e3 f4 bd
       -0.19935066 -0.15754294 -0.110872395 -0.1195747
0000b0 3c ff 1d bf 23 44 ea 3e f1 01 84 3e 90 4d 1a 3e
       -0.6171758 0.4575511 0.2578273 0.1506865
0000c0 d8 36 e1 bd a5 83 f1 3d a7 b0 08 3f fd 54 51 be
       -0.10996789 0.11792687 0.5339455 -0.20442577
0000d0 cc 19 31 3f af ca e0 3e 47 22 e5 3d ae 57 d3 3e
       0.6917999 0.43904635 0.111881785 0.41277832
0000e0 da 11 00 3f 3b fa f0 3e 00 21 0d 3e a6 d2 8b bd
       0.5002724 0.4706591 0.1378212 -0.068272874
0000f0 96 47 f1 3e bd de ca 3d bb df 70 bc 13 3f 3f 3e
       0.47124928 0.09905765 -0.014701779 0.18676405
000100 4c 27 09 3f a2 25 09 3e 45 03 22 3f 61 e6 db bc
       0.5357559 0.13393262 0.6328624 -0.026843252
000110 68 6c c6 bd 6d da de 3e 57 4f f7 bd 4b e7 04 bd
       -0.096886456 0.4352602 -0.1207568 -0.03244714
000120 ea a4 cb 3e af c6 23 3e 5b 97 6e 3e ba b3 21 be
       0.39774257 0.1599376 0.23299925 -0.15791216
000130 a0 8c 36 3f 15 cd 14 3f 8b 33 ac 3d 74 61 a0 3e
       0.71308327 0.5812543 0.084082685 0.3132435
000140 3d d8 0c 3d 69 45 45 3e 57 83 1d 3f d0 fe 82 3c
       0.03438591 0.19264759 0.61528534 0.015990645
000150 33 50 b9 3e 23 e5 df 3b f0 e8 da 3d 35 8e bc 3d
       0.36194 0.006832735 0.106889606 0.09206811
000160 34 10 47 3d 86 b6 c7 3e
       0.048599437 0.39006442

conv1.bias f4 [10]
000000 5f 21 0c 3f e5 4a 20 3c e7 30 f9 3c 2a 11 f0 bd
       0.5473842 0.009783481 0.030418826 -0.11722024
000010 7d 89 f2 3e 93 54 51 b9 c4 c3 26 3a 4a e6 5f b9
       0.4737052 -0.000199633 0.0006361569 -0.00021352727
000020 fd 78 65 39 99 8f 3a b9
       0.00021884213 -0.00017791837

conv2.weight f4 [20, 10, 3, 3]
000000 79 77 8a bc e6 7e 0b 3e cb c6 02 3e 48 8e 40 3d
       -0.016902672 0.13622627 0.12771146 0.04701069
000010 d5 87 8c bc e7 50 ac bc 3c ba 11 3d c7 d5 fc 3d
       -0.017154614 -0.021034671 0.035577998 0.12345462
000020 5c 56 50 bd 06 cc 0a bc 77 e8 66 bd 4e 6a 59 bd
       -0.05086361 -0.008471495 -0.05637404 -0.053079896
000030 2e 0f 45 3d b7 cf e8 3d 69 cc 17 be 8e e6 80 3d
       0.04811018 0.113677435 -0.1482407 0.06293975
000040 2c 33 f5 3d d2 c3 87 bd 66 ca 2c 3e 1a 6f 09 be
       0.11972651 -0.06629147 0.16874084 -0.13421288
000050 62 a6 c6 bd 23 34 02 3e aa 04 ad bd eb e5 17 be
       -0.09699704 0.12715201 -0.08448155 -0.148338
000060 b2 9d 2d 3e bb 60 01 3e 0a 47 ac bd bd 9b 8e bd
       0.16954687 0.12634556 -0.08411987 -0.069632985
000070 ff 26 e0 3c 18 f5 92 3d cf 42 23 bc a3 ca d6 3d
       0.027362345 0.07175654 -0.009964659 0.10487869
000080 b3 7c 7d bd 45 eb 89 bc fb f7 d3 3d 91 a3 36 bd
       -0.0618865 -0.016835818 0.10350033 -0.044589583
000090 3f ee c7 3b 99 c5 97 3d cd bf 00 3d 7b 7d 95 3d
       0.006101399 0.07410736 0.031432915 0.07299324
0000a0 63 d7 39 3e e4 7e 87 3d fb ff 5d bd bd f6 39 bd
       0.1814857 0.06615999 -0.0541992 -0.045401324
0000b0 6a 4b 82 bd 07 4d 26 3e 9b 3e 20 bd 78 cd e9 bd
       -0.0636204 0.16240321 -0.039122205 -0.11416143
0000c0 ee fb 65 3d 8d 2c b7 bd 03 81 6b be 5b 32 3a 3e
       0.056148462 -0.08944044 -0.22998433 0.18183272
0000d0 e7 f1 cb 3d ed c6 d6 3c 9e 2e 6a bd 00 8f 02 3e
       0.099582486 0.026217902 -0.057173364 0.12749863
0000e0 63 1f cc bd 73 50 23 3d 29 86 30 3d 78 0b 29 be
       -0.09966924 0.039871644 0.043096695 -0.16508281
0000f0 2e 82 2a 3b 27 f6 0f 3e 86 c1 86 bc b5 a5 cc bc
       0.0026017535 0.14058743 -0.016449701 -0.024981359
000100 93 62 8e 3b 3a 1c 1d be cc 39 9b bc f7 4e 36 3e
       0.004345247 -0.15342799 -0.018948458 0.1780356
000110 d2 6c 18 be f2 f8 02 3e c8 88 ba 3b d5 6f 93 3c
       -0.14885262 0.12790278 0.005692575 0.017997662
000120 86 5a 09 3e 1c 3a 0f be 48 eb 2c bd df 79 32 3e
       0.13413438 -0.1398701 -0.04221657 0.17429303
000130 75 e3 fa bd 1a 73 4e be fb bb 40 3e c1 f1 d1 3d
       -0.12250415 -0.20161095 0.18821709 0.10251189
000140 d1 c2 82 bd b1 f3 0e bd d6 56 d5 bc 52 95 78 bd
       -0.063848145 -0.03490037 -0.026042383 -0.060689278
000150 8f 23 8d 3d 2f 4a a5 3d 69 e5 71 bd 9c 68 ce 3d
       0.06891548 0.0807079 -0.059056673 0.100785464
000160 e6 57 86 3d 14 4f 12 be dd 6b d6 3b 9e 0b 81 3d
       0.06559734 -0.14287978 0.00654362 0.06301044
000170 7c 20 b5 bd 7d 43 cd 3c d5 59 67 bd ef 40 ae 3d
       -0.088440865 0.025056595 -0.056482155 0.08508479
000180 15 2f e6 bc e7 0f a4 bd 6a fd 53 bd 8f 61 f2 3a
       -0.028098622 -0.08010846 -0.051755346 0.001849221
000190 1f 54 39 3d 16 56 cf 3d ad 64 84 bd ae ce b2 3c
       0.04524624 0.101238415 -0.06464515 0.021827068
0001a0 2e 5b 69 bb db be 44 bd 7b 25 17 3e 54 07 11 3b
       -0.0035607326 -0.048033576 0.14760391 0.0022129612
0001b0 9d b3 f5 bd 63 9a 8d 3d 63 2d 3d 3d 2e 72 8c 3d
       -0.11997149 0.069142126 0.046185862 0.068577155
0001c0 45 0f b9 3d a6 26 2f 3c 50 b3 27 3d ec 16 16 bd
       0.090361156 0.010690367 0.04094249 -0.036642954
0001d0 67 64 85 bd 35 3f 85 3c 3d 60 9f bc 18 e0 89 3d
       -0.06513291 0.016265491 -0.01945507 0.067321956
0001e0 d4 4d 1e 3d d8 54 4c 3d b6 c6 d3 bd aa e8 c8 3a
       0.03864844 0.0498856 -0.103406355 0.0015328128
0001f0 ca 53 54 3d c9 8a 89 3d ce 8a fd 3d 83 c6 b2 3d
       0.05183772 0.06715924 0.123799905 0.08729269
000200 2f 79 61 bd e0 c8 fb bc 5d b1 8f bd c4 c8 fa 3c
       -0.05504721 -0.030735433 -0.07016251 0.03061331
000210 68 15 94 bd 67 86 e0 bd ec 82 5a bd 16 fa a8 bd
       -0.072306454 -0.10963135 -0.053347513 -0.08250825
000220 38 75 7f 3d 3e e7 79 3d d3 b3 02 3e 9d 2e 3a bd
       0.062367648 0.061011545 0.1276391 -0.04545461
000230 19 ab 4d 3d 3c 42 78 bd 9c d6 b0 3d e8 50 87 bd
       0.050212 -0.06061004 0.086346835 -0.066072285
000240 c3 76 01 be 4c dd 0d 3e 06 fa 25 3e 46 de 13 3c
       -0.1264296 0.1385395 0.16208658 0.009025162
000250 02 33 81 bb f2 a2 ba bd 5d 05 17 bd b4 28 29 3e
       -0.003942848 -0.091131106 -0.03687035 0.16519433
000260 33 01 61 3d b3 66 d6 bd 87 9f 22 3e 90 4e 19 3e
       0.054932784 -0.10468807 0.15881167 0.14971375
000270 a6 c5 6f bc dd 81 14 3d c4 35 09 3e 53 76 11 bd
       -0.014634525 0.03625666 0.13399416 -0.035513233
000280 29 75 75 3d 98 14 0a bd b7 4b 1d bd d5 d4 d4 3d
       0.059926186 -0.033711046 -0.038402285 0.10392157
000290 ff a5 26 3b f0 4a cf bc 85 d2 ee 3d b2 4b 81 bd
       0.0025428531 -0.025304288 0.11661247 -0.06313266
0002a0 28 ec 82 bc b9 1e da 3d 2a 73 27 bd 27 61 fd bd
       -0.015981749 0.10650391 -0.040881313 -0.12372046
0002b0 6d f8 fc bc ee 42 12 3e d9 fa cb 3d df 3c 76 3d
       -0.030880177 0.14283344 0.09959955 0.060116645
0002c0 3e a4 eb 3c 64 01 c9 3b eb 22 87 3a a8 37 b9 3d
       0.02876484 0.006134199 0.0010310089 0.09043819
0002d0 6a 38 b4 3d 75 31 1a 3c 64 11 f8 bd 9a d0 dd 3d
       0.08799823 0.009411206 -0.12112692 0.10830803
0002e0 6e 9b a6 3d a5 a1 88 bd 88 fa 88 3d 32 a5 a6 bd
       0.081351146 -0.06671456 0.0668841 -0.08136977
0002f0 60 1a 81 bd 80 f3 68 be ba cf b6 bd e4 e4 9b 3d
       -0.06303859 -0.22749138 -0.089263394 0.07612017
000300 3b 9d 3d bc 36 c7 19 3c d8 e9 14 3e 75 be cf 3c
       -0.011573131 0.0093858745 0.1454233 0.025359372
000310 c7 77 d7 3d ab 24 39 3d 07 bb ba be 78 2a c4 bd
       0.105208926 0.045200985 -0.36470816 -0.09578413
000320 01 ec 31 3e 06 72 ee 3c a7 50 6c 3d b5 3f 3c 3e
       0.17375185 0.029107105 0.057694104 0.18383677
000330 6e 36 3e 3b 5a 5d 9e 3d 8f db 85 3d 44 a1 be 3d
       0.0029024142 0.07732649 0.06536018 0.09308103
000340 da 73 b4 bc 86 30 80 bd 76 bf a6 bd 16 73 b0 3c
       -0.022027899 -0.06259255 -0.08141987 0.021539252
000350 3d f4 2b bd 08 ca db bb a4 e0 a7 3d d9 3c de bd
       -0.04198097 -0.0067074336 0.08197144 -0.108514495
000360 1f f5 10 3e ba 2f a5 bd 20 8e a0 bd 79 19 c3 bb
       0.14156006 -0.08065744 -0.07839608 -0.0059539643
000370 87 22 85 3d 2a fd e3 bd ad 73 2c 3d c3 96 cb bd
       0.06500726 -0.111322716 0.042102505 -0.09940865
000380 41 be a0 3d 24 20 81 be 4e 1e 07 bc 61 fd 03 3e
       0.07848788 -0.25219834 -0.008246971 0.12889625
000390 7b 65 cd bd 22 ed b7 3d ed 36 1c 3e c3 91 51 bb
       -0.100291215 0.08980776 0.15255328 -0.003197775
0003a0 35 83 e1 3c c1 fe 85 3d ed 85 0d be a6 c0 dc 3c
       0.027528385 0.06542731 -0.1382062 0.02694733
0003b0 b2 28 b5 3d 11 90 0a bd f8 52 4a bd 72 69 b0 3d
       0.08845653 -0.0338288 -0.04939553 0.08613862
0003c0 5b 58 3a bd ca 8e 91 3d 5a 63 95 3d 3a ee 48 bd
       -0.04549442 0.07107313 0.072943404 -0.049055316
0003d0 a6 3d 23 3c 65 40 3f bd d0 94 26 bd 37 64 92 bc
       0.009963429 -0.04669227 -0.040669262 -0.017870052
0003e0 f2 cc 08 3e 0c c6 2d b9 38 59 84 bc a0 ab 3c 3d
       0.1335943 -0.00016572344 -0.016155824 0.04606211
0003f0 30 04 8b be 3b 91 12 bd 32 bc 2f 3e 81 e1 e2 bd
       -0.27151632 -0.035783034 0.17161635 -0.11078168

conv2.bias f4 [20]
000000 42 24 40 3c 9c 97 0a 3e 13 60 b4 3d c9 22 7e 3e
       0.011727395 0.13534397 0.08807387 0.24817957
000010 e6 8a 20 3e ce 27 3a bd 93 75 5a 3e 82 eb 40 3e
       0.15677986 -0.045448117 0.21333914 0.18839839
000020 ca b7 a5 3c 87 f0 33 3e f7 45 cd 39 b5 f0 0f be
       0.020229239 0.17572223 0.00039152775 -0.14056666
000030 52 1b 96 3d 62 53 55 bb 50 12 ce 3d 89 9e fe 3d
       0.0732943 -0.003255092 0.100620866 0.12432582
000040 0d 3d f5 bc 21 a2 36 3d 9a 7a 9d 3d f4 17 a8 3d
       -0.029936338 0.044588212 0.076894 0.08207694

fcl1.weight f4 [10, 500]
000000 bf f1 b9 3d 5a ad 44 3d 1a 10 07 3d 31 fa cd 3a
       0.090793125 0.048016883 0.03297434 0.0015714822
000010 62 19 79 bd 8d 7f aa 3d 54 62 75 3d 2b 78 01 3d
       -0.060815223 0.0832511 0.059908226 0.03160874
000020 4f 85 46 bd ed 22 a2 bd 81 77 37 3d bf d0 87 3c
       -0.048466977 -0.07916818 0.044791702 0.01657903
000030 5a 97 83 bd 4b 51 00 3d c3 92 5f 3d 3c 3a 12 3d
       -0.064253524 0.031327527 0.054583322 0.035700068
000040 46 61 54 bd 39 7f c3 bc 7d 11 96 bc 4f 86 4c 3d
       -0.05185058 -0.023864375 -0.018318886 0.049932774
000050 43 95 97 bd 82 e1 3f 3b c2 88 1a bd 4e e4 4e bd
       -0.07401516 0.00292787 -0.03772808 -0.050510697
000060 5c 90 a8 3d 41 8b 9c 3d 5f 8c e3 bb a8 8b 45 3d
       0.08230659 0.07643748 -0.006944224 0.04822889
000070 bd 1b 96 3d 6d 39 5d 3d 8f 44 7e 3d 9b 02 98 3d
       0.073295094 0.054009844 0.0620771 0.07422372
000080 4b 75 f6 bc 66 e3 56 3d d7 b3 8c bc 86 6b 27 3d
       -0.030085227 0.052462958 -0.017175598 0.040874027
000090 16 fc 2b 3d d7 ea 88 bd 96 ab 64 3c 28 99 c2 bc
       0.041988455 -0.06685417 0.013956925 -0.023754671
0000a0 e7 0d b9 bd 7d 0a ec bb 27 f3 59 bd fd 77 3f bd
       -0.09035855 -0.0072033987 -0.053210404 -0.04674529
0000b0 23 05 11 be cd 47 ee bc 64 71 0f 3d 8e 50 c3 bc
       -0.14162116 -0.029086972 0.035020247 -0.023842122
0000c0 53 16 ba 3c b1 81 65 3d 7e 53 b5 3b 8d 5c e4 3b
       0.022715723 0.056031886 0.0055336347 0.0069690407
0000d0 b8 ad b6 3c f0 5d b0 3c bc 66 e0 3d a1 5a ae 3d
       0.022299632 0.021529168 0.10957095 0.0851338
0000e0 7e fa 2a 3d b0 0f 61 39 3b 26 7e 3d 81 f1 dd 3d
       0.041742794 0.00021463516 0.06204818 0.10837079
0000f0 7f 36 cf bc 1e 05 4e bc 60 80 b1 bd 99 13 2c 3d
       -0.02529454 -0.012574462 -0.08667064 0.042010877
000100 79 e6 18 bc 2c ea ce 3c 91 22 cb 3c a4 d3 24 bd
       -0.009332293 0.025258146 0.024796756 -0.0402409
000110 94 57 c3 bd 0e 41 9a bd d2 08 09 3d 3d 3e 77 3c
       -0.095381886 -0.075319394 0.033455677 0.015090522
000120 0c 58 aa bc dc 5c 80 bd 8d 0b 20 be 27 7c f6 3d
       -0.020793937 -0.062677115 -0.15629406 0.12035399
000130 bf 88 20 bd e9 86 e4 bc a7 46 b9 3d a6 66 be 3d
       -0.03919291 -0.027896361 0.09046679 0.092969224
000140 a4 b4 ed 3d 10 cd 18 3d aa f7 e2 ba d6 2f 22 ba
       0.1160672 0.037304938 -0.0017316241 -0.00061869377
000150 6d 74 93 bc b2 ea b6 3c a4 3c 05 3d 9a 07 c9 bc
       -0.017999852 0.022328708 0.032528535 -0.024539758
000160 be e4 ba 3c 35 35 d8 bd ca 8b b7 bd 36 5a 10 3d
       0.02281415 -0.105570234 -0.089622095 0.03524228
000170 e6 bf 01 bd 8a c6 58 3c ea b5 2e be 74 a5 2a bc
       -0.03167715 0.013230929 -0.17061582 -0.010415424
000180 d3 08 83 3d a8 04 c5 bc b3 8c 96 3c b6 fe 59 bd
       0.063981675 -0.024050072 0.018377637 -0.053221427
000190 fd b5 f1 3d ee 05 d0 3c 98 52 98 3d ef 59 3e 3c
       0.1180229 0.025393452 0.074376285 0.0116181215
0001a0 3f 06 34 bc 84 7f b7 3d 00 f7 09 3e ad 8b a4 bc
       -0.010987817 0.089598686 0.1347313 -0.020086134
0001b0 bd f5 5e 3c b0 74 85 3c b9 bb 1b bc 73 11 85 3d
       0.013608393 0.016290992 -0.009505206 0.06497469
0001c0 a8 eb 22 bd ed 3e 5c bb 9f 19 7a bd 72 48 e7 bd
       -0.03977552 -0.0033606843 -0.06105959 -0.11293115
0001d0 35 6a 4d 3d b3 ba 42 bd 80 82 59 bc b7 a5 d2 bd
       0.050150115 -0.04754133 -0.0132757425 -0.10285514
0001e0 97 0b 21 be d0 16 93 3d b0 ab 68 bd 7e b5 31 bd
       -0.15727077 0.071820855 -0.05680436 -0.043385975
0001f0 bb 9c d8 3d d1 f3 ee bc 1a c3 e6 3c de ac 20 bc
       0.10576769 -0.029168995 0.028169204 -0.00980684
000200 ec 01 0c bd 31 a4 d5 3c 7b dd 7f 3b 05 17 c8 ba
       -0.03418152 0.02607927 0.0039041925 -0.0015265649
000210 3d 45 d7 3c 5c 19 29 3c 5a 84 8f 3c 44 88 6d 3c
       0.026278133 0.010320988 0.017519165 0.01449782
000220 83 82 9f bc 81 ba ea bc 15 68 0b 3d 17 ef 1a bd
       -0.019471413 -0.028653385 0.034034807 -0.03782567
000230 f7 3d 4f bd 12 db 43 3d e6 86 48 bd 3a 31 d4 ba
       -0.050596204 0.047816344 -0.048956774 -0.0016188987
000240 01 c2 12 3c 07 30 34 3b 47 76 7a 3d b7 dd 17 bd
       0.008957387 0.0027494447 0.061147954 -0.037076678
000250 33 0c 04 bd 2b c3 09 bd a5 95 0f 3e 63 89 19 bd
       -0.032238197 -0.033633392 0.14021929 -0.037484538
000260 cf 6e 59 ba 12 af d3 3d 2f 57 60 3d a6 07 27 3e
       -0.0008294405 0.103361264 0.054770645 0.16311511
000270 21 fa b7 3d 1d 71 ed bc ea 86 d2 bc 91 87 55 3d
       0.08983255 -0.0289846 -0.025699098 0.05213124
000280 aa b8 00 bd 52 3d 32 3c 69 d5 9a bb 15 e9 b8 3c
       -0.03142611 0.010878878 -0.0047251475 0.02257208
000290 8d 45 be bd 33 87 a5 bd a3 a8 e7 ba bc 71 9f bc
       -0.092906095 -0.08082428 -0.0017674159 -0.019463412
0002a0 a0 ae 3c bb fa d3 b4 bd 1c d4 3b be ac 74 e8 3d
       -0.0028790608 -0.08829494 -0.18342632 0.113503784
0002b0 0f f7 77 bd bd c8 56 3c fb 39 91 3b 29 c0 65 3c
       -0.060538348 0.013109383 0.0044319606 0.014022865
0002c0 0d b6 a4 bd cb 6b 6f 3b 74 59 37 3d ae da 1c bd
       -0.08042536 0.0036532755 0.044763044 -0.038294487
0002d0 34 28 48 3d 34 e3 8e bd 2d 68 e0 3c a9 c2 08 3d
       0.048866466 -0.06976929 0.027393425 0.033388767
0002e0 ff 19 d4 3c cc dc 03 3d f4 92 07 3d 14 c6 c4 bd
       0.025891302 0.03219299 0.03309913 -0.09608093
0002f0 b3 33 b5 3c 28 de bb 3d d6 1d a1 3c 56 51 db 3c
       0.022119379 0.09173232 0.019667547 0.026772182
000300 7e 4b 87 bd c0 33 00 3d 2a 72 9b 3d 85 b7 a2 3d
       -0.06606196 0.031299353 0.075901344 0.0794516
000310 db 54 98 3d 69 05 81 bd 2b ab 67 bd ee eb c3 bd
       0.0743806 -0.0629986 -0.056559723 -0.095664844
000320 1a 37 20 3b 7b 4b 8c bd e9 5c 63 3c b1 26 dd bc
       0.0024446906 -0.06850334 0.013877132 -0.026995989
000330 40 41 a0 bc 54 d4 49 bd 5a 56 8c 3c 91 d7 c5 bc
       -0.019562364 -0.049274758 0.01713102 -0.024150642
000340 22 15 5a 3c 4d 6f 6e 3b d7 b2 e5 bc 2f 70 99 bb
       0.0133107025 0.0036382258 -0.028039379 -0.004682563
000350 c8 62 d8 bb 9d 55 af bc 4e c4 18 3d d6 89 a1 3d
       -0.0066035725 -0.021403128 0.037296586 0.07887618
000360 92 5f 7b 3d f4 cc 14 3c 8c b8 69 3c 00 85 49 3d
       0.06137044 0.009082068 0.014265191 0.049199104
000370 80 13 a9 3d 32 b8 83 bd 42 90 6f bd d4 f5 b7 bc
       0.082556725 -0.06431617 -0.058487184 -0.022456087
000380 95 0d b7 bb 2b 6e ad 3c 7c 0e e4 3b 95 a5 1a 3c
       -0.005586336 0.021170696 0.0069597345 0.009438892
000390 d0 53 7d 3d 99 a3 da 3d 86 c7 b6 3d 4a 72 fd bc
       0.061847508 0.10675735 0.08924775 -0.030938286
0003a0 ff 88 54 bd 18 f5 48 3c 25 98 d9 3d a9 24 61 3c
       -0.051888462 0.012265466 0.106247224 0.013741651
0003b0 01 0d 88 3d 15 ef a9 bd 00 49 47 3d d9 c2 96 bb
       0.06643105 -0.082975544 0.048653603 -0.0046008644
0003c0 fe 87 d8 bb 13 b0 6e bc 0b 77 97 bc c0 44 96 bd
       -0.0066080084 -0.014568347 -0.018489381 -0.07337332
0003d0 f6 a8 be bd 67 cd 85 3d 2c 2e 85 3d da 2d 59 bd
       -0.093095705 0.06533318 0.06502947 -0.053022243
0003e0 8e 83 86 bd e9 b1 aa bd b4 c7 16 3e 34 c8 5e 3d
       -0.06568061 -0.08334715 0.14724618 0.054390147
0003f0 de 3d 99 3d 67 86 10 3c 24 70 b7 3b 2d 1d 21 3e
       0.07482503 0.0088211065 0.005598085 0.15733786

fcl1.bias f4 [10]
000000 01 1d a9 3d 8b ae 92 bd a1 f8 65 3d 54 be 84 3d
       0.08257485 -0.07162198 0.056145314 0.06481615
000010 64 bd 49 be b2 7f 14 3e 74 7b f5 bd 47 d0 bd 3d
       -0.19701153 0.14501837 -0.119864374 0.092682414
000020 28 8e 80 bd a7 2f 16 bb
       -0.06277114 -0.0022916587
