dqn/exercise/double_DQN/prio_replay_sumtree/checkpoint.pth (torch_old, 38582 bytes, 6 tensors)

fcl1.weight f4 [64, 8]
-0.5660624 -0.22581398 -0.3729746 -0.15540305 0.15220773 0.14932992 0.27353314 0.38236904
-0.014735234 -0.555907 0.10680133 -1.0342232 -0.76204044 -0.70161396 0.14022034 -0.03567984
-0.13130875 -0.30351827 -2.1299958 -0.8312366 0.5430415 0.06668966 0.34339136 0.2506621
-0.010286295 -0.9384909 1.6221503 -1.1309936 -0.6337278 0.060293198 0.051261447 0.04158002
-1.007719 -1.1176926 -0.70344305 -0.9451858 0.10119001 0.20922619 -0.008640777 0.14020462
-0.01547011 -0.68861866 0.5104732 -0.8449633 -0.46003395 0.1887992 0.27149037 0.24037878
-0.19536513 -0.28710824 0.13533849 0.17095722 0.3825146 0.7669133 0.122807205 -0.5232796
-0.081009686 -0.8006705 -1.5684459 -1.2032983 0.46054578 0.26987967 -0.001435604 0.035543572
-0.33044332 0.11618649 -0.0080456 -0.2651565 0.0903846 0.7551129 -1.2444918 -0.6561509
0.8131468 1.1070434 0.88455063 0.40916625 -0.7179998 -0.13993591 0.038824555 -0.26553288
-0.6806574 0.9903253 0.5338313 -1.4243392 -0.53418994 0.17430589 0.32332867 0.011395301
0.13544841 -0.04210018 0.11663999 0.033576854 0.7278255 0.8613163 -0.3922687 0.11722479
0.09769766 1.375447 -0.5637044 -0.71908814 0.68524617 1.1307636 -0.5163406 -0.048429314
-1.1169595 -1.1143571 -0.05592457 -0.7346863 0.02710367 0.09572553 -0.010321344 0.0841717
-0.16980278 -0.025776675 -0.59985524 -1.3720431 -2.174297 0.6852091 0.42162037 0.029759716
0.106618635 -0.09962604 -0.9615776 0.90310764 1.726717 0.0869261 -0.964982 0.17622627
-0.03830034 -1.9867516 0.43180135 0.6900724 -0.23998518 0.059985276 0.40046495 -0.057378575
-0.012797563 -0.5795296 0.30514783 1.4292678 0.55406004 1.0450066 0.5124333 -0.3233048
-0.2714095 -0.687477 0.42191625 -1.2585605 -0.9590599 -0.62018365 0.017409408 -0.25867784
-0.5506171 1.2013228 0.31061402 -1.5861309 -0.078416236 -0.1352648 0.05695246 0.08537965
-0.5979665 -0.8659953 -0.87805223 -0.30593786 0.28949946 0.07194379 0.1189445 0.18287377
0.18493882 -0.41127643 0.527668 -0.49396846 0.37990728 0.37539366 -0.696533 0.103889205
0.4317678 -0.37329048 0.53759444 -0.24118409 -0.2845645 0.15260255 0.3868845 0.14326349
0.5461745 -0.37312543 0.31814373 0.31798732 -0.7062588 0.3526868 0.41851485 0.0876982
-0.91272676 -1.0191742 -1.4850045 -0.19436938 0.13357188 0.16343097 0.033755247 0.12166057
0.031183371 0.07310963 0.0070464592 -0.59776396 -0.3610646 0.59568244 0.118684426 0.6301391
1.1326818 -0.3481795 0.43395033 0.014325655 -0.2384481 -0.02074397 0.08594382 0.12124285
-0.5408064 -2.417755 -0.23973854 -1.4310051 -0.32174215 0.32622847 0.024847643 -0.04371368
-0.7257023 -0.7610657 0.19353083 -0.49154267 -0.29437625 0.002608468 0.16482006 0.37998983
0.3657371 -0.6286092 0.56017333 -1.4037379 0.9436419 -0.62896484 0.08497114 0.31667274
-0.3737005 1.520389 -0.4735546 -0.37046006 0.736772 -0.3617811 0.07787374 -0.8780224
-0.4528451 -0.2984541 -0.49326807 0.24371484 0.49780628 0.00010815336 0.090219714 -0.28207904
00000000: 77e9 10bf c83b 67be 87f6 bebe fa21 1fbe
00000010: 58dc 1b3e f1e9 183e 890c 8c3e e0c5 c33e
00000020: 0d6c 71bc ec4f 0ebf a8ba da3d 6d61 84bf
00000030: 1515 43bf f99c 33bf ec95 0f3e 0625 12bd
00000040: cd75 06be bf66 9bbe da51 08c0 eccb 54bf
00000050: c504 0b3f 9794 883d fed0 af3e c856 803e
00000060: d987 28bc f140 70bf 9fa2 cf3f 66c4 90bf
00000070: fc3b 22bf 00f6 763d 86f7 513d d04f 2a3d
00000080: f0fc 80bf 8d10 8fbf d814 34bf b2f7 71bf
00000090: b53c cf3d 643f 563e 0c92 0dbc cd91 0f3e
000000a0: 5876 7dbc 5049 30bf 5fae 023f 844f 58bf
000000b0: 9289 ebbe 9454 413e c900 8b3e db25 763e
000000c0: cc0d 48be daff 92be 2c96 0a3e 690f 2f3e
000000d0: f4d8 c33e 6e54 443f 5882 fb3d a7f5 05bf
000000e0: 68e8 a5bd bef8 4cbf d6c2 c8bf ae05 9abf
000000f0: a8cc eb3e ab2d 8a3e e02a bcba 2396 113d
00000100: de2f a9be 2ff3 ed3d b1d1 03bc 98c2 87be
00000110: 901b b93d 144f 413f 824b 9fbf 81f9 27bf
00000120: 642a 503f 99b3 8d3f e971 623f 3d7e d13e
00000130: d6ce 37bf 5c4b 0fbe 7f06 1f3d edf3 87be
00000140: 903f 2ebf f585 7d3f 2ba9 083f bf50 b6bf
00000150: acc0 08bf 3e7d 323e 568b a53e 5bb3 3a3c
00000160: fdb2 0a3e 3d71 2cbd f2e0 ee3d e287 093d
00000170: c652 3a3f 3a7f 5c3f 71d7 c8be 8d13 f03d
00000180: b615 c83d a60e b03f ee4e 10bf 2916 38bf
00000190: 4b6c 2f3f ddbc 903f e62e 04bf d15d 46bd
000001a0: 87f8 8ebf 41a3 8ebf 2911 65bd 6714 3cbf
000001b0: 8408 de3c bf0b c43d db1a 29bc 3662 ac3d
000001c0: c8e0 2dbe 9b29 d3bc 1d90 19bf 1c9f afbf
000001d0: af27 0bc0 dd69 2f3f a0de d73e a6ca f33c
000001e0: df5a da3d bd08 ccbd f329 76bf 1032 673f
000001f0: 1005 dd3f 5006 b23d 0f09 77bf a974 343e
00000200: d1e0 1cbd e04d febf 1115 dd3e 96a8 303f
00000210: adbe 75be 1fb3 753d be09 cd3e cc05 6bbd
00000220: dfac 51bc 0d5c 14bf 563c 9c3e 3ff2 b63f
00000230: e1d6 0d3f c7c2 853f d42e 033f 3588 a5be
00000240: 30f6 8abe 7efe 2fbf 6805 d83e 8318 a1bf
00000250: f384 75bf 5bc4 1ebf 2d9e 8e3c 6c71 84be
00000260: 3ef5 0cbf f2c4 993f cd08 9f3e 5606 cbbf
00000270: b198 a0bd db82 0abe fc46 693d 87db ae3d
00000280: 5514 19bf deb1 5dbf 08c8 60bf e3a3 9cbe
00000290: 4639 943e 4457 933d 2d99 f33d 4343 3b3e
000002a0: 9a60 3d3e d392 d2be 4015 073f 6fe9 fcbe
000002b0: 3583 c23e 9933 c03e fd4f 32bf ddc3 d43d
000002c0: ab10 dd3e ee1f bfbe ca9f 093f f6f8 76be
000002d0: 70b2 91be d843 1c3e ba15 c63e aab3 123e
000002e0: 18d2 0b3f 4c0a bfbe bce3 a23e 3ccf a23e
000002f0: 60cd 34bf 5d93 b43e 9447 d63e 1d9b b33d
00000300: 76a8 69bf 4d74 82bf a114 bebf c408 47be
00000310: 11c7 083e 735a 273e f142 0a3d 2d29 f93d
00000320: 4574 ff3c 80ba 953d fce5 e63b 0f07 19bf
00000330: 76dd b8be a57e 183f d210 f33d cc50 213f
00000340: b8fb 903f 9544 b2be bd2e de3e 27b6 6a3c
00000350: bd2b 74be 42ef a9bc 5003 b03d 2c4e f83d
00000360: 4a72 0abf 7fbc 1ac0 057e 75be 2d2b b7bf
00000370: 63bb a4be 6b07 a73e 498d cb3c 1e0d 33bd
00000380: a0c7 39bf 34d5 42bf f22c 463e 7bab fbbe
00000390: 7cb8 96be d5f2 2a3b 97c6 283e 078e c23e
000003a0: e541 bb3e 88ec 20bf 8567 0f3f afad b3bf
000003b0: 8492 713f d703 21bf 5905 ae3d ee22 a23e
000003c0: ac55 bfbe 1b9c c23f c075 f2be f1ac bdbe
000003d0: 179d 3c3f 5f3b b9be 447c 9f3d 13c6 60bf
000003e0: 50db e7be face 98be a28d fcbe 6290 793e
000003f0: 77e0 fe3e 65d0 e238 1dc5 b83d aa6c 90be

fcl1.bias f4 [64]
-0.29447356 -0.11612798 0.14277376 -0.09164938 -0.16406985 -0.08931761 0.4375895 -0.03763726
0.12019941 0.07296035 0.62512225 0.060759038 -0.24262294 -0.18848982 -0.21510607 0.2561007
0.3883221 -0.14075752 0.089143306 0.78809875 -0.24354345 -0.10784501 -0.2529165 -0.1045489
-0.1529248 -0.24876972 -0.13467672 0.103275076 -0.17461216 0.33655167 0.5109612 -0.14447457
0.046328414 0.95650834 -0.444222 0.09469261 -0.07840503 0.3553287 -0.33543846 -0.4618812
0.7740139 -0.16810851 0.96879196 -0.03257825 -0.1978916 0.5647092 0.17301849 0.1658771
-0.18047643 -0.40368134 0.03029442 -0.18722582 -0.25497124 0.50662506 0.10200088 0.53331494
0.12826735 0.61117584 0.42393413 -0.17246959 0.2235783 -0.09028333 -0.10475576 0.0043112068
00000000: 3dc5 96be 82d4 edbd 4933 123e acb2 bbbd
00000010: ed01 28be 27ec b6bd bb0b e03e 8729 1abd
00000020: 1c2b f63d 3c6c 953d 0308 203f 78de 783d
00000030: 2672 78be 7a03 41be c444 5cbe a21f 833e
00000040: 27d2 c63e bd22 10be c490 b63d d7c0 493f
00000050: 7463 79be d8dd dcbd 467e 81be bc1d d6bd
00000060: 5298 1cbe 7dbd 7ebe b2e8 09be e281 d33d
00000070: 88cd 32be 8050 ac3e 5ace 023f 24f1 13be
00000080: ddc2 3d3d bbdd 743f 1171 e3be 33ee c13d
00000090: d192 a0bd a5ed b53e 97be abbe b17b ecbe
000000a0: c625 463f a324 2cbe c002 783f c570 05bd
000000b0: 18a4 4abe c890 103f c22b 313e b0db 293e
000000c0: d0ce 38be 52af cebe 012c f83c 20b8 3fbe
000000d0: 978b 82be 2eb2 013f d6e5 d03d 5487 083f
000000e0: 8458 033e 0576 1c3f e50d d93e de9b 30be
000000f0: b6f1 643e 77e6 b8bd 308a d6bd 0645 8d3b

fcl2.weight f4 [128, 64]
-0.019000115 0.18021782 -0.07826792 0.5356733 0.647328 -0.010400383 0.25477508 0.72929233
0.20675452 -0.13173874 0.29934293 0.22667758 -1.0757273 0.64371073 0.15277597 -0.78241295
-0.11824745 0.5151674 0.21308133 0.26875022 -0.07567545 0.075199164 0.1439639 0.21802358
0.40853354 0.2431369 0.038373988 0.45364204 0.04573907 -0.12261622 -0.36133406 -0.12237042
0.19424449 -0.27910018 -0.28261536 0.18559384 0.092653684 0.047142252 0.04433936 -0.13130102
-0.11428026 0.5654336 0.11760964 -0.104502134 -0.09262282 0.27025902 0.11384058 -0.07737086
-0.60501933 0.16579017 -0.0267094 -1.0439651 0.060330298 0.1814664 0.29317537 -0.6970899
-0.062493216 0.15487991 -0.006704285 0.25791487 -0.36813807 -0.24987982 -0.13012516 0.019442273
0.06637842 0.6648054 -0.31484124 0.656745 0.38145852 0.31345767 0.29053482 0.9368624
-0.87049204 0.56720924 0.45473006 -0.23359255 -1.0103319 0.41541272 0.17941523 -1.0767109
0.10181728 0.5202618 0.27238244 0.30017686 0.17806378 0.28238147 0.38055465 0.09314714
0.6311224 0.47760364 0.38089195 0.48606116 0.24227102 0.071712784 -0.9241489 -0.15268826
0.17011747 -1.0822517 0.13936372 -0.32876688 -0.06815253 0.18542275 0.085601404 0.23118614
-0.2537246 0.74240386 -0.19224814 0.4423808 -0.5534724 0.33370754 -0.27377322 -0.21332717
-0.13717116 -0.2334156 -0.06409992 -1.3478543 0.055769686 0.4365402 0.24908885 -0.9752467
0.3017804 -0.05462013 0.18662712 0.5618169 -0.047071066 -0.23140146 0.24440902 0.38376573
0.086820684 0.66906804 -0.26796362 0.6212768 0.44933155 0.27960515 0.4881184 0.7804333
-0.52865934 0.5212587 0.41041386 -0.21730857 -1.2029122 0.63139665 0.31007746 -0.9111005
0.42285916 0.34200138 0.4499056 0.09856772 0.15547463 0.36007172 0.3919568 0.09992515
0.55633515 0.3693537 0.30546072 0.47395578 0.22146508 -0.13269396 -1.0226325 -0.08264203
0.2527284 -1.31841 0.19601563 -0.6452629 -0.17319454 0.14378062 0.09910545 0.081404775
-0.17255828 0.96683526 -0.23816738 0.056682944 -0.8738936 0.02662341 -0.53631467 -0.2115247
-0.14403504 -0.032084413 -0.16722722 -0.9611786 0.08655176 0.33886096 0.34416807 -0.83782905
0.21383765 0.027966473 0.01305364 0.4957876 -0.045684416 0.0075715138 0.46186018 0.47597513
-0.04446864 -1.9774272 0.18172021 0.19509879 -0.052794 -0.16447096 -1.7368544 0.6611885
-0.8351101 0.47478876 0.6015843 -0.673985 0.9130569 -0.18291564 2.3109128 0.2469635
-1.7941831 -1.2984095 -0.5077103 0.2985369 0.1552657 0.2939638 -0.53105766 0.17475373
0.1953168 0.56177926 -0.39436144 -0.1781011 -0.61457556 0.95785123 0.6520708 -1.0274551
-0.04468013 0.6780306 -0.45653978 -1.2990171 -0.8870835 -1.0380574 0.12429814 -0.13642512
-0.65772897 0.92928874 0.24766843 -1.0783228 -0.50934315 -2.7095835 -0.5136854 0.5726364
3.5052192 -1.2413411 -0.8395934 1.0575632 -2.571579 -1.6169271 0.41534352 0.3041827
-0.14295094 0.2683906 -0.5911193 0.12874389 -0.6758157 -1.2525419 -0.34210023 -0.0960733
00000000: 21a6 9bbc 058b 383e ee4a a0bd e321 093f
00000010: 4ab7 253f 5e66 2abc e171 823e e7b2 3a3f
00000020: 75b7 533e 85e6 06be 7a43 993e 2b1e 683e
00000030: 6fb1 89bf 3aca 243f 4e71 1c3e 374c 48bf
00000040: b82b f2bd 03e2 033f fe31 5a3e a199 893e
00000050: bbfb 9abd 0502 9a3d 466b 133e 9341 5f3e
00000060: 4f2b d13e e1f8 783e 0b2e 1d3d c543 e83e
00000070: e458 3b3d 361e fbbd c700 b9be 589d fabd
00000080: 07e8 463e 38e6 8ebe f6b2 90be 500c 3e3e
00000090: 37c1 bd3d 3c18 413d 309d 353d c673 06be
000000a0: c50b eabd 42c0 103f 53dd f03d 3705 d6bd
000000b0: 08b1 bdbd 645f 8a3e 4025 e93d 9d74 9ebd
000000c0: 8ce2 1abf e6c4 293e accd dabc a6a0 85bf
000000d0: e71c 773d 54d2 393e 151b 963e 7c74 32bf
000000e0: e3f8 7fbd d798 1e3e 9eaf dbbb 6b0d 843e
000000f0: 987c bcbe 7fe0 7fbe 883f 05be 6745 9f3c
00000100: 69f1 873d b030 2a3f df32 a1be 7120 283f
00000110: 884e c33e 867d a03e fbc0 943e 37d6 6f3f
00000120: 91d8 5ebf a034 113f 61d2 e83e e332 6fbe
00000130: 8e52 81bf fab0 d43e a0b8 373e aad1 89bf
00000140: 9485 d03d e12f 053f b675 8b3e c8b0 993e
00000150: 5a56 363e 4e94 903e 0fd8 c23e eec3 be3d
00000160: 3d91 213f 7788 f43e 4504 c33e 02dd f83e
00000170: e515 783e 27de 923d 0695 6cbf 505a 1cbe
00000180: 4633 2e3e 3987 8abf 5db5 0e3e 2254 a8be
00000190: 8e93 8bbd 76df 3d3e ca4f af3d 0fbc 6c3e
000001a0: 31e8 81be 2e0e 3e3f b2dc 44be bc7f e23e
000001b0: 5eb0 0dbf b7db aa3e 012c 8cbe 7072 5abe
000001c0: 9976 0cbe 8004 6fbe d246 83bd 7d86 acbf
000001d0: c16e 643d 3282 df3e 2611 7f3e c5a9 79bf
000001e0: f682 9a3e 5cb9 5fbd 2e1b 3f3e 3bd3 0f3f
000001f0: 97cd 40bd 81f4 6cbe 5c46 7a3e f17c c43e
00000200: 0bcf b13d 0b48 2b3f 8732 89be ff0b 1f3f
00000210: c90e e63e 6828 8f3e a8ea f93e 7aca 473f
00000220: 3856 07bf 3671 053f c421 d23e 2386 5ebe
00000230: 07f9 99bf 36a3 213f 79c2 9e3e e23d 69bf
00000240: ff80 d83e ce1a af3e 075a e63e dfdd c93d
00000250: be34 1f3e 525b b83e 90ae c83e 8fa5 cc3d
00000260: fb6b 0e3f ee1b bd3e 5965 9c3e 55aa f23e
00000270: bec7 623e ede0 07be 9fe5 82bf 3a40 a9bd
00000280: 9e65 813e a9c1 a8bf 52b8 483e f32f 25bf
00000290: e959 31be 3a3b 133e ccf7 ca3d 8cb7 a63d
000002a0: 1eb3 30be 8482 773f 26e2 73be 602c 683d
000002b0: 7eb7 5fbf 5619 da3c eb4b 09bf ee99 58be
000002c0: ec7d 13be f26a 03bd 9d3d 2bbe cd0f 76bf
000002d0: 0d42 b13d 2f7f ad3e cc36 b03e f77b 56bf
000002e0: 42f8 5a3e f219 e53c efde 553c dfd7 fd3e
000002f0: 951f 3bbd 761a f83b f078 ec3e 03b3 f33e
00000300: c024 36bd 561c fdbf dd14 3a3e fac7 473e
00000310: 853e 58bd 136b 28be 3f51 debf a643 293f
00000320: c7c9 55bf 8317 f33e 6e01 1a3f 488a 2cbf
00000330: 19be 693f 3d4e 3bbe ffe5 1340 00e4 7c3e
00000340: cba7 e5bf 4832 a6bf 4df9 01bf d4d9 983e
00000350: f9fd 1e3e 6c82 963e 65f3 07bf a4f2 323e
00000360: 2101 483e c4d0 0f3f bee9 c9be 2260 36be
00000370: d354 1dbf bd35 753f 1dee 263f a683 83bf
00000380: 8302 37bd 6a93 2d3f 95bf e9be 3146 a6bf
00000390: e717 63bf 11df 84bf 0690 fe3d 07b3 0bbe
000003a0: ed60 28bf dee5 6d3f cb9c 7d3e 7b06 8abf
000003b0: 5064 02bf d169 2dc0 e380 03bf 4d98 123f
000003c0: 8355 6040 44e4 9ebf 98ef 56bf 3b5e 873f
000003d0: c094 24c0 78f7 cebf e8a7 d43e d6bd 9b3e
000003e0: bb61 12be 7e6a 893e 9853 17bf 70d5 033e
000003f0: 4202 2dbf 4b53 a0bf c327 afbe 14c2 c4bd

fcl2.bias f4 [128]
0.06460431 -0.118779756 -0.054129902 -0.06737058 -0.13891493 -0.084319934 0.043693926 -0.12717424
0.111788645 0.20184767 0.027091958 -0.07520305 0.17128305 -0.0836923 0.035630655 -0.11707495
-0.12883714 0.11888398 0.0013263917 -0.011489617 -0.14015386 -0.17700829 0.10738414 0.104609735
0.116585135 -0.37900847 0.09214825 0.0698634 -0.117486276 -0.022460159 -0.14496127 -0.024009718
-0.0150932055 0.30769223 -0.058519583 0.3634852 -0.0063382355 0.14391346 0.010457563 0.1014165
0.9387143 0.9275814 0.113561325 -0.0026852752 0.1190079 0.09899852 -0.13416839 0.009021941
-0.23651749 0.0763544 0.5428506 -0.061579764 0.702651 0.18996413 0.9958111 0.13719705
0.27646893 -0.04604512 0.030197382 0.07699167 -0.070530206 0.08478273 0.065769196 -0.10119121
-0.31232604 0.16916229 0.616269 -0.060792208 0.15250413 0.15976693 -0.11303951 -0.10803953
-0.015476808 0.61819464 0.031604964 -0.057576057 0.31273538 0.49264678 0.12529944 0.03541335
-0.22493055 -0.31233332 -0.33013633 0.107893 0.28455713 0.0055035907 -0.080031335 0.10275423
0.09713918 -0.145506 0.25349644 0.4902173 0.9495814 0.19793049 0.12986147 -0.12741749
-0.020716745 -0.22119036 0.086071 -0.11011492 0.30195683 0.13840492 0.010202258 -0.11025969
0.39962658 -0.0018355827 -0.043364387 0.11826294 0.111648716 0.019032126 0.80197805 0.19397815
0.030354483 0.12406961 -0.01746802 -0.041906253 0.118228346 0.061258342 -0.0109756 -0.012614638
-0.4307428 0.2486364 -0.12104725 0.22069424 0.1608443 0.085503414 0.00717611 -0.02984383
00000000: 444f 843d cd42 f3bd 51b7 5dbd 96f9 89bd
00000010: b73f 0ebe eeaf acbd 67f8 323d f739 02be
00000020: 72f1 e43d 28b1 4e3e f4ef dd3c 0f04 9abd
00000030: d364 2f3e de66 abbd 73f1 113d fec4 efbd
00000040: e2ed 03be 7279 f33d 52da ad3a f23e 3cbc
00000050: 7e84 0fbe a941 35be 37ec db3d a13d d63d
00000060: 30c4 ee3d 660d c2be 39b8 bc3d 8b14 8f3d
00000070: a59c f0bd 5efe b7bc ba70 14be 07b0 c4bc
00000080: 7e49 77bc d689 9d3e 3bb2 6fbd bb1a ba3e
00000090: f9b0 cfbb 0d5e 133e 3356 2b3c 74b3 cf3d
000000a0: 954f 703f fa75 6d3f d792 e83d 71fb 2fbb
000000b0: 6aba f33d bcbf ca3d 7063 09be c3d0 133c
000000c0: a431 72be b25f 9c3d 42f8 0a3f 103b 7cbd
000000d0: f0e0 333f f585 423e 7aed 7e3f 627d 0c3e
000000e0: 568d 8d3e cf99 3cbd 8060 f73c cfad 9d3d
000000f0: 2472 90bd 91a2 ad3d 00b2 863d 563d cfbd
00000100: 33e9 9fbe e138 2d3e cec3 1d3f 4001 79bd
00000110: 0b2a 1c3e f199 233e 4281 e7bd d443 ddbd
00000120: 7092 7dbc 0142 1e3f 3574 013d dfd4 6bbd
00000130: da1e a03e 333c fc3e 7f4e 003e 970d 113d
00000140: 3254 66be 27ea 9fbe a107 a9be 01f7 dc3d
00000150: 79b1 913e 7757 b43b 78e7 a3bd cf70 d23d
00000160: e8f0 c63d 86ff 14be 49ca 813e c3fd fa3e
00000170: c417 733f 4aae 4a3e 68fa 043e bb79 02be
00000180: 2ab6 a9bc ba7f 62be fe45 b03d ee83 e1bd
00000190: 169a 9a3e 05ba 0d3e 5f27 273c d5cf e1bd
000001a0: db9b cc3e ef97 f0ba db9e 31bd d733 f23d
000001b0: 15a8 e43d 43e9 9b3c 6f4e 4d3f 35a2 463e
000001c0: f7a9 f83c 3518 fe3d 1819 8fbc e4a5 2bbd
000001d0: b421 f23d 07ea 7a3d 01d3 33bc a0ad 4ebc
000001e0: 528a dcbe 8a9a 7e3e 9fe7 f7bd acfd 613e
000001f0: 5eb4 243e 6a1c af3d 9325 eb3b 0c7b f4bc

fcl3.weight f4 [4, 128]
-0.4098902 -0.7914613 -0.7062621 1.0903496 -0.589245 -0.4525928 0.59300995 -0.0209037
-0.075319834 -0.603316 0.17244233 0.02792469 -0.50175154 -0.0725143 -0.62318146 0.0053711813
-0.37088993 -0.55490667 -0.37051257 -0.4467439 -0.43569747 -0.4427637 -0.97736764 -0.5824137
-0.56847644 0.27378547 -0.6392338 -0.61609894 -0.02404508 -0.5228828 -0.0071761245 0.015200146
-0.7071988 -0.077455804 0.009900988 -0.021241283 -0.52665085 -0.43085775 -0.2129989 -0.5299154
0.92209035 2.1488853 0.76933396 -0.40640122 0.03796832 -0.07224699 -0.08816078 -1.0441262
-0.46525466 -0.3457511 0.8648983 -0.6576217 1.5585145 -0.07509899 1.044052 -0.6830798
0.118512414 -0.38039103 -0.3163686 -0.55692756 -0.5337864 0.14850824 -0.8655598 -0.5449083
1.8825343 -0.4362135 -0.31053683 -0.059183426 -1.4127712 -0.20217158 -0.21946287 -0.44813105
-0.3763987 1.9076804 -0.98042077 -0.47566137 -1.1272464 1.208064 -0.721405 -0.41111234
1.0836601 0.1349504 -0.024156254 -0.6507707 0.15528552 -0.46013054 -0.45144954 -0.6416707
-0.4086932 -0.7278277 0.468407 0.29333356 1.3445114 -0.44465366 -0.5785736 -1.0462635
-0.56331396 -1.1661131 -0.2844162 -0.09427396 -0.5694889 -0.46947867 -0.25972956 -0.03324631
-0.55169785 -0.49069166 -0.49432102 -0.5370274 -0.5417906 -0.027726362 1.7429265 2.1494784
-0.40496486 -0.6278309 0.039974947 -0.49109954 0.9124958 0.00787436 -0.077048466 0.025119439
0.80454296 0.7024685 -0.3068248 -0.6079374 -0.5449201 -0.36620444 -0.38203043 -0.46148932
-0.4217692 -0.68039715 -0.6360452 1.274179 -0.53213066 -0.5465357 -0.29892915 -0.001966938
-0.028408345 0.3465016 -0.21961392 0.008652798 -0.49713507 -0.000875555 -0.6041276 0.5257664
-0.564833 -0.5717742 -0.47789952 -0.403078 -0.41109785 -0.7232141 -0.7522211 -0.6254067
-0.6308078 0.73818874 -0.6718633 -0.56030136 0.009192836 -0.32874972 0.004877587 0.03243684
-0.68400043 -0.32211596 0.06267766 0.39104342 -0.40653527 -0.45681834 -0.63576937 -0.4046438
1.1588002 2.1209474 0.27101788 -0.3582937 -0.5893515 0.011212051 0.035613626 -0.6072633
-0.48189926 -0.47936887 1.1404274 -0.56916136 0.93036366 -0.780763 0.43307814 -0.45916578
-0.46450272 -0.38827264 -0.4741627 -0.7366168 -0.50484115 0.43544307 -0.020753523 -0.5401419
1.8150312 -0.34720606 -0.4408484 0.039135627 -0.64135075 -0.9243649 -0.57739073 -0.59167874
-0.5159692 1.8970855 0.20023787 -0.5811366 -0.8554765 1.3537512 -0.4158778 -0.5995139
0.697855 0.1528395 -0.50767905 -0.80796164 -0.6878616 -0.5033625 -0.55458176 -0.8136576
-0.29465264 0.2553032 0.66747814 0.09743893 1.5136178 -0.59813297 -0.68335986 -0.5800895
-0.59101695 -0.88884413 -0.74174637 -0.117872365 -0.75412333 -0.4100941 -0.6118845 -0.014827773
-0.3573167 -0.6885746 -0.49029413 -0.5140593 -0.07155895 0.0066064927 1.9988009 1.5753168
-0.45264798 -0.5661632 0.06510268 -0.51085836 0.52444166 -0.07854218 -0.00840003 0.052811958
1.0973752 0.02851867 -0.5395299 -0.4333557 -0.63882184 -0.3040407 -0.5963226 -0.6306789
00000000: 21dd d1be 359d 4abf 98cd 34bf 9390 8b3f
00000010: c3d8 16bf 3eba e7be 80cf 173f 3c3e abbc
00000020: 4941 9abd eb72 1abf b994 303e 52c2 e43c
00000030: ca72 00bf 6182 94bd d288 1fbf bc00 b03b
00000040: 49e5 bdbe 5d0e 0ebf d3b3 bdbe 9ebb e4be
00000050: bd13 dfbe ecb1 e2be c434 7abf 1019 15bf
00000060: ac87 11bf 9c2d 8c3e d4a4 23bf a9b8 1dbf
00000070: 30fa c4bc a6db 05bf b225 ebbb 080a 793c
00000080: fb0a 35bf 26a1 9ebd c137 223c 3302 aebc
00000090: 97d2 06bf 6399 dcbe 621c 5abe 89a8 07bf
000000a0: 1d0e 6c3f 5687 0940 12f3 443f d213 d0be
000000b0: ab84 1b3d 3bf6 93bd a48d b4bd eda5 85bf
000000c0: dc35 eebe 4a06 b1be fa69 5d3f e559 28bf
000000d0: 677d c73f 80cd 99bd 7fa3 853f 51de 2ebf
000000e0: a3b6 f23d 9dc2 c2be 11fb a1be ce92 0ebf
000000f0: 3aa6 08bf 8b12 183e 5495 5dbf 1c7f 0bbf
00000100: e2f6 f03f 6057 dfbe affe 9ebe 526a 72bd
00000110: b0d5 b4bf 1106 4fbe e0ba 60be 6f71 e5be
00000120: 55b7 c0be df2e f43f dbfc 7abf e389 f3be
00000130: 9c49 90bf d7a1 9a3f 00ae 38bf 517d d2be
00000140: 60b5 8a3f 7030 0a3e 56e3 c5bc e998 26bf
00000150: 2b03 1f3e 3b96 ebbe 6524 e7be 8844 24bf
00000160: 3c40 d1be eb52 3abf 0bd3 ef3e d12f 963e
00000170: f318 ac3f a5a9 e3be 661d 14bf f6eb 85bf
00000180: 5835 10bf 3243 95bf 009f 91be b512 c1bd
00000190: 06ca 11bf 825f f0be 46fb 84be 482d 08bd
000001a0: 123c 0dbf f03b fbbe a517 fdbe a17a 09bf
000001b0: cab2 0abf 6522 e3bc 3718 df3f 0e91 0940
000001c0: 8e57 cfbe 87b9 20bf c5bc 233d 6671 fbbe
000001d0: 5399 693f 7603 013c 96cb 9dbd 48c7 cd3c
000001e0: 87f6 4d3f fad4 333f 2418 9dbe c9a1 1bbf
000001f0: e27f 0bbf 267f bbbe 7e99 c3be 5448 ecbe
00000200: 22f2 d7be 822e 2ebf dcd3 22bf 4c18 a33f
00000210: b739 08bf c3e9 0bbf 3e0d 99be bee7 00bb
00000220: 9eb8 e8bc a868 b13e 79e2 60be 77c4 0d3c
00000230: 7d88 febe 8085 65ba 1ba8 1abf a098 063f
00000240: e598 10bf cb5f 12bf 3faf f4be 3d60 cebe
00000250: 6b7b d2be 8f24 39bf 9091 40bf a71a 20bf
00000260: 9f7c 21bf f0f9 3c3f 3cff 2bbf e96f 0fbf
00000270: 8c9d 163c e251 a8be 2ad4 9f3b 7edc 043d
00000280: a71a 2fbf 62ec a4be 255d 803d d836 c83e
00000290: 6425 d0be 18e4 e9be c8c1 22bf 792d cfbe
000002a0: 9153 943f 9abd 0740 dbc2 8a3e 4672 b7be
000002b0: bddf 16bf c0b2 373c 98df 113d 9c75 1bbf
000002c0: 80bb f6be d66f f5be 86f9 913f 8fb4 11bf
000002d0: 502c 6e3f 15e0 47bf 6bbc dd3e c717 ebbe
000002e0: 4dd3 edbe accb c6be 74c5 f2be eb92 3cbf
000002f0: 453d 01bf 65f2 de3e 4b03 aabc bd46 0abf
00000300: f152 e83f fec4 b1be e2b6 e1be ae4c 203d
00000310: 902f 24bf 2ea3 6cbf e1cf 13bf 4278 17bf
00000320: 8f16 04bf b3d3 f23f 280b 4d3e 5ec5 14bf
00000330: 8200 5bbf b847 ad3f efed d4be be79 19bf
00000340: a0a6 323f f581 1c3e 41f7 01bf 93d6 4ebf
00000350: b317 30bf 5ddc 00bf 12f9 0dbf dd4b 50bf
00000360: b6dc 96be 1ab7 823e d9df 2a3f 108e c73d
00000370: 3abe c13f 3e1f 19bf acf0 2ebf bf80 14bf
00000380: e34c 17bf 4a8b 63bf 17e3 3dbf 1167 f1bd
00000390: 3a0e 41bf dbf7 d1be 76a4 1cbf 30f0 72bc
000003a0: 37f2 b6be 6d46 30bf d507 fbbe 6499 03bf
000003b0: 808d 92bd 477b d83b b5d8 ff3f fba3 c93f
000003c0: 7ac1 e7be 12f0 10bf 8e54 853d 9dc7 02bf
000003d0: cf41 063f b9da a0bd 48a0 09bc 5a51 583d
000003e0: ca76 8c3f fc9f e93c a21e 0abf cce0 ddbe
000003f0: d489 23bf 39ab 9bbe 99a8 18bf 2c74 21bf

fcl3.bias f4 [4]
0.13901311 0.14824137 0.32092884 0.09817584
00000000: 7459 0e3e 96cc 173e c950 a43e 6a10 c93d
