dqn/exercise/checkpoint.pth (torch_old, 38582 bytes, 6 tensors)

fcl1.weight f4 [64, 8]
0	0x3e3e6517	0.1859325
1	0x3ef3548e	0.47525448
2	0xbed77305	-0.4207994
3	0xbf717d8f	-0.9433221
4	0xbf11b6b5	-0.56919414
5	0xbe215d79	-0.15758313
6	0x3ef300a6	0.47461432
7	0xbe1e16af	-0.1543834
8	0xbe803665	-0.250415
9	0x3c39f803	0.0113506345
10	0xbddf456c	-0.10901913
11	0xbde9f64a	-0.11423929
12	0xbeb2f0d2	-0.34949356
13	0xbeb18858	-0.34674335
14	0xbf391080	-0.722908
15	0x3dd558a7	0.104173
16	0xbe4ddc35	-0.20103534
17	0xbe22ba84	-0.15891463
18	0xbf8f9375	-1.1216875
19	0xbf2f3534	-0.68440557
20	0x3f08993c	0.5335882
21	0xbc52c62b	-0.01286463
22	0x3e221fbf	0.15832423
23	0x3d62e715	0.05539616
24	0x3e24d464	0.16096646
25	0xbe984192	-0.29737526
26	0x3ec0ebfa	0.37680036
27	0xbe645a98	-0.22300184
28	0xbf619176	-0.8811258
29	0xbdbecad7	-0.093160324
30	0xbe3685b7	-0.17824446
31	0x3f093825	0.53601295
32	0xbdd5c2d1	-0.10437549
33	0xbf0243b7	-0.50884575
34	0xbd87c82f	-0.06629979
35	0xbf2f3538	-0.6844058
36	0x3c76a33b	0.015053566
37	0x3e916374	0.2839619
38	0x3e99b56c	0.30021226
39	0x3ea45cfe	0.32102197
40	0xbe351f77	-0.17687784
41	0xbe8a6f57	-0.2703807
42	0x3edf6f7f	0.43639752
43	0xbec6940e	-0.38784832
44	0xbf597dbe	-0.8495749
45	0xbea29c96	-0.3176009
46	0x3ebd693e	0.36994356
47	0x3e4b8156	0.19873556
48	0xbdbfd720	-0.09367204
49	0xbd48024b	-0.04883031
50	0x3f243c89	0.6415487
51	0x3f509bbd	0.8148764
52	0xbf203b73	-0.6259071
53	0xbec56c81	-0.38559344
54	0x3f1254bd	0.5716055
55	0xbe55fbad	-0.20896788
56	0xbf142071	-0.57862
57	0xbee64b9a	-0.44979554
58	0xbf01d3c2	-0.5071374
59	0xbf18222e	-0.59427154
60	0x3f13bae4	0.5770705
61	0x3e4450fa	0.19171515
62	0xbdec338f	-0.115332715
63	0x3dc3223a	0.095280126
64	0x3e4da9d2	0.20084313
65	0xbec3477e	-0.38140482
66	0x3da1ff0a	0.07909973
67	0xbe9e30d2	-0.30896622
68	0x3fa91a03	1.3211063
69	0x3f21f321	0.6326161
70	0xbe3b3182	-0.18280604
71	0x3e8b0e79	0.2715948
72	0x3e291200	0.16510773
73	0x3e2524cc	0.16127318
74	0x3f6fbaea	0.93644583
75	0x3ed7c09f	0.42139146
76	0xbf4d630a	-0.80229247
77	0xbf2e7b6e	-0.6815709
78	0xbe75eaf6	-0.24015412
79	0xbf52305a	-0.8210503
80	0xbcffe587	-0.031237377
81	0x3edbbf8f	0.42919585
82	0x3f8dd362	1.1080134
83	0xbfb3bd13	-1.4042076
84	0xbf128c76	-0.57245576
85	0xbe1af37e	-0.15131947
86	0x3df317cc	0.11869773
87	0xbeffe9bd	-0.49983016
88	0x3ea47d75	0.32126966
89	0xbecdcbd4	-0.4019457
90	0xbd37f569	-0.044911776
91	0xbe951682	-0.29118735
92	0x3f10cd24	0.5656302
93	0x3f1e817d	0.61916333
94	0xbe75df02	-0.24010852
95	0xbd9501a9	-0.07275707
96	0xbca67c0f	-0.020322828
97	0x3d97f9a2	0.074206606
98	0x3d52cd6b	0.051465433
99	0xbe79354b	-0.24336736
100	0x3e9f99a7	0.31171915
101	0x3f8dc055	1.107432
102	0x3e6053e3	0.21907
103	0xbee38869	-0.4444001
104	0xbf9a0dfb	-1.2035517
105	0xbe5adb30	-0.21372676
106	0xbf344a40	-0.70425797
107	0xbef0dcd8	-0.4704349
108	0xbc6212a3	-0.013798389
109	0x3c2a5647	0.010396547
110	0xbda19b5b	-0.0789096
111	0x3df6f954	0.12059274
112	0xbd517c7e	-0.051144116
113	0x3f8e11e1	1.1099206
114	0x3dbdf2b4	0.092748076
115	0xbf605fdf	-0.8764629
116	0xbe2f6f02	-0.1713219
117	0xbc248a7c	-0.010042783
118	0x3d68b4bf	0.056812998
119	0xbe33ca7a	-0.17557707
120	0x3e9f2c13	0.31088313
121	0x3e1fd136	0.15607151
122	0x3e07a338	0.13245857
123	0x3e96e755	0.29473367
124	0xbf78ff77	-0.9726481
125	0xbe8bab1d	-0.27278987
126	0xbf71902e	-0.94360626
127	0xbf58732a	-0.84550726
128	0xbd38491a	-0.04499159
129	0xbe99ac01	-0.3001404
130	0x3e9bd3a8	0.30434918
131	0xbe754f1e	-0.23955962
132	0xbf257278	-0.6462779
133	0xbe836fb0	-0.25671148
134	0x3ed7eb7f	0.42171857
135	0x3e572823	0.21011405
136	0x3d8fb9fa	0.07017894
137	0x3d442b4c	0.047892854
138	0xbebdfc36	-0.37106484
139	0x3e68ae31	0.22722699
140	0x3ea45b38	0.32100844
141	0x3f046a2a	0.51724494
142	0x3ef8108f	0.48450133
143	0xbeec5d75	-0.46165052
144	0xbea4068c	-0.32036245
145	0xbebe6a7b	-0.37190613
146	0xbd2bc320	-0.041934133
147	0xbf27e0d2	-0.65577424
148	0xbe78860b	-0.24269883
149	0xbefc603d	-0.49292174
150	0xbed46f07	-0.41490957
151	0x3e3f6f35	0.18694766
152	0x3acf9274	0.0015836493
153	0x3e9518d5	0.29120508
154	0xbe5e3b1d	-0.21702237
155	0xbf550b74	-0.832206
156	0x3f143200	0.57888794
157	0xbea731a3	-0.32655057
158	0x3e76eea5	0.24114473
159	0x3e098151	0.13428237
160	0xbe777b0f	-0.24168037
161	0xbf488618	-0.7832961
162	0xbf527543	-0.8221018
163	0xbf19142a	-0.5979639
164	0x3f097e3d	0.5370825
165	0xbe71ed5e	-0.23625705
166	0x3dae0cb0	0.08498514
167	0x3e411ef3	0.18859462
168	0xbea0f88c	-0.31439626
169	0xbf145bb3	-0.5795242
170	0x3c80cba9	0.015722113
171	0xbebfefb2	-0.3748756
172	0x3f03f97b	0.5155255
173	0xbd3b04fd	-0.045659054
174	0xbe1d9357	-0.15388237
175	0x3ed6c9da	0.41950876
176	0x3e0570dc	0.13031334
177	0xbe893e74	-0.2680546
178	0x3f0a3b9d	0.5399721
179	0xbe83c88c	-0.25738943
180	0xbf116827	-0.5679955
181	0xbd08d73f	-0.0334084
182	0x3ecb044c	0.39651716
183	0x3e9cb7cb	0.30608973
184	0x3e65311d	0.22382016
185	0x3e6307f6	0.22171006
186	0x3e98d15d	0.29847232
187	0x3d031699	0.032003973
188	0xbf238f32	-0.63890374
189	0xbd658a1d	-0.05603992
190	0x3efc6654	0.4929682
191	0x3e99f88d	0.30072442
192	0xbe511b65	-0.20420606
193	0x3f5d5938	0.8646426
194	0xbe977e39	-0.29588488
195	0xbedad08f	-0.42737243
196	0x3e32c55a	0.17458096
197	0xbd29d8f8	-0.041466683
198	0xbded2c65	-0.11580733
199	0xbe51c98b	-0.20487039
200	0x3d8f3fec	0.06994614
201	0x3f5a8fc6	0.8537563
202	0xbf693c4a	-0.9110762
203	0xbebbf482	-0.36709982
204	0x3e5e9799	0.21737517
205	0x3f117d5c	0.5683191
206	0x3e221ede	0.15832087
207	0x3ee678ce	0.45014042
208	0x3dbc6fe2	0.092010275
209	0xbe93bb31	-0.28853753
210	0x3dcc7ef8	0.09985155
211	0xbea24464	-0.31692803
212	0xbe09ad20	-0.13444948
213	0xbea54b08	-0.32283807
214	0xbc0620ff	-0.008186578
215	0x3ca0b170	0.019615859
216	0xbe5a54a3	-0.21321349
217	0xbeaa820b	-0.3330234
218	0x3f387cdb	0.72065514
219	0xbebb0f3b	-0.36535057
220	0xbc98c171	-0.018646928
221	0x3eab5e5c	0.33470428
222	0x3e6cbbd1	0.23118521
223	0x3d68baaa	0.05681864
224	0xbf578d55	-0.8420003
225	0x3edf698f	0.43635222
226	0xbf38af82	-0.72142804
227	0x3f268476	0.6504587
228	0xbe981d20	-0.2970972
229	0xbd9b7bf0	-0.075919986
230	0x3e3c4974	0.18387395
231	0x3dffedb5	0.12496511
232	0xbc5f013e	-0.013611136
233	0xbe1417e3	-0.14462237
234	0x3f4fd064	0.81177354
235	0xbf42762b	-0.7596156
236	0x3f9b14cd	1.2115723
237	0xbf2e97da	-0.6820046
238	0x3e84c419	0.2593086
239	0x3ee75db2	0.4518867
240	0x3e5ab55e	0.21358249
241	0x3e03fd82	0.12889674
242	0xbe003cdd	-0.12523217
243	0xbca75de8	-0.02043052
244	0xbd987972	-0.07445039
245	0xbf82feb1	-1.0233976
246	0x3ee270d8	0.44226718
247	0x3d716651	0.058935467
248	0xbe9d1be6	-0.30685347
249	0x3ca20347	0.019776953
250	0xbbec08f5	-0.007203216
251	0xbce24127	-0.027618958
252	0x3ece1b60	0.4025526
253	0xbc096b24	-0.008387361
254	0xbf8171ba	-1.0112832
255	0xbefa0c28	-0.488374

fcl1.bias f4 [64]
0	0x3d8bf7da	0.06834383
1	0x3cf6f583	0.030146366
2	0x3d4e2def	0.050336774
3	0xbde85c0a	-0.1134568
4	0x3e26442d	0.16236944
5	0xbe2a8311	-0.1665156
6	0x3df3608e	0.11883651
7	0xbbcba324	-0.0062145162
8	0x3edfd060	0.43713665
9	0x3e573fc6	0.21020421
10	0x3eca758c	0.39542806
11	0x3e1bbffb	0.15209953
12	0xbe82744c	-0.25479352
13	0xbcb70e07	-0.022345556
14	0x3f28a9ef	0.658843
15	0x3e69ff3c	0.2285127
16	0x3dcd4262	0.10022427
17	0x3daef2a0	0.08542371
18	0x3f54b7f3	0.83093184
19	0x3f4f0484	0.80866265
20	0xbe934c70	-0.28769255
21	0xbdbdcbe7	-0.09267407
22	0xbe0d5e71	-0.13805558
23	0xbe5d3185	-0.21600921
24	0xbe2b88ae	-0.16751358
25	0xbe01d228	-0.12677824
26	0x3d023e51	0.03179771
27	0x3dcf6203	0.10126116
28	0xbdb933bc	-0.09043071
29	0x3cbd5a74	0.02311442
30	0xbe50f0cd	-0.20404358
31	0x3d2fb77e	0.0428996
32	0x3dac88d7	0.08424538
33	0x3f86ff27	1.0546616
34	0xbdf0c583	-0.11756422
35	0x3eb491ff	0.35267636
36	0x3e196492	0.14979771
37	0x3e41cca9	0.18925728
38	0xbf1bb929	-0.60829407
39	0xbd9f7dcd	-0.077876665
40	0x3e5025b4	0.20326883
41	0xbea6debc	-0.32591808
42	0x3e0991e7	0.13434564
43	0x3eb8a8f5	0.36066404
44	0x3e84de06	0.2595064
45	0x3d788ac5	0.060679216
46	0x3f278506	0.6543735
47	0xbdeb3244	-0.11484197
48	0x3e92ea82	0.2869454
49	0x3e2569b6	0.16153607
50	0x3e7b3cf0	0.24534965
51	0x3f071e67	0.52780765
52	0xbec91d82	-0.39280325
53	0x3e6c9066	0.23101959
54	0xbd7424ff	-0.059605595
55	0x3ce2233b	0.02760469
56	0x3cc0b437	0.023523433
57	0x3f024ef9	0.5090175
58	0x3f08e25e	0.5347041
59	0x3e054944	0.1301623
60	0xbe25349b	-0.16133349
61	0x3e08d0d2	0.13360909
62	0xbd307018	-0.04307565
63	0xbc8b7429	-0.017023163

fcl2.weight f4 [128, 64]
0	0x3e199899	0.14999618
1	0xbe35a4cb	-0.17738645
2	0xbda6f6ae	-0.08152519
3	0x3e698e5b	0.2280821
4	0x3dfca58a	0.123362616
5	0x3d661f80	0.056182384
6	0xbf14f0fd	-0.5818022
7	0x3ea5c6aa	0.3237813
8	0xbec4e085	-0.38452545
9	0xbd7217f7	-0.059104886
10	0x3e57fa11	0.21091487
11	0x3d9f8c3c	0.077904195
12	0x3f63091f	0.8868579
13	0x3f2d21ad	0.6762951
14	0x3e30a099	0.17248763
15	0x3d8cc907	0.068742804
16	0x3d62d8fe	0.05538272
17	0xbd402350	-0.046908677
18	0x3eb5a03a	0.35473806
19	0x3e549d34	0.20763093
20	0x3eed4d43	0.4634801
21	0xbcad0b54	-0.021123566
22	0x3db330ea	0.08749564
23	0x3e840896	0.257878
24	0xbdc26348	-0.09491593
25	0xbdf71fa4	-0.12066582
26	0xbe82089f	-0.25397202
27	0x3e5bd953	0.21469621
28	0x3eca2b20	0.39486027
29	0xbea6049c	-0.32425392
30	0x3e3aad19	0.18230094
31	0xbc89c005	-0.016815195
32	0x3dc6c5c5	0.0970569
33	0xbf403b9a	-0.75090945
34	0xbe695e0e	-0.22789785
35	0xbf2f8191	-0.6855708
36	0xbee351a3	-0.4439822
37	0x3e2be0e8	0.16785014
38	0xbd6f58f9	-0.05843446
39	0xbe7ab84e	-0.24484369
40	0xbe426a6b	-0.18985908
41	0x3e9bc278	0.30421805
42	0x3ea16d06	0.3152849
43	0x3d4351a1	0.04768527
44	0xbd8b6797	-0.068068676
45	0x3eb03eea	0.34423
46	0x3f32aadb	0.69791955
47	0x3de68d4b	0.11257418
48	0xbecdb670	-0.4017825
49	0xbd919a97	-0.07109564
50	0x3ea96a7a	0.33089048
51	0xbdc7bae8	-0.097524464
52	0x3e7f7759	0.24947871
53	0xbe7a5d79	-0.2444972
54	0x3e35d3ce	0.17756578
55	0x3e547659	0.20748271
56	0x3e266bdd	0.16252084
57	0x3e4873fe	0.19575498
58	0x3e8ea4fe	0.27860254
59	0xbd85a3be	-0.06525372
60	0xbdb96b6c	-0.09053692
61	0xbe530bee	-0.2061002
62	0xbf0bac45	-0.5455974
63	0x3ec94dd5	0.39317194
64	0xbcfa5bdc	-0.03056138
65	0xbe6edaf7	-0.23325716
66	0x3e064dd2	0.13115624
67	0x3e58b269	0.21161808
68	0x3dc14a29	0.09437973
69	0x3ebb1c3a	0.36544973
70	0x3dd5da93	0.1044208
71	0x3ee16ec7	0.4402983
72	0xbdac98cb	-0.084275804
73	0xbe84921e	-0.2589273
74	0x3de2ea6e	0.1107987
75	0xbda195d2	-0.07889904
76	0x3eb8046a	0.35940868
77	0x3f09f2b8	0.53885984
78	0xbd6eb167	-0.058274653
79	0xbe585b9f	-0.211287
80	0x3e9d06ca	0.30669242
81	0x3f05221b	0.52005166
82	0xbf1e766c	-0.6189945
83	0xbe0418eb	-0.1290013
84	0x3f05f5a1	0.52327925
85	0xbd12874b	-0.035773557
86	0x3eb4c3e7	0.35305712
87	0x3e1c51e9	0.15265621
88	0xbcc650f1	-0.024208518
89	0x3e3a73d0	0.18208241
90	0xbd24eb42	-0.04026342
91	0x3da42c67	0.080162816
92	0x3ca4710f	0.020073442
93	0xbe8880c3	-0.26660737
94	0xbd0456c6	-0.032309316
95	0x3e188cd9	0.14897479
96	0x3d82296c	0.06355557
97	0x3da37d9b	0.07982942
98	0xbd39b10a	-0.045334853
99	0x3e7543c0	0.23951626
100	0x3e63cf85	0.22247131
101	0x3e681cfb	0.22667305
102	0xbf6d1687	-0.926125
103	0xbe3dc749	-0.18533053
104	0x3e81f38a	0.25381118
105	0x3e23c447	0.15992843
106	0x3de3e3ce	0.11127435
107	0x3ea0a72c	0.31377542
108	0x3edbccb6	0.4292962
109	0x3ed75933	0.4206024
110	0xbe48a459	-0.19593944
111	0x3e2f8b5c	0.17143005
112	0x3f1ccc32	0.6124908
113	0x3eba2ad8	0.36360812
114	0x3dd2f6b0	0.10300958
115	0xbe22e1b1	-0.15906407
116	0x3eb4e290	0.35329103
117	0x3e967a4d	0.29390183
118	0x3e1a2513	0.15053205
119	0xbe528ed9	-0.20562305
120	0x3eb6669e	0.35625166
121	0xbf6c354e	-0.92268836
122	0xbd79ce32	-0.06098766
123	0x3d8f9681	0.07011128
124	0x3e91183b	0.283388
125	0x3e72c245	0.2370692
126	0x3e8f4b2d	0.27987042
127	0x3eb70beb	0.3575128
128	0xbda3ceb6	-0.07998411
129	0x3dd6a776	0.104811594
130	0x3dfa17db	0.12211581
131	0x3e88785c	0.26654327
132	0x3dd524cf	0.10407411
133	0x3e9cab63	0.30599508
134	0xbed990b0	-0.424932
135	0x3dcf4b50	0.101217866
136	0xbe78fb0d	-0.24314518
137	0xbe102bc9	-0.14079203
138	0x3eaff8a9	0.343694
139	0x3ba533fe	0.0050415983
140	0x3e89841a	0.26858598
141	0x3ec42a50	0.38313532
142	0x3e73c031	0.23803784
143	0x3ef63421	0.48086646
144	0x3ec8ef78	0.392452
145	0x3e4e3c81	0.20140268
146	0xbe595051	-0.21222045
147	0x3cdc96f5	0.02692745
148	0x3ed44834	0.41461337
149	0xbb6ec5dd	-0.0036433854
150	0x3ec733b0	0.38906622
151	0x3e0b7c50	0.1362164
152	0xbe216c51	-0.15763976
153	0xbe377dbe	-0.1791906
154	0xbdcf9f79	-0.10137839
155	0x3dcb4df3	0.09926977
156	0x3e2aabc6	0.16667089
157	0xbeb2d264	-0.3492614
158	0x3da9d5a5	0.082927026
159	0x3e14b4f8	0.14522159
160	0xbcc5ce59	-0.024146246
161	0xbda48f82	-0.080351844
162	0xbdfd9504	-0.12381938
163	0x3ce03e75	0.027373532
164	0xbd1a1fe2	-0.037628062
165	0x3e871a47	0.26387236
166	0xbf6a7ae0	-0.9159374
167	0xbf135f22	-0.57567036
168	0x3e63c7e8	0.22244227
169	0x3e8a8ca2	0.2706042
170	0x3e848341	0.2588139
171	0xbe4007a1	-0.1875291
172	0x3d08cd17	0.033398714
173	0x3dad8eab	0.084744774
174	0x3d7afc7f	0.061275955
175	0x3e83d9a8	0.25751996
176	0xbd57ad6b	-0.05265562
177	0x3ed45e83	0.41478357
178	0x3e7faf60	0.24969244
179	0xbdd6087f	-0.10450839
180	0x3f03a8d8	0.5142951
181	0xba4efa5f	-0.00078955846
182	0x3de98a06	0.11403279
183	0xbf65ae4d	-0.89719087
184	0x3e94c6d5	0.29057947
185	0xbe989f2a	-0.29808933
186	0xbdb3d667	-0.087811284
187	0xbe1b2f69	-0.15154804
188	0x3ea7aedc	0.32750595
189	0x3df6a604	0.12043384
190	0xbe2e538c	-0.17024058
191	0x3ee538f9	0.4477003
192	0xbe42e526	-0.19032726
193	0xbef71beb	-0.48263487
194	0x3db33ea2	0.08752181
195	0xbe296420	-0.16542101
196	0x3e271ae5	0.16318853
197	0x3dc1a01e	0.09454368
198	0x3e084980	0.13309288
199	0xbef386a5	-0.47563663
200	0xbee04a6d	-0.43806782
201	0xbef5b416	-0.47988957
202	0x3dd23230	0.10263479
203	0xbecb576b	-0.39715132
204	0xbf3130e9	-0.69215256
205	0xbd83404a	-0.064087465
206	0x3ca52c1a	0.02016263
207	0xbecc34be	-0.3988399
208	0xbae4de5f	-0.0017461291
209	0x3eac4ec8	0.33653855
210	0xbe2200c1	-0.158206
211	0xbe29162c	-0.16512364
212	0xbe4a97ca	-0.19784465
213	0xbec6794e	-0.38764423
214	0x3d8f09f6	0.06984322
215	0x3e162652	0.14663056
216	0xbd4d5d3f	-0.050137755
217	0xbe04b54e	-0.12959787
218	0xbd265cd0	-0.040615857
219	0x3dbc5ee3	0.09197786
220	0xbe862c13	-0.262055
221	0xbe0c9ef3	-0.1373251
222	0x3cc16616	0.023608249
223	0xbe967c97	-0.2939193
224	0x3dbd5baa	0.09245999
225	0xbe8944b7	-0.26810238
226	0x3d0beb64	0.034160033
227	0xbec2410e	-0.37940258
228	0xbc7bb1e5	-0.015362238
229	0x3dcbcfb9	0.09951729
230	0x3dfe9006	0.12429814
231	0xbda6c81c	-0.081436366
232	0x3e1e84f1	0.154804
233	0xbec000ff	-0.3750076
234	0xbaf27791	-0.0018498768
235	0xbe516be9	-0.2045132
236	0xbebab387	-0.36465093
237	0xbe0757fa	-0.13217154
238	0xbd42c656	-0.04755243
239	0x3caf65ac	0.021410786
240	0xbe05215f	-0.13001011
241	0xbe9ecd53	-0.31016025
242	0x3cd971f5	0.026543597
243	0xbf00b2a2	-0.5027257
244	0xbe01171a	-0.12606469
245	0xbdd878aa	-0.1056989
246	0x3dc45f2c	0.09588465
247	0xbe5470f7	-0.20746218
248	0xbd40a030	-0.047027767
249	0xbd5429c6	-0.05179765
250	0xbc2ce0e4	-0.010551665
251	0xbdaac6b5	-0.083386816
252	0x3c4ad2f8	0.0123794
253	0xbca3f96d	-0.020016396
254	0x3e836ac8	0.25667405
255	0xbc1a0c72	-0.009402381

fcl2.bias f4 [128]
0	0x3e9fa214	0.31178343
1	0x3cdf3d70	0.027250975
2	0x3e467aae	0.19382736
3	0xbd0b932d	-0.034075905
4	0x3e68d444	0.22737223
5	0x3dcdecc9	0.10054929
6	0x3e88042a	0.26565677
7	0x3dd8ede7	0.10592251
8	0x3dcb3364	0.09921911
9	0x3e1ca220	0.15296221
10	0x3e228cbd	0.15874
11	0xbd90d973	-0.07072725
12	0x3e7e6768	0.24844134
13	0xbde96535	-0.11396257
14	0x3dc178d2	0.09446873
15	0x3d3d14ca	0.046162404
16	0xbdf1f1ae	-0.11813675
17	0x3e64f0b0	0.2235744
18	0x3e44f136	0.1923264
19	0xbe8541bc	-0.26026714
20	0xbda6f291	-0.081517346
21	0xbc86a8d5	-0.016437927
22	0x3d018cf9	0.031628583
23	0x3ef1c4f8	0.47220588
24	0x3d12fafb	0.035883885
25	0x3d0443af	0.03229111
26	0x3e8a8dd5	0.27061334
27	0x3e9009b3	0.281324
28	0x3c998955	0.018742243
29	0x3dababe2	0.083823934
30	0xbe6b0e9b	-0.2295479
31	0x3f0a0b71	0.5392371
32	0x3d9c3473	0.076271914
33	0x3eb226b1	0.34795144
34	0x3d29886b	0.041389864
35	0x3d7d98ad	0.06191318
36	0x3e44c0d6	0.19214186
37	0x3e7c9873	0.2466753
38	0x3ef37b25	0.4755489
39	0x3e313748	0.17306244
40	0x3eb1ca48	0.3472464
41	0x3de25c26	0.11052732
42	0x3eb5a09c	0.35474098
43	0x3e7ea18a	0.2486631
44	0x3d3baa6e	0.04581683
45	0x3db22512	0.08698477
46	0x3eafe7f6	0.3435666
47	0x3f043a5b	0.51651543
48	0xbdb70c26	-0.08937864
49	0x3e6b1a35	0.22959216
50	0xbe7992f7	-0.24372469
51	0xbda81f2f	-0.08209073
52	0xbec1e8e1	-0.37872985
53	0x3c42ca41	0.011889041
54	0x3e482ab2	0.19547537
55	0x3ead1b90	0.3381009
56	0x3e2a9c65	0.16661222
57	0xbe3cbce9	-0.18431439
58	0x3e8f2964	0.27961266
59	0x3edc2cdc	0.43002975
60	0x3e9ea74c	0.30987012
61	0xbcec5f3a	-0.028854001
62	0xbe2aae6b	-0.16668098
63	0x3e0cc303	0.13746266
64	0xbd89307a	-0.06698699
65	0x3e5dba4c	0.21653098
66	0x3e484494	0.1955741
67	0x3e4aedb7	0.19817244
68	0x3d0d3f4d	0.034484196
69	0x3c8737ba	0.016506065
70	0xbd8b5b48	-0.0680452
71	0x3eaafd4a	0.3339637
72	0x3f048265	0.51761466
73	0x3e9c7aca	0.3056243
74	0xbd90eb3a	-0.07076116
75	0x3e0ee3a3	0.13954024
76	0x3e7ded8d	0.2479765
77	0xbdf175cc	-0.11790046
78	0x3ed93258	0.42421222
79	0xbde2c38c	-0.11072454
80	0xbeb7da91	-0.3590894
81	0x3db6db8a	0.089285925
82	0x3ebddcfc	0.3708266
83	0x3e94a28e	0.2903027
84	0xbc94e8b5	-0.01817737
85	0x3dcb490a	0.099260405
86	0x3ec23ad4	0.37935507
87	0xbdba1b34	-0.0908722
88	0x3e64594f	0.22299694
89	0xbe3d272d	-0.18471976
90	0xbdc8a2a9	-0.0979665
91	0xbb3f9560	-0.0029233322
92	0x3e3e23c7	0.18568335
93	0x3ddce4f4	0.10785857
94	0x3e9394b9	0.28824404
95	0xbe471b82	-0.19444087
96	0xbd9c442e	-0.07630192
97	0x3e293770	0.16525054
98	0x3f15b685	0.5848163
99	0x3e5f0074	0.21777517
100	0x3d80c5e7	0.06287747
101	0x3e609094	0.21930152
102	0x3f263c12	0.6493541
103	0xbd8f651f	-0.07001709
104	0xbe456849	-0.19278063
105	0x3e09a85b	0.13443129
106	0xbd004cae	-0.031323127
107	0x3d375061	0.04475439
108	0x3eacccf3	0.33750114
109	0x3da78ea3	0.08181503
110	0x3f2aab7e	0.66667926
111	0xbd43176c	-0.04762976
112	0x3d57f5e0	0.05272472
113	0x3ea3e28e	0.32008785
114	0x3bb193e0	0.0054192394
115	0x3e141421	0.14460804
116	0x3ef70037	0.4824235
117	0x3e230695	0.1592048
118	0x3ea98577	0.33109638
119	0xbc4eada0	-0.012614638
120	0x3ea6837b	0.32522187
121	0x3e831ca3	0.25607786
122	0xbdaadef4	-0.08343306
123	0x3ecf11a3	0.40443143
124	0x3ec98b3b	0.39364037
125	0x3d2a4918	0.041573614
126	0x3ee64c25	0.4497997
127	0x3e89c07b	0.26904663

fcl3.weight f4 [4, 128]
0	0xbe99ae54	-0.30015814
1	0xbe29d1b0	-0.16583896
2	0xbe73bc18	-0.23802221
3	0xbd90610f	-0.070497625
4	0xbe77221f	-0.2413411
5	0xbe818e04	-0.25303662
6	0xbda18276	-0.078862116
7	0xbe82e4c5	-0.25565162
8	0xbd9a4149	-0.075319834
9	0xbda33328	-0.07968742
10	0xbdbd11b8	-0.09231895
11	0x3d224786	0.03961899
12	0xbe94a0a1	-0.290288
13	0xbd948261	-0.0725143
14	0xbe85fd4a	-0.26169807
15	0x3e1e8f19	0.15484275
16	0x3d368df4	0.04456897
17	0xbe4225d7	-0.18959747
18	0xbe130c5a	-0.1436018
19	0xbe6257f2	-0.22103861
20	0xbd9f2388	-0.07770449
21	0xbe896dbd	-0.26841536
22	0xbe01e513	-0.12685041
23	0xbc9f6990	-0.019459516
24	0x3ca0b2b6	0.019616466
25	0x402ce0c5	2.7012188
26	0xbedaac55	-0.42709604
27	0xbf13f8cb	-0.578015
28	0xbf36c88b	-0.71399754
29	0xbea3c072	-0.31982762
30	0xbedeebb9	-0.43539217
31	0x3fb03112	1.3764975
32	0xbe21dff2	-0.15808085
33	0xbf1d57a2	-0.6146184
34	0xbda8e125	-0.08246068
35	0xbd8f7241	-0.07004214
36	0xbe7e79e0	-0.24851179
37	0xbe7f23f4	-0.24916059
38	0xbb839abe	-0.0040162494
39	0xbe8ef4bd	-0.27921095
40	0x4007230e	2.1115146
41	0x3fe6301f	1.7983435
42	0xbe94115e	-0.289195
43	0xbe3fb2b0	-0.18720508
44	0x3d57d66e	0.05269473
45	0xbd66c9d8	-0.056344837
46	0xbf39c626	-0.72567976
47	0xbf11ae20	-0.5690632
48	0xbe8b3d73	-0.2719532
49	0xbe5e9623	-0.2173696
50	0xbf11504e	-0.5676316
51	0xbe21d50f	-0.15803932
52	0xbe4ea59d	-0.20180364
53	0x3d08a7f5	0.0333633
54	0xbe14d071	-0.14532639
55	0x3f0df783	0.554558
56	0xbe236464	-0.15956265
57	0xbf148dbd	-0.58028775
58	0xbe32d4c3	-0.17463975
59	0x3dc9dafc	0.09856221
60	0x3c6dd862	0.014516922
61	0xbefc2503	-0.49246988
62	0xbf6fedae	-0.93722045
63	0xbe7d09c2	-0.24710754
64	0x3efb2c16	0.49057072
65	0xbe8b9822	-0.27264506
66	0xbf472913	-0.7779705
67	0x3dc1da58	0.09465474
68	0xbe11d3d9	-0.1424097
69	0x3da0bc0b	0.07848366
70	0xbe0f903b	-0.14019863
71	0xbe08925c	-0.13337082
72	0x3e126cc9	0.1429931
73	0x4012cf2c	2.2938948
74	0xbcfdf982	-0.031002764
75	0xbe4e7223	-0.20160727
76	0xbe8063e5	-0.25076213
77	0x3d8ce9cd	0.068805315
78	0x3c82cbdb	0.015966346
79	0xbf052fab	-0.5202586
80	0xbe5d17b5	-0.21591075
81	0xbe17f529	-0.14839615
82	0xbe0257b8	-0.12728775
83	0xbe0817aa	-0.13290277
84	0xbe37b8b1	-0.17941548
85	0xbe81e7c0	-0.25372124
86	0x3fcdbc51	1.6073095
87	0xbcf4c192	-0.029877458
88	0xbe850071	-0.259769
89	0xbef950f4	-0.48694575
90	0x39a8eb86	0.00032218936
91	0x3e2ecdb5	0.17070659
92	0xbecdac51	-0.4017053
93	0xbe2c0df4	-0.16802198
94	0xbe2b3817	-0.16720615
95	0xbf1d3cb9	-0.6142078
96	0x3c57ba14	0.013166923
97	0xbe829b47	-0.25509092
98	0xbdbe49b4	-0.092914015
99	0xbe1f6909	-0.15567411
100	0xbdce99da	-0.100879386
101	0xbe82ce6a	-0.25548106
102	0x3f9a0263	1.2031978
103	0xbe41f05a	-0.18939343
104	0xbe3b1286	-0.18268785
105	0xbe8bb143	-0.27283677
106	0xbf05e9c9	-0.5230985
107	0xbf29367e	-0.66098773
108	0xbf01333b	-0.50468796
109	0xbe4f78bb	-0.20260899
110	0x3f71db5b	0.94475335
111	0x3d4effbe	0.050536864
112	0xbe71bee0	-0.2360797
113	0xbe3e9739	-0.18612374
114	0xbc187bb8	-0.009306841
115	0xbe608cf4	-0.2192877
116	0x3f2b6f44	0.6696665
117	0xbdfe3831	-0.124130614
118	0xbee973b7	-0.45596096
119	0x3ccdc748	0.025119439
120	0x3ffdd612	1.9830954
121	0x3fcabb2b	1.5838369
122	0xbe502237	-0.20325552
123	0xbfef9285	-1.8716589
124	0x3fb8acef	1.4427775
125	0xbdf7519a	-0.12076111
126	0x3f75c47c	0.96002936
127	0x3f9a0100	1.2031555
128	0xbe5cff5a	-0.21581784
129	0xbe8da849	-0.27667454
130	0xbe42eca5	-0.19035585
131	0xbe9a72ca	-0.30165702
132	0xbe7c9505	-0.24666221
133	0xbe5796b5	-0.21053584
134	0xbe053c1a	-0.13011208
135	0xbe89b3fc	-0.2689513
136	0xbce8b89e	-0.028408345
137	0x3eeedbcd	0.4665207
138	0xbe8bf14d	-0.27332535
139	0xbbae230c	-0.0053142365
140	0xbe72fc6b	-0.23729102
141	0xba658580	-0.000875555
142	0xbe793366	-0.24336013
143	0x3e0a1142	0.13483146
144	0xbd1d5c9d	-0.0384184
145	0xbec2b743	-0.38030443
146	0xbe8e957c	-0.27848423
147	0xbe244a76	-0.1604403
148	0xbcf111be	-0.029427405
149	0xbeaca704	-0.33721173
150	0xbe59f6c3	-0.21285538
151	0xbf11ecc9	-0.5700193
152	0xbcebad3a	-0.028769124
153	0x400d989b	2.2124393
154	0xbeef1b6a	-0.46700603
155	0xbe9d3c03	-0.30709848
156	0x3f23ff14	0.64061093
157	0xbe4fbaf3	-0.20286159
158	0xbeffe492	-0.49979073
159	0x3fbd4842	1.4787676
160	0xbdac19c2	-0.084033504
161	0xbf469d6a	-0.77583945
162	0xbd79e188	-0.0610061
163	0x3d1aa02f	0.03775042
164	0xbe322290	-0.17395997
165	0xbe22b059	-0.15887584
166	0xbe97bbde	-0.2963552
167	0xbe2e0b25	-0.16996439
168	0x402c695b	2.6939304
169	0x3fd47f94	1.6601434
170	0xbe9dbfae	-0.30810302
171	0xbe53f3da	-0.2069849
172	0xbe30ddf8	-0.17272174
173	0xbafe1fe8	-0.0019388171
174	0xbeb2b5a6	-0.34904212
175	0xbf1cbc33	-0.6122467
176	0xbe6c7056	-0.23089728
177	0xbe7cd70e	-0.24691412
178	0x3e83758c	0.2567562
179	0xbe3ad70e	-0.182461
180	0xbf27b18c	-0.6550529
181	0xbd588113	-0.05285747
182	0xbeb6eeb3	-0.35728988
183	0x3f22c261	0.6357785
184	0xbebbf537	-0.36710522
185	0xbf10e835	-0.5660432
186	0xbe9f7291	-0.31142095
187	0x3d0d6f74	0.034530118
188	0xbcf00f23	-0.029304093
189	0xbf04fdf8	-0.51950026
190	0xbcba5ddd	-0.022749836
191	0xbe86cba5	-0.26327243
192	0x3ee964da	0.45584756
193	0xbe268046	-0.1625987
194	0xbf254a1a	-0.64566195
195	0x3e8b219a	0.27174073
196	0xbe3541e8	-0.17700922
197	0xbd532cca	-0.051556386
198	0xbe3db488	-0.18525898
199	0xbe36fdb2	-0.17870215
200	0xbcb96d3d	-0.022635097
201	0x3fe8f88a	1.8200848
202	0x3f59ef02	0.8513032
203	0xbe583365	-0.21113355
204	0xbe76880d	-0.24075337
205	0x3cbdae60	0.023154438
206	0x3e5fd886	0.21859941
207	0xbf1d432b	-0.61430615
208	0xbd61a5e0	-0.05508983
209	0xbe2e70f5	-0.17035277
210	0xbee14915	-0.4400107
211	0xbeec0968	-0.46100926
212	0xbe875d2c	-0.26438272
213	0xbe66d544	-0.22542292
214	0x3fc1eb8a	1.5150006
215	0x3c89b144	0.01680816
216	0xbde72eff	-0.11288261
217	0xbf0e7f01	-0.5566254
218	0x3d816b64	0.06319311
219	0xbf1701b3	-0.5898697
220	0xbeb4a955	-0.3528544
221	0xbe83655f	-0.25663278
222	0xbebbe220	-0.36695957
223	0xbf1357e7	-0.57556003
224	0xbd58909f	-0.052872296
225	0xbe82d07b	-0.25549683
226	0xbe6e0755	-0.23244984
227	0x3dd035c5	0.10166506
228	0xbdb5d744	-0.08878949
229	0xbe1e7bf2	-0.15476969
230	0x3f661968	0.89882517
231	0x3eaf8265	0.3427917
232	0xbe611b8f	-0.21983169
233	0xbe88b5d2	-0.26701218
234	0xbe87ad91	-0.26499608
235	0xbe918e0c	-0.28428686
236	0xbe606222	-0.21912435
237	0xbdb5e7c9	-0.088821
238	0x3fb70c81	1.4300691
239	0x3d8a1c25	0.067436494
240	0xbe4df295	-0.20112069
241	0xbe627e18	-0.22118413
242	0x3e426977	0.18985544
243	0xbe4a6c5c	-0.19767898
244	0x3f2f7c18	0.6854873
245	0xbec95ef6	-0.39330262
246	0xbe3a4a9a	-0.1819252
247	0x3d58515a	0.052811958
248	0x400fee37	2.2489145
249	0x3fb725e1	1.4308435
250	0xbf4185ef	-0.7559499
251	0xbf9b9c77	-1.2157124
252	0x3fa10cbb	1.258201
253	0xbdcd3621	-0.1002009
254	0x3f41383c	0.7547643
255	0x3f57a596	0.8423704

fcl3.bias f4 [4]
0	0xbd238528	-0.03992191
1	0xbe7d48ce	-0.24734804
2	0x3e2f5def	0.17125677
3	0xbe5fe8a1	-0.21866085
