dqn/exercise/checkpoint.pth (torch_old, 38582 bytes, 6 tensors)

fcl1.weight f4 [64, 8]
0	0xbd3b752d	-0.045766044
1	0x3f6cdd00	0.9252472
2	0xbf312825	-0.6920188
3	0xbf8edbc0	-1.1160812
4	0xbf28bd4f	-0.6591386
5	0xbeaf3b33	-0.34224853
6	0x3ec182b2	0.37795025
7	0xbe65548e	-0.22395536
8	0xbef6eb78	-0.48226523
9	0x3d3c4d60	0.045972228
10	0xbd92f284	-0.071751624
11	0xbdf2e351	-0.118597634
12	0xbecb1696	-0.3966567
13	0xbe9df5d0	-0.30851603
14	0xbee1a0de	-0.44068044
15	0x3e498827	0.19680844
16	0xbe8cfa17	-0.27534553
17	0xbe52e7dd	-0.20596261
18	0xbf8c7dbc	-1.0975871
19	0xbf2b3206	-0.66873205
20	0x3f2ce682	0.67539227
21	0x3e4b0031	0.19824292
22	0x3e31494b	0.17313115
23	0xbd2fbfce	-0.04290753
24	0x3e7fedf4	0.24993116
25	0xbecd0357	-0.4004161
26	0x3eeffe98	0.46873927
27	0xbee5f302	-0.44911963
28	0xbf762cd0	-0.9616213
29	0xbe34d084	-0.17657667
30	0xbdc6e4f0	-0.09711635
31	0x3f1a06cd	0.6016663
32	0xbdc716f1	-0.097211726
33	0xbf0a5ff1	-0.54052645
34	0xbdb1d44b	-0.0868307
35	0xbf5b62f6	-0.8569788
36	0x3bfc6446	0.007702383
37	0x3e7c0740	0.2461214
38	0x3e85ac6d	0.26108113
39	0x3e7e3785	0.24825867
40	0xbe399d2b	-0.18126361
41	0xbf247d4a	-0.64253676
42	0x3ec47610	0.38371325
43	0xbf20be6a	-0.6279055
44	0xbf6250cb	-0.8840453
45	0xbebf9cdf	-0.3742437
46	0x3ec3a5f3	0.38212547
47	0x3e9d9714	0.30779326
48	0xbd8b9d85	-0.06817154
49	0xbf05f1d2	-0.52322114
50	0x3f38cd8a	0.7218863
51	0x3f876e27	1.0580491
52	0xbeafe27f	-0.3435249
53	0xbe6944ab	-0.22780101
54	0x3f27d6d3	0.6556217
55	0xbe24c71f	-0.16091584
56	0xbf16ff08	-0.58982897
57	0xbf0aae84	-0.5417254
58	0xbea257ad	-0.31707516
59	0xbf4251d8	-0.75906134
60	0x3f2ea0e1	0.6821423
61	0x3ea69d93	0.32542095
62	0xbde69f4d	-0.11260853
63	0x3d1e6197	0.038667288
64	0x3e45729c	0.19282001
65	0xbeb3ff58	-0.3515575
66	0xbcda4d5e	-0.02664822
67	0xbde8049e	-0.11329006
68	0x3fac04f2	1.3439009
69	0x3f32ea0c	0.6988838
70	0xbe49d655	-0.19710667
71	0x3e898f5a	0.2686718
72	0xbad593e1	-0.0016294682
73	0x3e60accf	0.21940921
74	0x3f3ed924	0.7455008
75	0x3f009fc0	0.5024376
76	0xbf7f2545	-0.99666244
77	0xbf25f9b6	-0.64834154
78	0xbdc3c528	-0.09559089
79	0xbf8b6003	-1.0888675
80	0xbdba73d2	-0.09104122
81	0x3f5bf517	0.8592085
82	0x3f31ae13	0.6940624
83	0xbfebdff3	-1.8427719
84	0xbf0aa169	-0.5415254
85	0xbe36c892	-0.17849949
86	0x3d48a647	0.0489867
87	0xbee4ed2b	-0.44712195
88	0x3e5640f2	0.20923212
89	0xbf5276bf	-0.8221244
90	0x3d9700eb	0.07373222
91	0xbefc0c02	-0.4922791
92	0x3f37e8e8	0.7183976
93	0x3f0c2352	0.54741395
94	0xbec468b2	-0.38361126
95	0xbd4781c8	-0.048707753
96	0x3dd1a8c1	0.102372654
97	0xbda4e611	-0.08051694
98	0x3d8702b3	0.06592312
99	0xbe87f78f	-0.2655606
100	0x3eb3ea3b	0.3513964
101	0x3fa74788	1.3068705
102	0x3e5ac030	0.21362376
103	0xbec5c6b6	-0.38628167
104	0xbfa00acf	-1.2503299
105	0xbe42d8b4	-0.19027978
106	0xbf235b0c	-0.638108
107	0xbf0ad5be	-0.54232395
108	0xbe80b5af	-0.25138614
109	0xbe17d3f5	-0.14826949
110	0xbb2c3ed1	-0.0026282559
111	0x3d689036	0.056778155
112	0x3d4e4074	0.050354436
113	0x3fda5430	1.7056942
114	0xbe03c217	-0.12867008
115	0xbf6c2899	-0.9224945
116	0xbd97c2d0	-0.074102044
117	0x3de75091	0.11294664
118	0xbc1eee7a	-0.009700412
119	0xbeabbd34	-0.33542788
120	0x3e5e69ac	0.21719998
121	0x3e80dd10	0.25168657
122	0x3e9be0ab	0.30444846
123	0x3eb2cddd	0.34922686
124	0xbf9b8b7f	-1.2151946
125	0xbedbb4d6	-0.42911404
126	0xbf43a3da	-0.7642189
127	0xbf87e97a	-1.0618126
128	0xbbfc0840	-0.007691413
129	0xbf0da934	-0.5533631
130	0x3eb48a4f	0.3526177
131	0xbecd4f0a	-0.40099365
132	0xbf400370	-0.75005245
133	0xbe9bcdaa	-0.30430347
134	0x3ec926c7	0.39287397
135	0x3e54fa20	0.2079854
136	0x3da4b04b	0.08041438
137	0x3e1ee0b2	0.15515402
138	0xbec59b5c	-0.38595092
139	0x3e49ec67	0.19719087
140	0x3ee20f8d	0.4415249
141	0x3f41688d	0.75550157
142	0x3ee6a0fe	0.45044702
143	0xbeeb6ebe	-0.45982927
144	0xbeaf9003	-0.3428956
145	0xbe39ab26	-0.18131694
146	0xbdf30a43	-0.11867192
147	0xbefaaee0	-0.48961544
148	0xbe37e00e	-0.17956564
149	0xbec5d6ec	-0.38640535
150	0xbee58e24	-0.44835007
151	0x3e81d526	0.25357932
152	0xbcadfb5a	-0.021238018
153	0x3e9aa646	0.30204982
154	0xbe8c9c44	-0.2746297
155	0xbf14118d	-0.5783928
156	0x3f1fe6a6	0.62461317
157	0xbe03fdf7	-0.12889849
158	0x3e6d8f80	0.23199272
159	0x3e109def	0.14122747
160	0xbe12c979	-0.14334668
161	0xbf92c0d0	-1.1465092
162	0xbf543268	-0.82889414
163	0xbf5470ed	-0.8298481
164	0x3f4eeb14	0.8082745
165	0xbe3b3403	-0.1828156
166	0x3d651283	0.055925857
167	0x3dbf033f	0.09326791
168	0xbddbda2d	-0.10734973
169	0xbf912b2c	-1.13413
170	0x3db38409	0.08765418
171	0xbf1b9f14	-0.6078961
172	0x3f3d52e1	0.7395459
173	0xbdc25d1a	-0.09490414
174	0xbe4044e8	-0.18776286
175	0x3ed557e7	0.41668627
176	0x3db0e489	0.086373396
177	0xbed55ae7	-0.41670915
178	0x3ed0648d	0.40701714
179	0xbf0104a0	-0.5039768
180	0xbf3994d2	-0.72492707
181	0xbdea1dcc	-0.114314646
182	0x3ecda055	0.40161386
183	0x3ebb3084	0.36560452
184	0x3d01c2e0	0.031679988
185	0x3e309196	0.17243037
186	0x3e690f1e	0.22759673
187	0xbe195859	-0.14975108
188	0xbf56cea6	-0.8390907
189	0x3c88d029	0.016700821
190	0x3ef049c4	0.4693128
191	0x3e9a7afa	0.3017195
192	0xbe6e3558	-0.23262537
193	0x3f925239	1.1431342
194	0xbe86adbd	-0.26304427
195	0xbf1480f5	-0.5800927
196	0x3db20d4b	0.08693942
197	0x3dcae4d0	0.09906924
198	0xbe4d2d9b	-0.20036928
199	0xbe81b913	-0.25336513
200	0xbd8b57fd	-0.06803892
201	0x3f85e8b1	1.0461637
202	0xbf5d7d50	-0.86519337
203	0xbe810ce7	-0.25205156
204	0x3e3bd60e	0.18343374
205	0x3f24784a	0.64246047
206	0x3e15dd37	0.14635168
207	0x3ed4c2aa	0.41554767
208	0xbc23f0b6	-0.01000612
209	0xbf9d35fb	-1.2282099
210	0x3e235dd4	0.15953761
211	0xbf027e1c	-0.5097368
212	0xbe40b9ce	-0.18820879
213	0xbecfbf24	-0.40575516
214	0xbd94e25c	-0.07269737
215	0xbdb9de2c	-0.09075579
216	0xbead2ba3	-0.33822355
217	0xbf9a4fb8	-1.2055578
218	0x3f2da38f	0.67827696
219	0xbf09db53	-0.5385029
220	0xbda97a33	-0.08275261
221	0x3e67f7b1	0.2265308
222	0x3df65624	0.12028149
223	0x3c1a8f82	0.009433629
224	0xbf4fd27b	-0.8118054
225	0x3eb251bb	0.3482798
226	0xbf4ae8b8	-0.7926135
227	0x3f266324	0.64995027
228	0xbe9b6829	-0.30352905
229	0xbde706ff	-0.11280631
230	0x3ddca056	0.10772769
231	0x3d983b24	0.07433155
232	0xbd3d68fa	-0.04624269
233	0xbd8be401	-0.06830598
234	0x3f5cd229	0.8625818
235	0xbf1dc6f8	-0.6163173
236	0x3f9a9d9a	1.2079346
237	0xbf3aeb3d	-0.73015195
238	0x3e895bdd	0.268279
239	0x3ee7dc85	0.4528543
240	0x3dcd12db	0.10013362
241	0xbdba22b6	-0.09088652
242	0xbe6c73d5	-0.23091061
243	0xbe0f8a91	-0.14017703
244	0xbe0cc18e	-0.1374571
245	0xbf9937fa	-1.1970208
246	0x3ed18509	0.4092181
247	0x3d9f3e26	0.07775526
248	0xbeafae31	-0.34312585
249	0x3e6a2056	0.22863898
250	0x3e5cd22f	0.21564554
251	0xbea1a45e	-0.31570715
252	0x39234805	0.0001557172
253	0xbd14f610	-0.036367476
254	0xbf8171ba	-1.0112832
255	0xbf0d4b02	-0.5519258

fcl1.bias f4 [64]
0	0x3c3c81f3	0.011505592
1	0x3d024dd7	0.031812515
2	0x3e3441bd	0.17603202
3	0xbe2d2f46	-0.16912565
4	0x3d595df5	0.05306812
5	0xbe4dc679	-0.20095243
6	0x3e490c93	0.19633703
7	0x3c3ce669	0.011529543
8	0x3ed68635	0.41899267
9	0x3e89db2c	0.26925027
10	0x3ea7157c	0.3263358
11	0x3db6a4dd	0.08918164
12	0xbe9b5ed3	-0.30345783
13	0xbd245e04	-0.040128723
14	0x3f24a51e	0.6431445
15	0x3e4df695	0.20113595
16	0x3cca12ef	0.024667231
17	0x3e00c87b	0.12576477
18	0x3f5e5df7	0.8686213
19	0x3f636b99	0.88836056
20	0xbe718f3f	-0.235898
21	0xbce3e8bf	-0.027820943
22	0xbe2a407a	-0.16626158
23	0xbe869e15	-0.26292482
24	0xbe66f2b5	-0.22553523
25	0xbe139b7a	-0.14414778
26	0x3c25e018	0.010124229
27	0x3e54886d	0.20755167
28	0xbd1077aa	-0.03527037
29	0x3db9a3c8	0.09064442
30	0xbe89d6ae	-0.269216
31	0x3de11099	0.10989494
32	0x3e169f2c	0.14709157
33	0x3f98beb2	1.1933196
34	0xbe3d61a7	-0.18494283
35	0x3ed9303a	0.42419606
36	0x3e4cd0d0	0.2000153
37	0x3e47f09b	0.19525377
38	0xbf0a0d2e	-0.5392636
39	0xbd88b841	-0.06675769
40	0x3e93f67c	0.2889899
41	0xbea33a10	-0.31880236
42	0x3db90085	0.09033302
43	0x3e245ee5	0.16051824
44	0x3d9ed272	0.07754983
45	0x3d3e2ad6	0.04642757
46	0x3f30e749	0.69102913
47	0xbdd88427	-0.10572081
48	0x3e838981	0.25690845
49	0x3e28ccc6	0.16484365
50	0x3e69ea88	0.22843373
51	0x3f114a64	0.56754136
52	0xbef849f7	-0.4849393
53	0x3f05def9	0.52293354
54	0xbd34b8f8	-0.044121712
55	0x3d5c8eb9	0.05384705
56	0xbd3a3c0a	-0.045467414
57	0x3f24ab7b	0.6432416
58	0x3f17c993	0.5929195
59	0x3e067be9	0.13133205
60	0xbe7126c8	-0.2354995
61	0x3d9764de	0.07392286
62	0xbe04a020	-0.12951708
63	0xbc8a9c2c	-0.016920172

fcl2.weight f4 [128, 64]
0	0x3ecbca08	0.39802575
1	0xbe2956f1	-0.16537072
2	0x3ce4bb83	0.027921444
3	0x3ead393b	0.33832726
4	0x3e0fdf5e	0.14050052
5	0x3e21d510	0.15803933
6	0xbf43eccc	-0.765332
7	0x3eaac3ba	0.33352453
8	0xbec88902	-0.3916703
9	0xbcd47ea1	-0.025939288
10	0x3eb7c90f	0.35895583
11	0xbc46bb61	-0.012129636
12	0x3f5b4985	0.85659057
13	0x3f3c731f	0.7361316
14	0x3eb40442	0.35159498
15	0x3e28e8d2	0.16495064
16	0x3dae38b8	0.08506912
17	0x3daa07a1	0.08302236
18	0x3edf4fad	0.43615475
19	0x3e8bf34b	0.27334055
20	0x3f26d18c	0.65163493
21	0xbcbeb1e3	-0.023278182
22	0x3e39aaf4	0.1813162
23	0x3eb5a87b	0.35480103
24	0xbee0fcc6	-0.4394285
25	0xbdeff56e	-0.11716734
26	0xbe208799	-0.15676726
27	0x3e0130fc	0.12616342
28	0x3ea8616f	0.32886836
29	0xbec99132	-0.39368588
30	0x3e7e7ee0	0.24853086
31	0x3cd8c047	0.026458872
32	0x3d13e1ba	0.03610394
33	0xbf478f97	-0.77953476
34	0xbbe05a00	-0.0068466663
35	0xbf3e3976	-0.7430643
36	0xbec46f1f	-0.3836603
37	0x3e27ee16	0.16399416
38	0xbed63b45	-0.41842094
39	0xbe37df41	-0.17956258
40	0xbe4e9718	-0.20174825
41	0x3e8e5d0e	0.2780537
42	0x3e762db6	0.24040875
43	0x3e2d7f31	0.16943051
44	0xbba1bb86	-0.0049356846
45	0x3eb88e3b	0.36046013
46	0x3f1ae1eb	0.60500973
47	0xbc60db44	-0.013724152
48	0xbf4980fe	-0.7871245
49	0xbe2e03cb	-0.16993634
50	0x3e85ced3	0.26134357
51	0xbe0d3bb3	-0.13792305
52	0x3e9ec7bb	0.31011757
53	0xbea0cef9	-0.31407908
54	0x3e7a28b0	0.24429584
55	0x3eafb02c	0.34314096
56	0xbd13257d	-0.035924423
57	0x3eb80c24	0.35946763
58	0x3ebd4ac7	0.36971113
59	0x3ce26082	0.02763391
60	0xbe202882	-0.15640453
61	0xbe32be0b	-0.17455308
62	0xbf0561d0	-0.52102375
63	0x3e4dbf9a	0.20092621
64	0x3dd5d585	0.10441116
65	0xbe435981	-0.19077112
66	0x3e97d0a8	0.2965138
67	0x3ea649e9	0.32478264
68	0x3e0911d8	0.13385713
69	0x3eef862a	0.46782047
70	0x3c3a9fd3	0.011390644
71	0x3f2d2c6a	0.67645895
72	0x3d663b3d	0.056208838
73	0xbe3e221d	-0.185677
74	0x3e3bbb21	0.18333103
75	0x3e062857	0.13101326
76	0x3f1c926d	0.6116093
77	0x3f1f9f63	0.6235258
78	0xbd948f8e	-0.072539434
79	0xbe937e0b	-0.288071
80	0x3ebbdac4	0.36690342
81	0x3f160354	0.5859883
82	0xbf157771	-0.5838538
83	0xbe05c7ee	-0.13064548
84	0x3f445e1a	0.7670609
85	0x3e0ae017	0.13562046
86	0x3ed5d777	0.4176595
87	0x3e683fc6	0.22680578
88	0xbf176b9a	-0.5914856
89	0x3e3c4c8b	0.18388574
90	0x3e3134f9	0.17305364
91	0x3dfbbce5	0.12291888
92	0x3cc737a2	0.02431852
93	0xbe80ff32	-0.251947
94	0x3da7bda1	0.08190466
95	0x3e8db951	0.27680448
96	0x3da3a952	0.0799128
97	0xbc22ccf6	-0.009936562
98	0x3e150a41	0.14554693
99	0x3e112c6d	0.14177103
100	0x3ecab1b4	0.39588702
101	0x3e836edf	0.25670525
102	0xbf71cd5f	-0.94453996
103	0xbda04e87	-0.07827478
104	0x3e4f98fc	0.20273203
105	0x3eb96d8c	0.3621639
106	0x3d5969db	0.053079467
107	0x3e60d8ec	0.21957749
108	0x3eabaf39	0.33532122
109	0x3eed5a81	0.46358112
110	0xbe8d4b3f	-0.2759647
111	0x3d907c18	0.07054919
112	0x3f6f2008	0.9340825
113	0x3eed6e1c	0.4637307
114	0x3d8804e4	0.06641558
115	0xbed34ad2	-0.4126802
116	0x3ece3abf	0.40279195
117	0x3efcc08a	0.49365646
118	0x3e51fc0b	0.20506303
119	0xbda260aa	-0.079285935
120	0x3ec14a12	0.37751824
121	0xbf6f3099	-0.9343353
122	0xbda4ff74	-0.08056536
123	0x3e177955	0.14792378
124	0x3e9592da	0.292136
125	0x3e92641c	0.28592002
126	0x3ea877db	0.32903942
127	0x3e3d59ad	0.1849124
128	0xbc5fde34	-0.013663817
129	0x3d5de9d2	0.054178067
130	0x3e5f0dd1	0.21782614
131	0x3e5aac8f	0.21354888
132	0x3d7ef95c	0.062249526
133	0x3e7ce3f7	0.24696337
134	0xbf0905b5	-0.53524333
135	0x3e674a2b	0.22586887
136	0xbe16b5f7	-0.14717852
137	0xbe3ab6bf	-0.18233775
138	0x3eb23214	0.34803832
139	0x3e02f85d	0.12790056
140	0x3ef672ac	0.48134363
141	0x3ed2cb80	0.41170883
142	0x3e96cc20	0.2945261
143	0x3f2b3393	0.6687557
144	0x3ead2953	0.3382059
145	0x3e8ef9fa	0.27925092
146	0xbe5039e7	-0.20334588
147	0x3d94a772	0.072585
148	0x3f184812	0.5948497
149	0x3dbe0998	0.092791736
150	0x3ebe940f	0.37222335
151	0x3e01fb07	0.12693416
152	0xbf02a872	-0.5103828
153	0xbe12e471	-0.14344956
154	0xbe436de0	-0.19084883
155	0x3addb35a	0.0016914413
156	0x3e5973b4	0.21235543
157	0xbeb42e41	-0.3519154
158	0x3c4f5976	0.0126556065
159	0x3e8f0150	0.2793069
160	0xbe00f2b6	-0.12592587
161	0xbd4bceb7	-0.049757686
162	0xbdc31e9a	-0.09527321
163	0x3d28efad	0.041244198
164	0x3dfac07d	0.122437455
165	0x3e5ef2ed	0.21772356
166	0xbf8079f1	-1.0037214
167	0xbf1b01ce	-0.6054963
168	0x3e81514b	0.25257334
169	0x3ebd0dbd	0.36924544
170	0x3e59f69c	0.2128548
171	0xbe77c888	-0.2419759
172	0xbd002a17	-0.03129014
173	0x3d0dc1a4	0.0346085
174	0x3d12c932	0.035836406
175	0x3e8577af	0.26067874
176	0x3eca1fe3	0.39477453
177	0x3edef779	0.43548182
178	0x3e4758e9	0.1946751
179	0xbdc2308a	-0.09481914
180	0x3ef675b6	0.4813668
181	0xbde1c031	-0.11022986
182	0x3d80ca22	0.06288554
183	0xbf8683e9	-1.0509006
184	0x3eb7f281	0.35927203
185	0xbe801dbf	-0.25022694
186	0xbd91e322	-0.071234
187	0xbe77ff2a	-0.24218431
188	0x3eb9eab4	0.36311877
189	0x3d38ebe3	0.045146834
190	0xbf129629	-0.57260376
191	0x3ecc97aa	0.3995946
192	0xbe42e526	-0.19032726
193	0xbef71beb	-0.48263487
194	0x3db33ea2	0.08752181
195	0xbe296420	-0.16542101
196	0x3e271ae5	0.16318853
197	0x3dc1a01e	0.09454368
198	0x3e084980	0.13309288
199	0xbef386a5	-0.47563663
200	0xbee04a6d	-0.43806782
201	0xbef5b416	-0.47988957
202	0x3dd23230	0.10263479
203	0xbecb576b	-0.39715132
204	0xbf3130e9	-0.69215256
205	0xbd83404a	-0.064087465
206	0x3ca52c1a	0.02016263
207	0xbecc34be	-0.3988399
208	0xbae4de5f	-0.0017461291
209	0x3eac4ec8	0.33653855
210	0xbe2200c1	-0.158206
211	0xbe29162c	-0.16512364
212	0xbe4a97ca	-0.19784465
213	0xbec6794e	-0.38764423
214	0x3d8f09f6	0.06984322
215	0x3e162652	0.14663056
216	0xbd4d5d3f	-0.050137755
217	0xbe04b54e	-0.12959787
218	0xbd265cd0	-0.040615857
219	0x3dbc5ee3	0.09197786
220	0xbe862c13	-0.262055
221	0xbe0c9ef3	-0.1373251
222	0x3cc16616	0.023608249
223	0xbe967c97	-0.2939193
224	0x3dbd5baa	0.09245999
225	0xbe8944b7	-0.26810238
226	0x3d0beb64	0.034160033
227	0xbec2410e	-0.37940258
228	0xbc7bb1e5	-0.015362238
229	0x3dcbcfb9	0.09951729
230	0x3dfe9006	0.12429814
231	0xbda6c81c	-0.081436366
232	0x3e1e84f1	0.154804
233	0xbec000ff	-0.3750076
234	0xbaf27791	-0.0018498768
235	0xbe516be9	-0.2045132
236	0xbebab387	-0.36465093
237	0xbe0757fa	-0.13217154
238	0xbd42c656	-0.04755243
239	0x3caf65ac	0.021410786
240	0xbe05215f	-0.13001011
241	0xbe9ecd53	-0.31016025
242	0x3cd971f5	0.026543597
243	0xbf00b2a2	-0.5027257
244	0xbe01171a	-0.12606469
245	0xbdd878aa	-0.1056989
246	0x3dc45f2c	0.09588465
247	0xbe5470f7	-0.20746218
248	0xbd40a030	-0.047027767
249	0xbd5429c6	-0.05179765
250	0xbc2ce0e4	-0.010551665
251	0xbdaac6b5	-0.083386816
252	0x3c4ad2f8	0.0123794
253	0xbca3f96d	-0.020016396
254	0x3e836ac8	0.25667405
255	0xbc1a0c72	-0.009402381

fcl2.bias f4 [128]
0	0x3eb5ba91	0.354939
1	0xbd1d16ee	-0.038351946
2	0x3e53cd61	0.20683815
3	0xbd0b932d	-0.034075905
4	0x3e6f7fbf	0.23388575
5	0x3d87774c	0.06614551
6	0x3ea6fb93	0.3261381
7	0x3d2ef70d	0.042716075
8	0x3dcb3364	0.09921911
9	0x3e914508	0.2837298
10	0x3e3083ac	0.17237729
11	0xbd9102df	-0.07080626
12	0x3e33246f	0.17494367
13	0xbde96535	-0.11396257
14	0x3c7587fd	0.014986035
15	0x3db5b806	0.0887299
16	0xbdf1f1ae	-0.11813675
17	0x3e429206	0.19001016
18	0x3dfd94bc	0.123818845
19	0xbe95242c	-0.2912916
20	0xbdf8b413	-0.121437214
21	0xbc119f03	-0.008888009
22	0xbab68f42	-0.0013928192
23	0x3f00f3a3	0.5037176
24	0x3d12fafb	0.035883885
25	0xbbe4a043	-0.0069771125
26	0x3e8c3e19	0.27391127
27	0x3e4c11a7	0.19928609
28	0xbc77f7a7	-0.0151347285
29	0x3d98bc8a	0.07457836
30	0xbe98ae08	-0.29820275
31	0x3f1b0694	0.6055691
32	0x3cb60502	0.022219185
33	0x3ed5cccf	0.4175782
34	0x3dac8293	0.084233426
35	0x3d7d98ad	0.06191318
36	0x3deb3ae6	0.11485843
37	0x3e44c12d	0.19214316
38	0x3ecce005	0.40014663
39	0x3dd3f621	0.1034968
40	0x3edced9d	0.43150035
41	0x3e416be4	0.18888813
42	0x3eb8bf1c	0.36083305
43	0x3e22a269	0.15882267
44	0x3e108016	0.14111361
45	0x3db22512	0.08698477
46	0x3eb8a58e	0.36063808
47	0x3efa5c36	0.48898476
48	0xbe0fdd42	-0.14049247
49	0x3e129989	0.14316382
50	0xbea1eb23	-0.31624708
51	0xbda023bb	-0.07819315
52	0xbee15e64	-0.44017327
53	0x3c42ca41	0.011889041
54	0x3e639229	0.22223724
55	0x3ec2182f	0.37909076
56	0x3e346379	0.17616071
57	0xbe32e734	-0.1747101
58	0x3e3d34a2	0.18477109
59	0x3ed863fb	0.4226378
60	0x3e9b9d94	0.3039366
61	0xbdfcfe52	-0.12353195
62	0xbe2bd18e	-0.16779158
63	0x3d74c350	0.059756577
64	0xbe9278e4	-0.28607857
65	0x3e102392	0.14076069
66	0x3eabf76a	0.335872
67	0x3e5d40e8	0.21606791
68	0x3ddc2cac	0.10750708
69	0x3c8737ba	0.016506065
70	0xbe195f81	-0.14977838
71	0x3e944d89	0.28965405
72	0x3f06fb99	0.5272766
73	0x3f00184c	0.50037074
74	0x3d54c439	0.051944945
75	0x3e03c7c4	0.12869173
76	0x3e63452f	0.2219436
77	0xbe01e61f	-0.1268544
78	0x3ef1a3a0	0.47195148
79	0xbe2f1252	-0.17096832
80	0xbecddfa6	-0.40209693
81	0x3c4954f4	0.012288321
82	0x3ee29915	0.44257417
83	0x3e945a26	0.28975028
84	0xbe027df5	-0.12743361
85	0x3d823ffc	0.0635986
86	0x3eee4730	0.46538687
87	0xbdda9fb9	-0.10674996
88	0x3e30a584	0.17250639
89	0xbe808ccd	-0.25107422
90	0xbdde9b57	-0.108694725
91	0xbdb71c3e	-0.08940934
92	0x3e1f5eaa	0.15563455
93	0x3d9e9bf4	0.077445894
94	0x3e4689f9	0.1938857
95	0xbe2c6c0c	-0.16838092
96	0xbd9c442e	-0.07630192
97	0x3da89dba	0.08233209
98	0x3f0cf6cb	0.55064076
99	0x3e4eb226	0.20185146
100	0x3cf4cedf	0.0298838
101	0x3e0fd588	0.140463
102	0x3f3c76b0	0.736186
103	0xbe077b99	-0.13230743
104	0xbe62ba54	-0.22141391
105	0x3dde79ca	0.10863073
106	0xbe01dc40	-0.12681675
107	0xbd8052b2	-0.06265773
108	0x3ea55f50	0.3229928
109	0x3d49de38	0.04928419
110	0x3f3a0e29	0.72677857
111	0xbd43176c	-0.04762976
112	0x3c6b7edf	0.01437351
113	0x3e832939	0.25617388
114	0x3d68d9a4	0.056848183
115	0x3d71fed3	0.05908091
116	0x3f107078	0.56421614
117	0x3e2cb12f	0.16864465
118	0x3ebaf621	0.36515906
119	0xbc4eada0	-0.012614638
120	0x3ec737c1	0.38909724
121	0x3ec0ceea	0.37657863
122	0xbcb7bd7a	-0.022429217
123	0x3ef0cc3d	0.4703082
124	0x3ef87a4a	0.485308
125	0x3da22f6e	0.07919203
126	0x3efed8f5	0.497749
127	0x3ebe3e46	0.37156886

fcl3.weight f4 [4, 128]
0	0xbece909f	-0.40344712
1	0xbe710abd	-0.23539253
2	0xbe9bcfed	-0.30432072
3	0xbd90610f	-0.070497625
4	0xbeb08999	-0.3447998
5	0xbe9eda0b	-0.3102573
6	0xbf2150dd	-0.6301401
7	0xbeb37313	-0.35048732
8	0xbd9a4149	-0.075319834
9	0xbcb0a09d	-0.021560961
10	0xbe335130	-0.1751144
11	0x3d3c841c	0.046024427
12	0xbe9a7d32	-0.3017364
13	0xbd948261	-0.0725143
14	0xbe8c266f	-0.27373073
15	0x3e670c97	0.22563396
16	0x3d368df4	0.04456897
17	0xbe552cc4	-0.20817858
18	0xbe2cf301	-0.16889574
19	0xbe9d4bdb	-0.30721936
20	0xbe3c83a2	-0.18409589
21	0xbe967e73	-0.29393348
22	0xbe31930f	-0.17341255
23	0xbdb5b247	-0.08871894
24	0x3ca0b2b6	0.019616466
25	0x4037072b	2.8598125
26	0xbec59e7a	-0.3859747
27	0xbf0b5db3	-0.5443985
28	0xbf3a0524	-0.72664094
29	0xbec0de15	-0.37669435
30	0xbecf0a2d	-0.4043745
31	0x3fba37cc	1.4548278
32	0xbe69b866	-0.22824249
33	0xbf5059fa	-0.81387293
34	0xbecf9e6a	-0.40550548
35	0xbd8f7241	-0.07004214
36	0xbe945285	-0.28969207
37	0xbe92336a	-0.2855485
38	0xbb72b58a	-0.0037034475
39	0xbea01364	-0.31264794
40	0x401651aa	2.3487344
41	0x3ffcc9f0	1.9749126
42	0xbecaa8b9	-0.3958185
43	0xbe5b110e	-0.21393225
44	0x3e1e057b	0.15431778
45	0xbd66c9d8	-0.056344837
46	0xbf5b13c3	-0.8557703
47	0xbf532ec4	-0.82493234
48	0xbea4f9b0	-0.32221746
49	0xbe6f96be	-0.23397347
50	0xbf1d1f9a	-0.61376345
51	0xbe55fe72	-0.20897844
52	0xbda69cb2	-0.08135356
53	0x3d08a7f5	0.0333633
54	0xbe0846df	-0.13308285
55	0x3f16f9a2	0.5897466
56	0xbe44639b	-0.19178621
57	0xbf2f3788	-0.6844411
58	0xbe3c2f46	-0.18377408
59	0x3ec968f7	0.39337894
60	0xbd955f41	-0.07293559
61	0xbf09013f	-0.53517526
62	0xbf7076ce	-0.9393128
63	0xbe8f0fc1	-0.27941707
64	0x3f21a9b3	0.63149565
65	0xbe93aa0f	-0.28840682
66	0xbfb88973	-1.4416946
67	0x3d15d13a	0.036576487
68	0xbee80995	-0.4531981
69	0x3da0bc0b	0.07848366
70	0xbe443bb7	-0.19163404
71	0xbebdb906	-0.37055224
72	0x3e97572c	0.29558694
73	0x4016089a	2.344275
74	0x3de1df8a	0.11028965
75	0xbe871449	-0.26382664
76	0xbe96782c	-0.2938856
77	0x3d59399f	0.053033467
78	0xbc14b97e	-0.009077428
79	0xbf1b0ab1	-0.6056319
80	0xbe9f9ee0	-0.311759
81	0xbe3c0b24	-0.18363625
82	0xbe4637bf	-0.19357203
83	0xbe21ef8d	-0.15814038
84	0xbe866a55	-0.26253
85	0xbe9b4eb5	-0.30333486
86	0x3ffd8a44	1.980782
87	0xbcf4c192	-0.029877458
88	0xbe975477	-0.2955663
89	0xbecd28ca	-0.40070182
90	0x3c84bfa0	0.016204655
91	0x3ef15af7	0.47139713
92	0xbe9e1055	-0.30871835
93	0xbe8dfd03	-0.27732095
94	0xbe41dffd	-0.18933101
95	0xbf159eab	-0.58445233
96	0x3c57ba14	0.013166923
97	0xbe8a37cc	-0.26995695
98	0xbdd07965	-0.10179404
99	0xbe4bea8d	-0.19913693
100	0xbe345091	-0.17608859
101	0xbe943c39	-0.28952196
102	0x3fae44b0	1.3614712
103	0xbea667ec	-0.3250116
104	0xbe8aa5d7	-0.2707965
105	0xbeb1a53e	-0.34696382
106	0xbf047d77	-0.51753944
107	0xbf23c280	-0.6396866
108	0xbf076359	-0.5288597
109	0xbe8045b1	-0.2505317
110	0x3f7fc03b	0.99902695
111	0x3d4effbe	0.050536864
112	0xbe82b012	-0.25524956
113	0xbe737ad6	-0.23777327
114	0xbd23f94c	-0.04003267
115	0xbe686c65	-0.22697599
116	0x3f4e87a3	0.80675715
117	0xbe29c1fa	-0.16577902
118	0xbf053dea	-0.520476
119	0x3ccdc748	0.025119439
120	0x4008cb4d	2.1374085
121	0x3fd2e82e	1.6477106
122	0xbecc8d0d	-0.39951363
123	0xc03f3a5f	-2.9879377
124	0x3fee0c25	1.8597456
125	0xbeb5068b	-0.35356554
126	0x3f96bd6a	1.1776555
127	0x3f9df581	1.2340547
128	0xbea6ba19	-0.32563856
129	0xbec388c7	-0.3819029
130	0xbe9840b7	-0.29736874
131	0xbe9a72ca	-0.30165702
132	0xbea439d0	-0.32075357
133	0xbe92a2ab	-0.2863973
134	0xbee7df97	-0.45287773
135	0xbec0012b	-0.3750089
136	0xbce8b89e	-0.028408345
137	0x3f09cdcf	0.53829664
138	0xbf2390d9	-0.63892895
139	0x3d173528	0.036915928
140	0xbe8d46fb	-0.27593216
141	0xba658580	-0.000875555
142	0xbe90d7a1	-0.28289512
143	0x3e91f4b8	0.28507018
144	0xbd1d5c9d	-0.0384184
145	0xbed687f2	-0.41900593
146	0xbe9dd860	-0.30829144
147	0xbe9f519b	-0.31116948
148	0xbe1770f5	-0.14789183
149	0xbefdd3bf	-0.49575612
150	0xbe860bba	-0.26180822
151	0xbef89cb4	-0.48557055
152	0xbcebad3a	-0.028769124
153	0x401c20be	2.4394984
154	0xbf24ad52	-0.64326966
155	0xbec00882	-0.3750649
156	0x3f1d662c	0.61484027
157	0xbe862dbf	-0.26206776
158	0xbf1abaa7	-0.6044106
159	0x3fd7c8cd	1.6858155
160	0xbe6672ec	-0.22504777
161	0xbf85855e	-1.0431325
162	0xbdb4374a	-0.08799608
163	0x3d1aa02f	0.03775042
164	0xbe55d99f	-0.20883797
165	0xbe4ee9d3	-0.20206384
166	0xbe7c6d91	-0.24651171
167	0xbe5b684b	-0.21426503
168	0x402f7da0	2.7420425
169	0x3ff4d609	1.9127818
170	0xbed9e20d	-0.42555276
171	0xbe6e7211	-0.232857
172	0xbd8bb29b	-0.06821176
173	0xbafe1fe8	-0.0019388171
174	0xbee2e696	-0.44316548
175	0xbf45f9b3	-0.77334136
176	0xbe891317	-0.26772377
177	0xbe91ede9	-0.28501824
178	0x3e120c93	0.14262609
179	0xbe751ffc	-0.23937982
180	0xbf427c37	-0.75970787
181	0xbd588113	-0.05285747
182	0xbed9ffd9	-0.4257801
183	0x3f21d729	0.63218933
184	0xbee35760	-0.444026
185	0xbf2e03a9	-0.67974335
186	0xbeaf4dc2	-0.34239012
187	0x3eb75644	0.35808003
188	0xbd7b1a5c	-0.061304435
189	0xbf16198b	-0.58632725
190	0xbe7064b3	-0.23475914
191	0xbe953bc1	-0.2914715
192	0x3f2e1ecb	0.68015736
193	0xbe4b37dc	-0.19845527
194	0xbfbb8468	-1.4649782
195	0x3e841a7f	0.25801465
196	0xbf00b59a	-0.502771
197	0xbd532cca	-0.051556386
198	0xbe64cd36	-0.22343907
199	0xbe7f96c9	-0.24959864
200	0xbde95cf9	-0.11394686
201	0x40039a21	2.0562823
202	0x3f2b586c	0.66931796
203	0xbe8e2bd4	-0.27767813
204	0xbe8d9334	-0.2765137
205	0x3cbdae60	0.023154438
206	0x3e665e72	0.22496966
207	0xbf350fd9	-0.70727307
208	0xbe494d13	-0.19658308
209	0xbe52f78e	-0.20602247
210	0xbee50855	-0.4473292
211	0xbf050cc7	-0.5197262
212	0xbedf7775	-0.43645826
213	0xbe82231e	-0.25417417
214	0x3fe9ccf8	1.8265676
215	0x3a753285	0.00093535363
216	0xbe2ae350	-0.16688275
217	0xbf301053	-0.6877491
218	0x3d766c07	0.060161617
219	0xbf2350c6	-0.63795125
220	0xbf0a7ba3	-0.54094905
221	0xbec4a682	-0.38408285
222	0xbecbf91a	-0.39838487
223	0xbf30b729	-0.6902948
224	0xbd58909f	-0.052872296
225	0xbe95f34d	-0.29287186
226	0xbe261118	-0.16217458
227	0x3dbc6494	0.09198871
228	0xbe43f7da	-0.19137517
229	0xbe43eb1a	-0.19132653
230	0x3f856a1d	1.0423008
231	0x3e09428c	0.13404292
232	0xbeb7e93b	-0.35920128
233	0xbe998261	-0.29982284
234	0xbeadfd00	-0.33982086
235	0xbea8a459	-0.32937887
236	0xbe8fb263	-0.28065786
237	0xbe04c1ae	-0.12964508
238	0x3fc15d3d	1.5106579
239	0x3d8a1c25	0.067436494
240	0xbe8620f7	-0.26197025
241	0xbe9a2133	-0.30103454
242	0x3dd022d9	0.10162897
243	0xbe6fff08	-0.2343713
244	0x3f596911	0.84925944
245	0xbefdd9e9	-0.49580315
246	0xbe9549c2	-0.29157835
247	0x3d58515a	0.052811958
248	0x401c4cef	2.4421957
249	0x3fc5422d	1.541082
250	0xbf839b7d	-1.0281826
251	0xc01a91d4	-2.4151506
252	0x3fb58c98	1.4183531
253	0xbdd90ab1	-0.10597742
254	0x3f874584	1.056809
255	0x3f7977ee	0.97448623

fcl3.bias f4 [4]
0	0xbd632b01	-0.055460934
1	0xbe45ae5d	-0.19304796
2	0x3e62114b	0.22076909
3	0xbe1c2d1a	-0.1525158
