dqn/exercise/checkpoint.pth (torch_old, 38582 bytes, 6 tensors)

fcl1.weight f4 [64, 8]
0	0x3dc67612	0.09690489
1	0x3f282ee3	0.65696543
2	0xbf8370bc	-1.0268779
3	0xbdfdc174	-0.12390414
4	0xbde51f16	-0.1118757
5	0x3ec4ebba	0.38461095
6	0x3e553937	0.20822607
7	0x3eab0ad3	0.33406696
8	0x3cd4b6fc	0.02596616
9	0x3f7bee8d	0.98410875
10	0x3d2f5e31	0.042814437
11	0x3d7f02c4	0.062258497
12	0xbf1143e7	-0.56744236
13	0xbebb7d7a	-0.3661917
14	0x3d42e3fe	0.04758071
15	0xbf2c2d1f	-0.6725635
16	0xbe70c42a	-0.2351233
17	0x3e432a3b	0.19059078
18	0xbf572b43	-0.8405039
19	0xbe7a0d7a	-0.24419203
20	0x3eda9b84	0.42696774
21	0x3ec5307e	0.3851356
22	0x3e392d01	0.18083574
23	0x3ecd3ad3	0.40083942
24	0xbd67a0ab	-0.05654971
25	0xbf2ac74d	-0.6671036
26	0x3ef96e09	0.48716763
27	0xbfb34ae8	-1.4007235
28	0xbe517061	-0.20453025
29	0xbd882362	-0.06647374
30	0x3d0243fe	0.031803124
31	0x3e885c57	0.2663295
32	0xbefab6f1	-0.48967698
33	0xbe9becb5	-0.3045403
34	0xbe62efbd	-0.22161765
35	0xbdc12089	-0.09430034
36	0x3e2dda57	0.16977821
37	0x3ed87add	0.42281237
38	0x3e3c7512	0.18404034
39	0x3ecd201c	0.4006356
40	0xbd200c65	-0.03907432
41	0xbf49f79a	-0.78893435
42	0x3ebfe9f0	0.37483168
43	0xbf5b1ddd	-0.8559244
44	0xbf387754	-0.7205708
45	0xbed82171	-0.42213014
46	0x3e17a2b1	0.14808156
47	0x3dd0f087	0.10202127
48	0xbe819ece	-0.2531647
49	0xbd843f83	-0.064574264
50	0xbda1431b	-0.078741275
51	0x3e82e237	0.25563213
52	0x3e9f7d61	0.31150344
53	0x3f27137b	0.652641
54	0x3e8c81c6	0.2744276
55	0xbdfa4048	-0.12219292
56	0x3dc90f40	0.09817362
57	0xbe934cdb	-0.28769574
58	0xbd0ee773	-0.034888696
59	0xbf1cc446	-0.6123699
60	0x3f248348	0.6426282
61	0x3e5f9a5c	0.21836227
62	0xbeab0898	-0.33404994
63	0x3e088a1e	0.13333938
64	0x3d13491d	0.035958398
65	0xbc0e4241	-0.008682788
66	0xbe2e2b6d	-0.17008753
67	0xbef6e571	-0.48221925
68	0x3dfd0f49	0.12356431
69	0x3f5b0291	0.8555079
70	0xbe818353	-0.25295505
71	0xbf0e3aca	-0.55558455
72	0xbd2e2ddc	-0.042524204
73	0x3f34c12d	0.7060726
74	0x3e2ba6ad	0.167628
75	0x3f835448	1.0260096
76	0xbf26a038	-0.65088224
77	0xbf02a8db	-0.51038903
78	0x3d83d3b8	0.064368665
79	0xbdec6f5d	-0.11544678
80	0xbe5a26b8	-0.21303833
81	0x3f01f4e2	0.50764287
82	0x3f59d845	0.85095626
83	0xbf98470d	-1.1896683
84	0xbbcc38f5	-0.0062323757
85	0x3f116aff	0.5680389
86	0xbecf01e5	-0.40431133
87	0x3d8ddd1c	0.06926939
88	0x3e97a56b	0.2961839
89	0xbebde515	-0.37088838
90	0x3ed36557	0.41288254
91	0x3de57866	0.11204605
92	0x3e93060b	0.28715548
93	0x3f31a3a4	0.6939032
94	0x3dab10aa	0.08352788
95	0xbe26877e	-0.16262624
96	0xbe3d6f46	-0.18499479
97	0xbe0f15bf	-0.13973139
98	0xbe29407f	-0.1652851
99	0x3e2a8ad0	0.16654515
100	0x3f08ead1	0.534833
101	0x3f87d271	1.0611097
102	0xbe08aa29	-0.13346161
103	0x3e8a3c04	0.26998913
104	0xbf652bcf	-0.8951997
105	0xbebe192e	-0.37128586
106	0xbf1a052d	-0.6016415
107	0xbf5115ef	-0.81674093
108	0x3e25f00a	0.16204849
109	0x3e374414	0.17897063
110	0xbdccc54d	-0.0999857
111	0x3eab715a	0.33484918
112	0xbea78bf4	-0.32723963
113	0x3e41bb44	0.18919092
114	0x3f2ae1c7	0.6675076
115	0xbf94ec4e	-1.1634614
116	0xbef10cc3	-0.4708005
117	0x3d4f59b9	0.050622676
118	0x3d6ecd7a	0.058301426
119	0x3d6698a4	0.056297913
120	0x3c1389fd	0.009005067
121	0xbc0012b1	-0.007816956
122	0xbf9caff8	-1.2241201
123	0x3f90b9c2	1.1306689
124	0xbe8a8737	-0.27056286
125	0x3dbd2cd1	0.09237064
126	0xbe4edb33	-0.20200805
127	0xbdf33238	-0.11874813
128	0xbe8a6734	-0.27031863
129	0xbef49b4d	-0.47774735
130	0xbf099dfa	-0.5375668
131	0xbf324e35	-0.69650584
132	0xbd0e3027	-0.03471389
133	0xbecf6faf	-0.40514895
134	0x3e83eb7d	0.257656
135	0xbd52231e	-0.05130302
136	0xbed1eb2f	-0.40999743
137	0xbce59ff3	-0.028030371
138	0xbe7829c7	-0.24234687
139	0x3f36e030	0.7143583
140	0x3eb8903f	0.3604755
141	0x3f3d4aad	0.7394207
142	0x3f1da0d9	0.6157356
143	0xbe97f7c4	-0.29681218
144	0xbe98198d	-0.29706994
145	0x3e4d3015	0.20037873
146	0x3f0a3b36	0.539966
147	0xbe52b82f	-0.20578073
148	0xbe3d54f2	-0.18489435
149	0xbe0d8904	-0.13821799
150	0xbee4861d	-0.4463357
151	0xbeceef16	-0.40416783
152	0xbdb43578	-0.08799261
153	0x3e812cb4	0.25229418
154	0x3e0dcf28	0.13848555
155	0xbf9abc7c	-1.2088771
156	0x3e45556d	0.19270869
157	0xbe50354b	-0.2033283
158	0xbe36e401	-0.17860414
159	0xbe330b44	-0.17484766
160	0x3e2806bb	0.16408817
161	0x3ec596e7	0.38591692
162	0xbf15ce4f	-0.58517927
163	0xbf41c115	-0.75685245
164	0x3e3e7bf8	0.18601978
165	0x3e5747b3	0.21023445
166	0xbf24dedf	-0.64402574
167	0x3e7c9107	0.24664699
168	0x3d5164d8	0.051121563
169	0x3d2f0c75	0.04273649
170	0x3f3aa310	0.72905064
171	0xbf53b7de	-0.82702434
172	0x3eec294c	0.46125257
173	0x3d2f8598	0.042852014
174	0xbb43b6cb	-0.0029863592
175	0x3eb8c926	0.36090964
176	0x3e7867e3	0.2425838
177	0xbee6bf18	-0.45067668
178	0x3f1dc597	0.61629623
179	0x3d584f19	0.05280981
180	0xbf1e3511	-0.6179972
181	0x3d8660b0	0.065614104
182	0x3ed508b8	0.41608214
183	0xbd7ac77f	-0.06122541
184	0x3f31b0e6	0.6941055
185	0xbf6a5f36	-0.9155153
186	0x3e45aa69	0.19303288
187	0x3f95a352	1.1690466
188	0xbd2f6b1c	-0.042826757
189	0x3e90dfde	0.28295797
190	0x3e966f25	0.29381672
191	0x3ed24ef0	0.4107585
192	0xbdb65f5d	-0.08904908
193	0x3f1081c9	0.56448036
194	0xbe3015c2	-0.171958
195	0xbf027107	-0.50953716
196	0xbeb6b14a	-0.35682136
197	0x3ef59cea	0.47971278
198	0x3e287fdd	0.16455026
199	0xbc6c947b	-0.014439697
200	0x3c8300d8	0.015991613
201	0x3c360d19	0.011111521
202	0xbcbc42ee	-0.022981133
203	0xbf19a911	-0.600236
204	0x3e1ee0ef	0.15515493
205	0x3e0e7f4e	0.1391575
206	0xbcf0b94b	-0.02938523
207	0x3f0e6b3c	0.55632377
208	0xbcf52f17	-0.02992968
209	0xbc871052	-0.016487274
210	0xbe94ab5a	-0.2903698
211	0x3ceabc40	0.028654218
212	0x3e856abc	0.26057994
213	0xbf09b3cf	-0.5378999
214	0xbeab1bbb	-0.33419594
215	0x3ef57354	0.4793955
216	0xbcc92a62	-0.024556343
217	0xbfcc232e	-1.5948236
218	0x3f20ad2e	0.6276425
219	0xbf8b6c4c	-1.0892425
220	0x3e8debb0	0.27718878
221	0x3ebdd564	0.37076867
222	0x3e1acb3d	0.15116592
223	0x3e01bf8d	0.12670727
224	0xbef3222a	-0.47487003
225	0x3e348d61	0.17632057
226	0xbeead2f4	-0.4586407
227	0x3c4daf63	0.0125540225
228	0x3ec8626e	0.39137596
229	0xbf001e40	-0.5004616
230	0xbe2b2ce9	-0.1671635
231	0x3ed39369	0.41323403
232	0x3ddf7b8c	0.109122366
233	0x3f22cf3e	0.63597476
234	0x3f00060a	0.50009215
235	0xbf33795d	-0.7010706
236	0x3f32ffae	0.69921386
237	0xbe793fb8	-0.24340713
238	0xbf0f135d	-0.5588892
239	0x3eca890b	0.3955768
240	0x3eefda52	0.46846253
241	0x3f5ea2e6	0.86967313
242	0xbd62a1d8	-0.055330127
243	0xbe5685a0	-0.20949411
244	0x3f24f0e9	0.644301
245	0xbe9c9d45	-0.30588737
246	0x3e95edf4	0.29283106
247	0xbe134516	-0.14381823
248	0xbeb26368	-0.34841466
249	0x3e2b53cf	0.16731189
250	0xbedd4304	-0.4321519
251	0xbe63bea1	-0.22240688
252	0x3f228564	0.6348479
253	0x3e821b11	0.25411275
254	0x3eabaf32	0.335321
255	0xbed28210	-0.41114855

fcl1.bias f4 [64]
0	0xbdc70751	-0.09718192
1	0xbe12817a	-0.14307204
2	0x3e09ea5b	0.13468306
3	0x3e72b1b8	0.23700607
4	0xbe6e0f06	-0.23247918
5	0xbbe360ef	-0.0069390456
6	0x3e99121f	0.29896638
7	0xbe7a2432	-0.2442787
8	0x3e165949	0.14682497
9	0x3e7c9330	0.24665523
10	0x3e4677be	0.19381616
11	0xbe8e6455	-0.27810922
12	0xbe285462	-0.1643844
13	0xbeb8fa03	-0.36128244
14	0x3eaa54a3	0.33267698
15	0x3b99152a	0.0046717124
16	0x3e7e44e6	0.2483097
17	0xbed83f94	-0.42236006
18	0x3f2465c5	0.6421779
19	0x3ee83d0b	0.45359072
20	0x3dc147ba	0.09437509
21	0xbe17c6b6	-0.14821896
22	0xbe92c0e9	-0.28662804
23	0xbea9efa7	-0.33190653
24	0xbda0d6f6	-0.078535005
25	0xbe8d4431	-0.27591088
26	0x3c9b03f6	0.018922787
27	0x3d5ae267	0.05343857
28	0xbf001b97	-0.500421
29	0x3dabfe78	0.083981454
30	0xbd516cf9	-0.051129315
31	0x3cd263a0	0.02568227
32	0x3defe63f	0.11713838
33	0x3d9cff26	0.07665853
34	0x3e50d274	0.20392781
35	0x3e07e39c	0.1327042
36	0x3e1b8e43	0.15190987
37	0x3de974f7	0.113992624
38	0xbeabbe97	-0.33543846
39	0xbeaa1aa1	-0.3322344
40	0x3e2f6d56	0.17131552
41	0xbe8d162c	-0.27555978
42	0x3e5028d6	0.20328078
43	0x3ad8f299	0.0016551792
44	0xbe88d8f7	-0.2672803
45	0xbe16fe8f	-0.14745544
46	0x3f22c01c	0.63574386
47	0xbd00deb1	-0.031462375
48	0x3ddb0b30	0.10695493
49	0xbe84cb75	-0.25936475
50	0xbc473904	-0.01215959
51	0x3eb09952	0.34491974
52	0xbdcf166c	-0.101116985
53	0x3e7aac3f	0.24479769
54	0xbd20104e	-0.03907805
55	0x3e21ca44	0.15799814
56	0x3eb0e67c	0.34550846
57	0x3e97a323	0.2961665
58	0x3e812e21	0.25230506
59	0xbe73faa0	-0.23826075
60	0xbe8d8f87	-0.27648565
61	0xbe2b895c	-0.16751617
62	0x3de06b69	0.10957987
63	0x3e683b4d	0.22678871

fcl2.weight f4 [128, 64]
0	0x3cc4a2e4	0.024003454
1	0xbf23d2a2	-0.63993275
2	0x3e5c6e54	0.21526462
3	0x3df77b72	0.12084092
4	0x3e8291ce	0.25501865
5	0xbdd5335c	-0.10410187
6	0x3dbb0a09	0.091327734
7	0x3edaff8e	0.42773098
8	0x3e15ed5d	0.14641328
9	0x3df72687	0.120678954
10	0x3e6084f3	0.21925716
11	0x3f0ba6b8	0.5455127
12	0x3edb826c	0.42872941
13	0x3f29e87f	0.66370386
14	0x3dd09b05	0.10185818
15	0xbf7ce704	-0.9879
16	0x3da28dfb	0.07937237
17	0x3eb7bd5a	0.3588665
18	0x3d4b833c	0.0496857
19	0x3dc44a52	0.09584488
20	0xbe00b28b	-0.12568109
21	0x3ea5cb23	0.32381544
22	0x3edb2dc5	0.42808357
23	0x3eec23dd	0.46121112
24	0xbe974450	-0.29544306
25	0x3d94a3f3	0.07257833
26	0x3e2c29be	0.16812798
27	0x3d9e31d7	0.0772435
28	0x3f1b085d	0.60559636
29	0x3d901beb	0.07036575
30	0xbe044853	-0.12918214
31	0x3e73108a	0.23736778
32	0xbdd4d9f8	-0.10393137
33	0xbf17c626	-0.59286726
34	0x3e964a17	0.293534
35	0xbdcca0c2	-0.099915996
36	0x3eeb634e	0.459742
37	0x3e4c7884	0.19967848
38	0x3d359d30	0.04433936
39	0x3f76969f	0.9632358
40	0x3e5f8c5d	0.21830888
41	0x3e9c6ff5	0.30554166
42	0x3e29a451	0.16566588
43	0xbebb5872	-0.36590916
44	0x3e015efc	0.1263389
45	0x3e839014	0.2569586
46	0xbebd4bea	-0.3697198
47	0x3eb4d18d	0.35316125
48	0x3f23ac7b	0.6393506
49	0x3e7bbdd2	0.2458413
50	0xbf04ff99	-0.5195251
51	0xbcc0f360	-0.02355355
52	0x3e159e20	0.14611101
53	0xbe949969	-0.29023293
54	0xbe572daa	-0.21013513
55	0xbefa99dc	-0.4894551
56	0x3d4f810c	0.050660178
57	0xbe259192	-0.16168812
58	0x3db52ddc	0.088466376
59	0x3f1d3cbd	0.61420804
60	0x3eb05351	0.34438565
61	0x3ddea94a	0.10872133
62	0x3d83df09	0.06439025
63	0x3e1f4313	0.1555293
64	0x3d76a67a	0.06021736
65	0xbf045aa4	-0.51700807
66	0x3e700269	0.2343842
67	0xbcff8d06	-0.031195175
68	0x3e3c31d6	0.18378386
69	0x3d82a14f	0.063784234
70	0x3e838dfd	0.25694266
71	0x3e9b4563	0.30326375
72	0x3df81f07	0.12115293
73	0x3e853cdd	0.26022997
74	0x3e55cadf	0.2087817
75	0x3ec9f447	0.3944418
76	0x3ecd92f0	0.40151167
77	0x3eb44fec	0.35217226
78	0xbd1159d0	-0.035486042
79	0xbf261249	-0.6487165
80	0x3e14544d	0.14485283
81	0x3eee1351	0.46499112
82	0xbe3342bc	-0.17505926
83	0x3ccca988	0.024983183
84	0xbd2e3961	-0.04253519
85	0x3da79bb4	0.08183995
86	0x3eb235f6	0.34806794
87	0x3e59917c	0.21246904
88	0xbe6676a0	-0.2250619
89	0x3e4c7121	0.1996503
90	0x3e9019d4	0.28144705
91	0xbd8a0e37	-0.067409925
92	0x3f119927	0.56874317
93	0x3e10d98f	0.14145492
94	0xbe551585	-0.2080899
95	0x3ec225d5	0.3791949
96	0xbd9c41db	-0.076297484
97	0xbf16e27d	-0.58939344
98	0x3e8c839d	0.27444163
99	0x3e16dd72	0.14732912
100	0x3edbcb1c	0.42928398
101	0x3db44c97	0.08803671
102	0x3daf4fca	0.085601404
103	0x3f8047ca	1.0021908
104	0x3eadb529	0.33927277
105	0x3e104029	0.14086975
106	0x3d93f347	0.07224136
107	0xbeeb04f0	-0.45902205
108	0x3e7eed05	0.24895103
109	0x3e979a92	0.29610115
110	0xbe9fc25b	-0.3120297
111	0x3e881bfe	0.26583856
112	0x3f2489fd	0.64273053
113	0x3ed97e1d	0.4247903
114	0xbf01e6af	-0.5074262
115	0xbd166895	-0.03672083
116	0x3ed67574	0.41886485
117	0xbe705d44	-0.23473078
118	0xbe925017	-0.2857673
119	0xbf0eadeb	-0.5573413
120	0x3d6c2d23	0.057660233
121	0xbe84f92f	-0.25971362
122	0x3d3a9752	0.045554467
123	0x3f1a41d4	0.60256696
124	0x3ebe663c	0.37187374
125	0x3e4d83f9	0.20069875
126	0xbdc0ebf3	-0.09420004
127	0x3d078a53	0.0330909
128	0xbd6274d3	-0.055287194
129	0xbee52395	-0.4475371
130	0x3e41ec7b	0.18937866
131	0x3dba9297	0.09109991
132	0x3e221c07	0.15831004
133	0x3c26f145	0.010189359
134	0x3e64e319	0.22352256
135	0x3e5851b5	0.21124919
136	0x3d096e88	0.033552676
137	0x3dd1a700	0.10236931
138	0x3e3ee091	0.18640353
139	0x3eaf1fc1	0.34203914
140	0x3ede1b5f	0.43380257
141	0x3f1170fe	0.5681304
142	0x3e242382	0.1602917
143	0xbf1550b9	-0.583263
144	0x3e779db7	0.24181257
145	0x3e361e67	0.17785035
146	0xbdaab719	-0.08335704
147	0xbcdce93f	-0.02696669
148	0xbd8871d0	-0.06662333
149	0x3e013472	0.12617663
150	0x3edf04ad	0.43558255
151	0x3e344462	0.17604211
152	0xbe676f40	-0.22601032
153	0xbcf20bdd	-0.029546672
154	0x3ea756c5	0.32683387
155	0xbe142b0b	-0.14469545
156	0x3f17cc55	0.5929616
157	0x3e279548	0.1636554
158	0xbe3348dd	-0.17508264
159	0x3ed040dd	0.40674487
160	0xbdd1625e	-0.1022384
161	0xbf2ddf4d	-0.67918855
162	0x3ead98f2	0.3390575
163	0xbe45f3ca	-0.1933128
164	0x3e884af1	0.26619676
165	0x3e28b1db	0.16474096
166	0x3dcaf7cc	0.09910545
167	0x3f409220	0.7522297
168	0x3e8b6dbb	0.27232155
169	0x3e7b8907	0.2456399
170	0x3e74c4a7	0.23903142
171	0xbefee002	-0.4978028
172	0x3dc16721	0.094434984
173	0x3ddd5157	0.1080653
174	0xbe9a2184	-0.30103695
175	0x3efd5b31	0.49483636
176	0x3ebdef71	0.37096742
177	0x3f10fd9e	0.5663699
178	0xbf15bc7f	-0.5849075
179	0x3dbc6db3	0.09200611
180	0x3e7014b8	0.23445404
181	0xbe678745	-0.22610195
182	0xbec818d2	-0.39081436
183	0xbf048c2d	-0.5177639
184	0x3ca2c8aa	0.019871075
185	0xbe571b2e	-0.21006462
186	0xbd969d8e	-0.0735427
187	0x3f29d301	0.6633759
188	0x3ef2139c	0.47280586
189	0x3cbb18c6	0.022838961
190	0x3c90d008	0.017677322
191	0x3e3aef11	0.18255259
192	0xbdf1e707	-0.11811643
193	0xbd52fec1	-0.051512484
194	0x3c99d005	0.01877595
195	0xbe06e137	-0.1317185
196	0x3d3da929	0.0463039
197	0x3d6cfc26	0.057857655
198	0x3d8018d1	0.06254733
199	0xbdcf4511	-0.10120595
200	0x3dd1d6d9	0.10246057
201	0xbd97bf38	-0.07409519
202	0x3dd20ca2	0.10256316
203	0xbdf5ae46	-0.11996131
204	0xbdf2e5ce	-0.11860238
205	0x3d8e6841	0.069534786
206	0xbc162b38	-0.009165578
207	0xbbefa5f2	-0.0073134834
208	0xbdac6e46	-0.084194705
209	0xbd8a0d66	-0.06740837
210	0xbd70b104	-0.058762565
211	0xbe1372a4	-0.143992
212	0xba40013c	-0.00073244027
213	0x3be9a776	0.0071305586
214	0xb8ddf000	-0.00010582805
215	0x3c94dbdf	0.018171249
216	0x3dc5667c	0.09638688
217	0x3c34d2d4	0.0110365935
218	0xbd3b6dd8	-0.045759052
219	0xbd96d846	-0.0736547
220	0xbdb29f25	-0.08721761
221	0xbdc04862	-0.09388806
222	0xbcdf7f2b	-0.027282318
223	0xbcb51c40	-0.022108197
224	0x3d08b6d6	0.03337749
225	0xbd785bed	-0.060634542
226	0x3dbd3e84	0.092404395
227	0xbdd24cad	-0.10268531
228	0xbbd4cab0	-0.006493889
229	0x3dc773c4	0.097388774
230	0x3dfe9006	0.12429814
231	0xbd944a88	-0.07240778
232	0x38264b23	3.964746e-05
233	0x3bf73359	0.007543963
234	0xbd96b243	-0.073582195
235	0xbd85d742	-0.06535198
236	0x3c41d69f	0.011830955
237	0xbdd0aff8	-0.101898134
238	0xbacf3608	-0.0015808949
239	0x3d5d8e18	0.05409059
240	0xbd49c390	-0.04925877
241	0x3dd4a4e6	0.103830144
242	0xbc06c7a0	-0.008226305
243	0x3d0dbd73	0.0346045
244	0x3dfd84b8	0.1237883
245	0xbd77837f	-0.06042814
246	0x3d78ce1c	0.060743436
247	0xbd4fcc59	-0.05073199
248	0xbd082382	-0.033236988
249	0xbd31cc2b	-0.0434076
250	0xbcbc69a2	-0.022999588
251	0xbd8e2e57	-0.069424324
252	0x3c6a9ffc	0.01432037
253	0x3b9a56c0	0.0047100484
254	0x3d839979	0.06425757
255	0xbd24fad5	-0.040278275

fcl2.bias f4 [128]
0	0x3d106e19	0.035261247
1	0x3cbaf37a	0.022821177
2	0x3e176b21	0.1478696
3	0xbd97dce3	-0.07415178
4	0x3d5c83c1	0.053836588
5	0xbd6c24c1	-0.05765224
6	0x3dfe1a33	0.12407341
7	0xbccc932e	-0.024972524
8	0x3dd19930	0.10234296
9	0xbdbc6116	-0.09198205
10	0xbe5ee2af	-0.2176616
11	0xbda51ef3	-0.08062544
12	0x3dede961	0.11616779
13	0xbcb979a0	-0.022641003
14	0xbd876481	-0.066109665
15	0x3eda4fbe	0.42638963
16	0xbd9b8239	-0.075931974
17	0x3de9c505	0.114145316
18	0x3c586a2d	0.013208908
19	0xbda264aa	-0.079293564
20	0xbd4cb9ea	-0.04998199
21	0x3cc1a9b5	0.023640493
22	0xbe174179	-0.1477107
23	0xbd8d264f	-0.068920724
24	0x3eae5f09	0.3405688
25	0x3b5c976f	0.0033659597
26	0x3d3f1f64	0.046660796
27	0x3dd77fff	0.1052246
28	0x3e29df5b	0.1658911
29	0x3d242817	0.040077295
30	0x3e49f62b	0.19722812
31	0xbd0ba6b4	-0.034094527
32	0x3d76ea5d	0.0602821
33	0x3d98391d	0.074327685
34	0x3e797079	0.24359311
35	0x3e121614	0.14266235
36	0x3ddb743b	0.107155286
37	0x3dc099e0	0.09404349
38	0x3cf1e372	0.0295274
39	0x3d322ae3	0.04349793
40	0x3f05ee38	0.5231662
41	0x3edba6ff	0.42900845
42	0x3d2737d0	0.04082471
43	0x3d7e511e	0.062089078
44	0xbe4b187d	-0.1983356
45	0x3dcabfbc	0.09899852
46	0xbd456890	-0.04819542
47	0xbd7315d4	-0.05934699
48	0x3de56206	0.11200337
49	0x3cfca137	0.030838592
50	0xbe0febd3	-0.14054804
51	0x3e5c43a3	0.21510176
52	0x3e9f2218	0.310807
53	0x3d8f552a	0.06998666
54	0x3ebe37ff	0.37152097
55	0x3e09bd32	0.13451079
56	0x3dd52b6c	0.10408673
57	0xbd5290f7	-0.05140778
58	0x3db07c15	0.08617417
59	0x3e7a0945	0.24417599
60	0x3cb0933f	0.021554587
61	0xbdb6aa43	-0.089191936
62	0xbdd8ab35	-0.1057953
63	0xbdb235d2	-0.08701672
64	0x3de1db13	0.11028113
65	0x3d62ab61	0.05533922
66	0x3ea9df61	0.33178237
67	0xbd9ce382	-0.07660581
68	0x3e4a7fe1	0.19775344
69	0x3c7922f8	0.015206091
70	0xbeac6ac1	-0.33675197
71	0x3ddecbf8	0.10878748
72	0x3c3eccc5	0.011645501
73	0x3e9d6b7a	0.3074606
74	0x3dfa566c	0.12223515
75	0xbcfcbc46	-0.030851495
76	0x3d8474ce	0.06467591
77	0xbd607bc6	-0.05480554
78	0x3e12abf1	0.14323403
79	0x3e917938	0.28412795
80	0xbdfff608	-0.124980986
81	0x3e96b2cf	0.29433295
82	0xbe54b3d8	-0.2077173
83	0x3e53ebed	0.20695467
84	0x3d759834	0.059959605
85	0xbdb7c7d1	-0.08973659
86	0xbdbb7873	-0.09153833
87	0x3cfd92fb	0.030953875
88	0x3e500593	0.20314626
89	0xbd95fa61	-0.073231466
90	0x3d7c87a9	0.061652813
91	0x3db2e048	0.087341845
92	0x3e081464	0.13289028
93	0x3de47b69	0.11156351
94	0x3d9a75b9	0.07541985
95	0x3e2fdff1	0.1717527
96	0xbcf609c5	-0.030033955
97	0xbd14d6be	-0.036337607
98	0x3dc583e1	0.096442945
99	0xbd85be3b	-0.06530424
100	0xbd076a5e	-0.033060424
101	0x3dc3eeaa	0.09567006
102	0x3de08a67	0.10963898
103	0xbdc2eccd	-0.095178224
104	0xbe12b6ab	-0.14327495
105	0xbd686016	-0.05673226
106	0x3d89dafe	0.067312226
107	0x3e01b14d	0.12665291
108	0x3eeae93e	0.45881075
109	0x3e228af7	0.15873323
110	0x3dd03562	0.10166432
111	0x3e058b83	0.13041501
112	0xbc98516c	-0.018593512
113	0x3db502cb	0.08838423
114	0x3d2908f5	0.041268308
115	0x3c90bcaa	0.017668087
116	0x3f19eaf8	0.6012416
117	0x3e042e75	0.12908347
118	0x3d1f43b7	0.038882937
119	0xbd2c216e	-0.04202407
120	0xbe1e8b35	-0.15482791
121	0x3dc2ec3c	0.095177144
122	0x3db9454c	0.090464205
123	0x3e6d74b6	0.23189053
124	0x3e2559d5	0.1614755
125	0xbd15024f	-0.036379155
126	0x3e809114	0.25110686
127	0x3d0880c2	0.033325918

fcl3.weight f4 [4, 128]
0	0xbe9abecd	-0.30223694
1	0xbe6f0075	-0.23340018
2	0xbe9b18d8	-0.30292392
3	0xbd18da29	-0.03731743
4	0xbf76c08a	-0.9638754
5	0xbe884a07	-0.26618978
6	0xbe93fe52	-0.28904969
7	0xbf236096	-0.63819253
8	0xbd9a4149	-0.075319834
9	0xbd9d9a56	-0.07695453
10	0xbe00c1a7	-0.12573873
11	0x3d2342be	0.039858572
12	0xbea6261b	-0.32450947
13	0xbf28c4a6	-0.6592506
14	0xbf38273f	-0.71934885
15	0x3e6d3402	0.2316437
16	0xbe9202d6	-0.2851779
17	0xbe574177	-0.21021067
18	0xbe846da5	-0.25864902
19	0xbe528a73	-0.20560627
20	0xbe87b822	-0.2650767
21	0xbeaf0a7d	-0.3418769
22	0xbe4faa69	-0.2027985
23	0x3c9f9d01	0.019484045
24	0x3f3b3aee	0.73136795
25	0x3f98c623	1.1935467
26	0xbe5840f3	-0.21118526
27	0xbe74396b	-0.23850028
28	0x401695f2	2.352902
29	0xbf1a711c	-0.6032884
30	0xbe2c4268	-0.16822207
31	0x40154ee5	2.3329403
32	0x3cb49ef6	0.022048455
33	0xbeb3baf8	-0.35103583
34	0xbf582442	-0.84430325
35	0x3edbe53f	0.42948338
36	0xbe97ec0d	-0.2967228
37	0xbeb53d21	-0.353982
38	0xbeb05f04	-0.3444749
39	0xbeb1cd8b	-0.3472713
40	0x3fae2f30	1.360815
41	0x3cd3d458	0.02585809
42	0xbe8587fd	-0.26080313
43	0xbe89d127	-0.26917383
44	0xbe1c0434	-0.15235978
45	0xbd93f63b	-0.07224699
46	0xbebda85c	-0.3704251
47	0xbb981406	-0.004641059
48	0xbf870051	-1.0546972
49	0xbe888fdc	-0.26672256
50	0x3ef38772	0.47564274
51	0x3edea832	0.43487698
52	0x3f77a0ca	0.9672972
53	0xbe869954	-0.26288855
54	0x3f2cbd00	0.6747589
55	0xbe87e077	-0.2653844
56	0xbe84fa63	-0.2597228
57	0xbe910f9b	-0.2833222
58	0xbe4ee134	-0.20203096
59	0x3fb5ba7e	1.4197538
60	0xbe897339	-0.2684572
61	0xbeb376b6	-0.35051507
62	0xbd2bc2e2	-0.0419339
63	0xbe92f866	-0.28705138
64	0xbf1727b0	-0.59044933
65	0xbdb31ced	-0.087457515
66	0x3f0c5fb9	0.5483356
67	0xbd726a52	-0.059183426
68	0xbe613027	-0.21991025
69	0x3da0bc0b	0.07848366
70	0xbf0c7fab	-0.54882306
71	0xbf63e44d	-0.89020234
72	0xbf2675b9	-0.6502338
73	0x3f902f14	1.1264367
74	0xbeb5049f	-0.35355088
75	0xbe5e6a6a	-0.21720281
76	0xbea307bf	-0.31841847
77	0x3fd39640	1.6530228
78	0x3fb6e5e5	1.4288908
79	0x3f67447c	0.90338874
80	0xbaa7e2f5	-0.0012808727
81	0xbf1c5e25	-0.61081153
82	0xbea103ef	-0.31448314
83	0xbe5cc47d	-0.2155933
84	0xbe287333	-0.16450195
85	0xbeb0ac36	-0.34506387
86	0x3d20b689	0.03923658
87	0x3fb5a183	1.4189914
88	0xbef4e845	-0.47833458
89	0xbea6cb11	-0.32576802
90	0x3f4a9d3b	0.79146165
91	0x3f2a4f64	0.6652739
92	0xbf251e7d	-0.64499646
93	0xbed94042	-0.42431837
94	0xbe53d682	-0.20687297
95	0x3fa5c9f2	1.2952254
96	0xbe529224	-0.2056356
97	0xbd161f1d	-0.036650766
98	0xbee44d18	-0.44590068
99	0xbcb8b966	-0.022549342
100	0xbe93f969	-0.28901222
101	0xbea7c752	-0.32769257
102	0x3f795c2a	0.97406256
103	0xbd082d48	-0.03324631
104	0x3d47e014	0.048797682
105	0xbe5e9b11	-0.2173884
106	0xbea72e45	-0.32652488
107	0xbe8d5388	-0.27602792
108	0xbf035dbd	-0.5131491
109	0xbec03c68	-0.37546086
110	0x3f4eace2	0.8073255
111	0x3fb18028	1.3867235
112	0xbe9a565c	-0.30144012
113	0xbe88ee62	-0.26744372
114	0x3f6f5afd	0.9349821
115	0xbe87032d	-0.2636961
116	0x3fb7b513	1.4352134
117	0x3e44af5b	0.19207518
118	0xbf082365	-0.5317901
119	0x3d67807e	0.056519024
120	0x3f3c290c	0.7350013
121	0xbe157cd7	-0.14598404
122	0x3d84f7bc	0.06492564
123	0x3f23fe08	0.64059496
124	0x3e98714f	0.29773948
125	0xbce4f17e	-0.027947184
126	0xbf16b089	-0.5886312
127	0x3f5db78a	0.86608183
128	0xbe7d75f2	-0.24752024
129	0xbe769559	-0.24080409
130	0xbe9a4b43	-0.30135545
131	0x3c769310	0.015049711
132	0xbf87895a	-1.0588791
133	0xbea029a4	-0.3128177
134	0xbe959dd9	-0.2922199
135	0xbf08b022	-0.5339376
136	0xbd3426e4	-0.0439824
137	0x3cb31908	0.021862522
138	0xbd03357c	-0.03203343
139	0x3bf50bb0	0.0074782
140	0xbe9c8cdf	-0.30576226
141	0xbf0e64e8	-0.5562272
142	0xbea80290	-0.32814455
143	0x3ec1472d	0.37749615
144	0xbe8e371d	-0.27776423
145	0xbea902f0	-0.33010054
146	0xbe9e6b53	-0.30941257
147	0xbe8e8584	-0.2783624
148	0xbe856fb2	-0.2606178
149	0xbe98141d	-0.29702845
150	0xbe911590	-0.28336763
151	0xbdc3e176	-0.09564488
152	0x3ef39711	0.47576192
153	0x3f93aefd	1.1537777
154	0xbe9f6eaa	-0.31139117
155	0xbeaa7893	-0.33295116
156	0x40609d63	3.5096061
157	0xbebcad2e	-0.36850876
158	0x3f04acb3	0.5182602
159	0x4005a818	2.0883846
160	0x3d7c1567	0.06154385
161	0xbe94e20e	-0.29078716
162	0xbe2e854d	-0.17043038
163	0x3f158352	0.58403504
164	0xbe8cca07	-0.27497885
165	0xbe872f22	-0.26403147
166	0xbedcb20a	-0.43104583
167	0xbe7e52d2	-0.24836281
168	0x3faae278	1.3350363
169	0x3e11385f	0.1418166
170	0xbe8825ba	-0.26591283
171	0xbe9cf7c0	-0.30657768
172	0xbdf3d261	-0.11905361
173	0x3c37b2c0	0.011212051
174	0xbe8a3a44	-0.26997578
175	0x3d4ccb5d	0.04999863
176	0xbee1dcfc	-0.4411391
177	0xbeab675b	-0.3347729
178	0x3f9c1e3b	1.2196726
179	0xbe4705ce	-0.19435808
180	0x3f5df573	0.8670265
181	0xbebd488b	-0.36969408
182	0x3e85c052	0.2612329
183	0xbe6f6602	-0.23378757
184	0xbebbe68b	-0.36699328
185	0xbeb5d748	-0.3551581
186	0xbeb8af14	-0.36071074
187	0x3f527ac2	0.82218564
188	0xbe9ad9e5	-0.30244365
189	0xbec1ea4a	-0.3787406
190	0x3d87d365	0.06632117
191	0xbeb4b566	-0.35294646
192	0xbf0ba036	-0.5454134
193	0xbc571a40	-0.013128817
194	0x3f3780ff	0.7168121
195	0x3cc34e65	0.023841092
196	0xbd06e19a	-0.032929994
197	0xbd80520b	-0.062656485
198	0xbea3175d	-0.31853762
199	0xbf6466c0	-0.89219284
200	0xbf1727c8	-0.59045076
201	0x3f84e41f	1.0382117
202	0xbe569718	-0.20956075
203	0xbeb16e36	-0.34654397
204	0xbea22048	-0.31665254
205	0x3fd53c89	1.6659099
206	0x3fc04250	1.5020237
207	0x3f42f3df	0.7615337
208	0x3d97df75	0.07415668
209	0xbe992b7b	-0.29915985
210	0xbe995dc1	-0.2995434
211	0xbe9c827f	-0.3056831
212	0xbec74403	-0.38919076
213	0xbea4cb68	-0.32186437
214	0xbca7bb7b	-0.02047514
215	0x3ff45632	1.9088805
216	0xbeb6de3d	-0.3571643
217	0xbea72347	-0.32644102
218	0x3f2e5dc5	0.6811183
219	0x3f024bb5	0.5089677
220	0xbe1b71f2	-0.15180185
221	0xbf4546ad	-0.7706097
222	0xbebeff00	-0.37303925
223	0x3fe4b02c	1.7866263
224	0xbebb874d	-0.36626664
225	0xbd2c7500	-0.042103767
226	0xbf2f7fcb	-0.6855437
227	0xbc42a06e	-0.01187907
228	0xbe9248e1	-0.28571227
229	0xbe83240d	-0.25613442
230	0x3f63089e	0.88685024
231	0xba04cc0d	-0.00050658063
232	0xbd5b480c	-0.053535506
233	0xbeb0101b	-0.34387287
234	0xbe9a0d07	-0.30088064
235	0xbe90f931	-0.28315118
236	0xbee48f9c	-0.44640815
237	0xbec8f3cd	-0.39248505
238	0x3f87e11b	1.0615572
239	0x3fa5243c	1.2901683
240	0xbe9421a1	-0.28931907
241	0xbe8b84a7	-0.27249643
242	0x3f8082db	1.0039934
243	0xbe916b5f	-0.2840223
244	0x3faa86ec	1.3322425
245	0xbe656018	-0.22399938
246	0xbe01201b	-0.12609904
247	0x3d983f63	0.07433965
248	0x3f233e30	0.63766766
249	0xbe1c50e7	-0.15265237
250	0xbd322891	-0.04349572
251	0x3fa02bdd	1.2513386
252	0x3df7e701	0.121046074
253	0xbeb23071	-0.34802583
254	0xbf45c597	-0.77254623
255	0x3f3ba22a	0.7329432

fcl3.bias f4 [4]
0	0xbd8d97a5	-0.069136895
1	0x3da40de3	0.08010461
2	0x3ce09ed7	0.02741949
3	0x3d883ed2	0.06652607
