dqn/exercise/checkpoint.pth (torch_old, 20918 bytes, 6 tensors)

fcl1.weight f4 [64, 8]
0	0xbebd0c1b	-0.36923298
1	0x3e82e4a5	0.25565067
2	0x3de67074	0.112519175
3	0x3e2d5151	0.16925551
4	0x3e916cc2	0.28403288
5	0x3e737b03	0.23777394
6	0x3e157d53	0.14598589
7	0x3f13bc8a	0.5770956
8	0xbf4fcefe	-0.8117522
9	0xbd55578a	-0.052085437
10	0xbf117b36	-0.5682863
11	0x3db5efcf	0.088836305
12	0xbefd3122	-0.49451548
13	0xbe8d2b1d	-0.27571955
14	0xbcaa4f70	-0.020789832
15	0x3e65ebc3	0.22453217
16	0x3d349312	0.04408557
17	0x3d61e021	0.055145387
18	0x3e22fb29	0.15916122
19	0x3e835f24	0.25658524
20	0xbd784333	-0.06061096
21	0x3f1a2336	0.6020998
22	0x3ed4e25e	0.41578954
23	0x3eacf59f	0.33781144
24	0x3d849acc	0.06474838
25	0xbe6fe6d0	-0.23427892
26	0x3f219c56	0.63129175
27	0x3ef951e6	0.48695296
28	0xbfa63a4a	-1.2986538
29	0xbf04f23e	-0.5193213
30	0xbe9b1f71	-0.30297425
31	0x3ecdc86d	0.40191975
32	0xbe72ac29	-0.23698486
33	0x3d8a82a5	0.067632
34	0x3d943548	0.07236725
35	0xbdd38491	-0.103280194
36	0x3cd5d5b4	0.026102878
37	0x3e623b39	0.22092904
38	0x3ea2919a	0.3175171
39	0x3e3f0170	0.18652892
40	0xbdb473e8	-0.0881117
41	0xbf56b0d1	-0.8386355
42	0x3f9cc19c	1.2246585
43	0xbf03c22c	-0.5146816
44	0xbf14c098	-0.58106375
45	0xbdfafa52	-0.12254776
46	0x3e229b7a	0.15879622
47	0x3e728ec0	0.23687267
48	0xbe5f3a62	-0.21799615
49	0xbdf8c52a	-0.12146981
50	0xbe62d576	-0.22151741
51	0xbdd7b327	-0.105322175
52	0x3e9ea3ba	0.30984288
53	0x3f1a9b69	0.6039339
54	0x3eb19eba	0.3469141
55	0xbf20efbb	-0.628658
56	0xbdabc594	-0.083872944
57	0xbc918774	-0.017764784
58	0xbeb3154b	-0.34977183
59	0xbf3ee977	-0.7457499
60	0x3da3de63	0.08001401
61	0xbce4d56a	-0.027933795
62	0x3ce00bfa	0.02734946
63	0x3ea41cdc	0.32053268
64	0x3d97645a	0.073921874
65	0x3d02ccfe	0.031933777
66	0xbc8710b5	-0.016487459
67	0x3db10deb	0.08645233
68	0x3e427d2c	0.18993062
69	0x3f3b9b88	0.73284197
70	0xbe1c2a10	-0.1525042
71	0xbf93e437	-1.1554021
72	0x3e930e4f	0.28721854
73	0x3eb03340	0.344141
74	0x3f2b3ff0	0.66894436
75	0x3f62fdc0	0.8866844
76	0xbf18d2fe	-0.5969695
77	0xbf1c7b9d	-0.6112612
78	0x3bff3016	0.0077877147
79	0xbe16ab60	-0.14713812
80	0xbe95d135	-0.29261175
81	0x3f7ac448	0.9795575
82	0x3f21cb3d	0.6320074
83	0xbfd896cb	-1.6921018
84	0x3f1a5e97	0.6030058
85	0x3eb4a898	0.35284877
86	0x3e181805	0.14852913
87	0xbf43fe4c	-0.765599
88	0xbe952d4f	-0.2913613
89	0x3d167065	0.03672828
90	0xbea30014	-0.31835997
91	0x3caf72f8	0.021417126
92	0x3f4e55af	0.8059949
93	0x3e7e4d77	0.24834238
94	0xbf23946d	-0.63898355
95	0xbf174c90	-0.591012
96	0xbedd4ca1	-0.43222526
97	0xbd81b9d0	-0.06334269
98	0xbe319b96	-0.17344508
99	0xbd0f8def	-0.035047468
100	0x3dd59034	0.10427895
101	0x3f2a8b91	0.6661921
102	0xbdf22e59	-0.11825246
103	0xbeccc186	-0.39991397
104	0xbeb20e96	-0.34776753
105	0xbd29c5f9	-0.041448567
106	0x3c46c128	0.012131013
107	0x3f146cb4	0.5797837
108	0x3e88c4f4	0.26712763
109	0xbe3a4dd1	-0.18193747
110	0x3e56b02d	0.20965643
111	0x3ec2f5d1	0.38078168
112	0xbe915397	-0.28384086
113	0x3f1469b0	0.57973766
114	0x3fb027ee	1.3762186
115	0xbfbf5b42	-1.4949725
116	0x3db49ca1	0.08818937
117	0x3e6ff4d3	0.23433237
118	0x3e86fa2f	0.2636275
119	0xbdd87220	-0.105686426
120	0x3e8662c7	0.26247236
121	0x3e07583d	0.13217254
122	0xbdfaffc8	-0.12255818
123	0x3c76d883	0.015066269
124	0x3f000ad4	0.5001652
125	0xbe50236a	-0.2032601
126	0xbf3010a8	-0.68775415
127	0xbe05ad5d	-0.13054414
128	0xbf40b151	-0.75270563
129	0xbdaaec16	-0.08345811
130	0xbf3a39d2	-0.72744477
131	0xbe28493c	-0.16434187
132	0xbea48e15	-0.3213965
133	0xbe42e103	-0.19031148
134	0x3db1ae07	0.08675771
135	0x3b378c5e	0.002800725
136	0xbee0fb2f	-0.43941638
137	0x3de27e8b	0.110592924
138	0x3e92e6c5	0.28691688
139	0x3f19d44c	0.60089564
140	0xbe4486a2	-0.19191983
141	0x3f1a9166	0.6037811
142	0x3f1b3c9d	0.60639364
143	0xbe93917f	-0.28821942
144	0xbda202f6	-0.07910721
145	0xbfa1676f	-1.260969
146	0xbe19c80f	-0.15017723
147	0xbf17d336	-0.5930666
148	0xbe8c4666	-0.2739746
149	0xbf82508d	-1.0180832
150	0xbf19855c	-0.59969115
151	0xbdca7784	-0.09886077
152	0x3db7b202	0.08969499
153	0x3f089f80	0.5336838
154	0x3e833065	0.2562286
155	0xbfc164b4	-1.5108857
156	0x3f0cd79f	0.5501651
157	0x3e097e13	0.13427
158	0x3d0db5c8	0.03459719
159	0xbec1df00	-0.37865448
160	0xbdc638ea	-0.09678824
161	0xbf169867	-0.588263
162	0x3ded89c4	0.11598542
163	0xbf6d2527	-0.92634815
164	0x3e859a0a	0.26094085
165	0x3d572c34	0.05253239
166	0x3d853f91	0.06506265
167	0x3d598ec5	0.05311467
168	0xbcbe548e	-0.023233678
169	0x3dde9a12	0.1086923
170	0x3efe1b3b	0.4963015
171	0x3e527f32	0.20556334
172	0x3e92e29a	0.28688508
173	0x3d9a1535	0.07523576
174	0x3e6c732c	0.2309081
175	0x3f021bf3	0.508239
176	0x3e19f249	0.1503383
177	0xbf9a5878	-1.2058249
178	0x3f3dc77f	0.7413253
179	0xbfa7e43b	-1.3116525
180	0xbd9d3c62	-0.07677533
181	0xbe820da4	-0.25401032
182	0x3e9c0f4f	0.3048043
183	0x3d902a36	0.07039301
184	0x3f12d1ef	0.57351583
185	0xbf3ae3dc	-0.73003936
186	0x3f0e908f	0.5568933
187	0xbe353692	-0.17696598
188	0xbf846a88	-1.0345011
189	0x3e64defc	0.22350687
190	0x3e91895c	0.2842511
191	0x3e988a58	0.29793048
192	0xbe9f1982	-0.31074148
193	0xbf0f0728	-0.55870295
194	0xbea880e7	-0.32910845
195	0xbf59b17d	-0.8503645
196	0x3f2ca52e	0.67439544
197	0x3e906c1a	0.28207475
198	0xbc2fa636	-0.01072078
199	0xbe14e63b	-0.14540951
200	0xbea0e9a7	-0.31428263
201	0x3eaae3c1	0.33376887
202	0xbe653086	-0.22381791
203	0xbe2cdbac	-0.16880673
204	0x3de94176	0.11389439
205	0x3ebc731b	0.36806569
206	0x3e60c27a	0.21949187
207	0x3ee794c1	0.45230678
208	0xbec322bd	-0.3811244
209	0xbf27f8af	-0.65613836
210	0x3c475c25	0.012167965
211	0xbf116bf6	-0.5680536
212	0x3eca4847	0.39508268
213	0xbb5542e2	-0.0032541086
214	0xbe896ff3	-0.26843223
215	0xbe7f82cd	-0.2495224
216	0x3f22b97d	0.6356428
217	0xbf8ffe46	-1.1249473
218	0x3f9b2d56	1.212321
219	0xbfae3b52	-1.3611853
220	0xbe6a890a	-0.22903839
221	0xbd9773b7	-0.07395118
222	0x3db664c5	0.08905939
223	0x3d889b81	0.06670285
224	0x3e2dd945	0.16977413
225	0x3f0c1d36	0.5473207
226	0xbfbaa04d	-1.458017
227	0xbf9d1d3f	-1.227455
228	0x3ef8260d	0.4846653
229	0x3e0e660a	0.13906112
230	0x3e1d24d7	0.15346085
231	0x3eaa99d1	0.33320478
232	0xbd7264d4	-0.05917819
233	0x3c9fbb2d	0.019498432
234	0x3f9d27b6	1.2277744
235	0x3f13e81e	0.5777606
236	0xbf0b395d	-0.54384404
237	0xbdc31eff	-0.095273964
238	0x3e95deac	0.29271448
239	0x3e0a7f8c	0.13525218
240	0xbcc35009	-0.023841875
241	0x3dfea2a9	0.12433369
242	0xbefe8538	-0.49711013
243	0x3f8976a5	1.0739332
244	0x3e7ff7d3	0.24996881
245	0xbf011f03	-0.50437945
246	0xbf29bbc4	-0.6630213
247	0xbe65c64f	-0.2243893
248	0xbdc8fc9b	-0.09813806
249	0xbf0d15a7	-0.55111164
250	0xbf480cdb	-0.78144616
251	0xbea0dd2d	-0.31418744
252	0x3f034bc1	0.51287466
253	0x3e7c1c1a	0.24620095
254	0x3d9be24c	0.07611522
255	0x3dd60cf5	0.1045169

fcl1.bias f4 [64]
0	0xbec8d46d	-0.39224568
1	0x3d06f2da	0.032946445
2	0x3ce5d649	0.02805628
3	0xbe003d01	-0.12523271
4	0xbe5e14dd	-0.21687646
5	0xbed324f0	-0.4123912
6	0x3e92df26	0.28685874
7	0x3e25b3af	0.16181825
8	0x3bc4a1b4	0.006000722
9	0x3e1ad0a2	0.1511865
10	0x3f3c940a	0.7366339
11	0xbe704881	-0.23465158
12	0xbf1279fd	-0.5721739
13	0xbe344080	-0.1760273
14	0x3f054290	0.5205469
15	0xbe8bd451	-0.27310422
16	0xbd17d24a	-0.03706578
17	0xbea9c437	-0.33157513
18	0x3e448c18	0.19194067
19	0x3f5f8200	0.8730774
20	0xbe814a7d	-0.25252143
21	0xbec7b1c6	-0.39002818
22	0xbef4f5ce	-0.47843784
23	0xbeb6ffab	-0.35741934
24	0xbe10d39d	-0.14143224
25	0xbecca2fb	-0.39968094
26	0xbdce3d12	-0.10070242
27	0xbe90b248	-0.28261018
28	0x3ea9c4a9	0.33157852
29	0xbeaedc88	-0.34152627
30	0xbf090419	-0.5352188
31	0xbe4f96f5	-0.2027243
32	0xbed66254	-0.41871893
33	0x3eaa437a	0.33254606
34	0x3e7067cb	0.23477094
35	0xbe379653	-0.17928438
36	0x3cb575ee	0.02215096
37	0xbd87cfb8	-0.06631416
38	0xbeabbe97	-0.33543846
39	0xbeb36561	-0.35038283
40	0x3ea40e91	0.32042363
41	0xbe8e6a82	-0.27815634
42	0x3eaa67c7	0.332823
43	0x3dd13d1c	0.10216734
44	0x3e0793e8	0.13240016
45	0xbe5c6332	-0.21522215
46	0x3ef25036	0.4732682
47	0x3ef41679	0.47673395
48	0xbd7d9303	-0.06190778
49	0xbd85a3bc	-0.065253705
50	0x3ebc75b1	0.3680854
51	0x3e84ef33	0.25963745
52	0xbe0ea96a	-0.13931814
53	0x3d67764b	0.056509297
54	0x3e33b8f9	0.1755103
55	0x3e605200	0.2190628
56	0xbd608f69	-0.054824267
57	0x3dddc08d	0.10827742
58	0x3ed617c4	0.41815007
59	0xbda67991	-0.08128656
60	0xbc4cc954	-0.012499172
61	0xbb898936	-0.004197265
62	0xbaa728a2	-0.0012753198
63	0x3e41f6b2	0.18941763

fcl2.weight f4 [64, 64]
0	0x3e43aaca	0.1910812
1	0x3e0dabdf	0.13835095
2	0x3e7e44da	0.24830952
3	0x3ee581d2	0.44825608
4	0xbdedc84b	-0.116104685
5	0xbe7f2e3e	-0.24919984
6	0x3f008539	0.5020328
7	0x3e41311e	0.18866393
8	0x3deb0d83	0.114771865
9	0x3e9b9b7d	0.30392066
10	0x3dec1bb4	0.115287215
11	0x3f3fd977	0.749412
12	0x3e947640	0.28996468
13	0x3e503865	0.20334013
14	0xbca155bf	-0.019694207
15	0x3e2a8870	0.1665361
16	0x3dce166a	0.10062869
17	0x3f226b28	0.6344476
18	0xbebb417a	-0.36573392
19	0x3e1370fe	0.14398572
20	0x3e4ae7be	0.19814965
21	0x3e8dce38	0.27696395
22	0x3f798c1a	0.97479403
23	0x3ebb4f02	0.36583716
24	0x3e4dc2c2	0.20093825
25	0x3cf7e143	0.03025878
26	0x3eb6db47	0.3571417
27	0x3f398b0d	0.724778
28	0x3b2a9d1e	0.002603359
29	0xbf1763fe	-0.5913695
30	0x3e7db4f5	0.24776061
31	0x3f02b0de	0.5105113
32	0x3e9d9ca7	0.3078358
33	0x3e19cd04	0.15019614
34	0x3e453ce3	0.19261508
35	0x3b505eef	0.0031794866
36	0xbf338d93	-0.701379
37	0x3ec922f1	0.3928447
38	0x3d359d30	0.04433936
39	0x3f2dd38a	0.6790091
40	0x3e83c7db	0.25738415
41	0x3e8a0706	0.26958483
42	0x3e1f44e0	0.15553617
43	0xbeba50b6	-0.36389703
44	0xbe1100c6	-0.14160451
45	0x3dfdfacb	0.124013506
46	0x3f1837c4	0.5946009
47	0xbe0c0054	-0.13672
48	0xbf3d8830	-0.7403593
49	0x3f0967b5	0.5367387
50	0x3e5a977b	0.21346848
51	0xbe8445e3	-0.2583457
52	0xbd20a01f	-0.039215203
53	0xbf279802	-0.6546632
54	0x3c1141d5	0.008865793
55	0xbf41649c	-0.7554414
56	0xbe0690cc	-0.13141173
57	0x3f0072ac	0.50174975
58	0xbda834db	-0.082132064
59	0xbf4b4d76	-0.7941507
60	0x3e67e478	0.22645748
61	0xbcd6a518	-0.02620177
62	0xbe6621ed	-0.22473879
63	0xbea58a0e	-0.3233189
64	0x3e14ea88	0.14542592
65	0x3ecd6ac8	0.4012053
66	0x3df3a407	0.1189652
67	0x3ea9874a	0.3311103
68	0xbe3e0c31	-0.18559338
69	0x3f35a9cc	0.70962214
70	0x3f0d86b7	0.55283684
71	0x3e05a272	0.13050249
72	0xbdc6e77b	-0.0971212
73	0xbe903918	-0.2816856
74	0x3e80b63b	0.2513903
75	0x3f46c31d	0.7764147
76	0x3e88a144	0.26685536
77	0x3cdd507e	0.02701592
78	0xbce9aa4f	-0.028523592
79	0xbcb58d6d	-0.022162164
80	0x3edea87c	0.43487918
81	0x3f2333db	0.63751
82	0xbe1e7849	-0.15475573
83	0x3d8613b4	0.06546727
84	0x3f1997d7	0.59997314
85	0x3dbeefab	0.09323057
86	0x3f8ad4b9	1.0846168
87	0x3dfebb5d	0.124380805
88	0x3ee2b6cc	0.44280088
89	0x3e47bf10	0.19506478
90	0x3f531647	0.8245587
91	0x3f2620fa	0.6489407
92	0xbcd51b96	-0.02601413
93	0x3ea48144	0.32129872
94	0xbfac9843	-1.3483967
95	0x3f667d7b	0.9003522
96	0x3ed46f67	0.41491243
97	0x3f1063b4	0.56402135
98	0x3e2d6711	0.16933848
99	0x3f0aff24	0.54295564
100	0xbee4e99d	-0.44709483
101	0x3eb92321	0.36159614
102	0x3daf4fca	0.085601404
103	0x3e864c7f	0.26230237
104	0x3e972317	0.2951896
105	0x3eb229e6	0.3479759
106	0xbd5e3d4a	-0.05425767
107	0x3d765f57	0.060149517
108	0x3ec3aa08	0.3821566
109	0x3d530960	0.051522613
110	0xbed03f4a	-0.40673286
111	0x3d274f96	0.040847383
112	0xbd23e37f	-0.04001188
113	0x3f1e5982	0.6185533
114	0xbf07f9b9	-0.5311542
115	0xbb510491	-0.003189359
116	0xbedab901	-0.42719272
117	0xbe8200cf	-0.25391242
118	0x3e619e5b	0.22033064
119	0xbf7c4328	-0.9853997
120	0x3dd498d0	0.10380709
121	0x3e52ce07	0.20586406
122	0xbe094ffe	-0.13409421
123	0xbe701e7e	-0.23449132
124	0x3ee04e0e	0.4380955
125	0x3eb8967e	0.36052316
126	0xbe764125	-0.24048288
127	0xbd096522	-0.033543713
128	0x3ed750ec	0.42053926
129	0x3e3832a5	0.1798807
130	0x3e646e09	0.223076
131	0x3ef2e548	0.47440553
132	0xbdafa072	-0.085755244
133	0x3aecb578	0.0018059453
134	0x3d23e8d4	0.040016964
135	0xbdd7fd6f	-0.105463855
136	0xbe9f567f	-0.3112068
137	0xbdd4b9ae	-0.10386978
138	0x3eaed51c	0.34146965
139	0xbfb8a358	-1.4424849
140	0x3e3ff9cf	0.18747638
141	0xbc016920	-0.007898599
142	0x3ee96829	0.4558728
143	0xbf0630e2	-0.5241834
144	0x3d83ccf3	0.06435575
145	0xbda7d24e	-0.08194409
146	0x3e5e5ad7	0.2171434
147	0x3d957231	0.07297171
148	0x3e225715	0.15853532
149	0xbd0b2ea1	-0.033980016
150	0x3e9537bd	0.29144087
151	0x3ea0d2eb	0.31410918
152	0xbfa3d0c8	-1.279809
153	0x3d8f6d98	0.07003325
154	0xbe4562e1	-0.19276
155	0x3e91387d	0.2836341
156	0xbec0d502	-0.37662512
157	0xbebd19a3	-0.36933622
158	0xbf61833b	-0.88090867
159	0xbbe0adfe	-0.006856679
160	0x3ee20fb2	0.441526
161	0x3f5f8959	0.8731895
162	0xbdb0721c	-0.08615515
163	0xc0211bd9	-2.5173247
164	0xc0291094	-2.6416368
165	0x3dc18b02	0.09450342
166	0x3dcaf7cc	0.09910545
167	0xbe6ad7aa	-0.22933832
168	0xbc3ce693	-0.011529583
169	0xbcac7daf	-0.021056024
170	0x3ea46027	0.32104608
171	0x3f71b07f	0.94409937
172	0x3f541564	0.8284514
173	0xbf2c6cee	-0.67353714
174	0xbca85ab8	-0.02055107
175	0x3eaa36ed	0.3324503
176	0x3e284b69	0.16435017
177	0xbddda152	-0.10821785
178	0xbeba83b5	-0.3642861
179	0xbeb1034c	-0.34572828
180	0xbe61193b	-0.21982281
181	0x3dcb330e	0.09921847
182	0xbf032797	-0.51232284
183	0xbe536559	-0.2064413
184	0xbed08461	-0.40725997
185	0x3d647873	0.05577893
186	0xbd21919d	-0.03944551
187	0x3eee4a38	0.46541
188	0xbfc2a301	-1.5205995
189	0xbe8ed225	-0.27894703
190	0x3dbcdbd9	0.0922162
191	0x3f2c3f12	0.6728374
192	0xbd8aa057	-0.06768864
193	0x3e9ff63d	0.31242552
194	0x3ddbf9c2	0.10740997
195	0x3ef03423	0.46914777
196	0x3ce2b5e5	0.027674625
197	0x3d88e634	0.06684533
198	0x3f307334	0.68925786
199	0x3e311731	0.17294003
200	0x3ea90133	0.33008727
201	0x3e695ab4	0.22788507
202	0x3e3f410f	0.18677162
203	0x3eba81df	0.3642721
204	0xbc8ccc1d	-0.017187173
205	0x3e00488c	0.12527674
206	0x3bd4e4d8	0.006497007
207	0x3d8695b1	0.0657152
208	0x3e2f4dc0	0.17119503
209	0x3ea0b970	0.31391478
210	0x3d6ccdd0	0.057813466
211	0x3d87baf6	0.06627457
212	0x3df92970	0.12166107
213	0x3e0a4542	0.13502982
214	0x3f1c5ca1	0.6107884
215	0xbd5b0c9b	-0.05347882
216	0x3ed9e3c9	0.425566
217	0x3c8e753e	0.01738989
218	0x3f047921	0.5174733
219	0x3f2cf76b	0.6756503
220	0xbcaf93cf	-0.021432785
221	0xbeae298b	-0.3401607
222	0x3f63cb90	0.88982487
223	0x3e743dc2	0.23851684
224	0x3eadebb8	0.33968902
225	0x3e32a416	0.17445406
226	0x3e7795fa	0.24178305
227	0xbb8b10a4	-0.004243927
228	0xbf6e1dac	-0.93014026
229	0x3f833173	1.0249466
230	0x3dfe9006	0.12429814
231	0x3f11a4a4	0.56891847
232	0x3e03262a	0.12807527
233	0x3e6296ff	0.22127913
234	0xbc9d482d	-0.019199455
235	0xbf5e25eb	-0.8677661
236	0xbd3e0eab	-0.046400707
237	0xbe0b7a8f	-0.13620971
238	0x3ed0a9dd	0.40754595
239	0x3cee33d0	0.02907744
240	0xbf9d477c	-1.228744
241	0x3eb0768e	0.3446545
242	0x3e9d8a6b	0.30769667
243	0xbdd956c3	-0.106122516
244	0x3f1f12a8	0.6213784
245	0xbf159717	-0.5843367
246	0x3dfc1871	0.12309349
247	0xbef1294b	-0.47101817
248	0x3ebc1e73	0.3674198
249	0x3f3523f7	0.70758003
250	0x3d90bf13	0.070676945
251	0xbf6d1d0d	-0.9262245
252	0x3ed9574d	0.42449418
253	0x3d7244da	0.059147693
254	0x3e035707	0.12826167
255	0xbef5d357	-0.48012802

fcl2.bias f4 [64]
0	0x3e10988b	0.1412069
1	0xbd15b942	-0.03655363
2	0x3eb1c00a	0.34716827
3	0x3ea92c77	0.33041736
4	0x3d60a0d1	0.054840866
5	0x3e5b0039	0.21386804
6	0x3ed62710	0.41826677
7	0x3e18a332	0.14906004
8	0x3cee0018	0.02905278
9	0xbdef56f7	-0.11686509
10	0x3d948fd3	0.07253995
11	0x3ca383b2	0.019960258
12	0xbe26435a	-0.1623663
13	0x3dc29209	0.0950051
14	0x3ebc75d8	0.36808658
15	0x3f816066	1.0107543
16	0x3e4d43ea	0.20045438
17	0x3cf0a42e	0.029375162
18	0x3e8b2689	0.27177837
19	0x3d911713	0.07084479
20	0xbd99fd4a	-0.07519014
21	0xbd1ffca8	-0.03905931
22	0x3dd65ec5	0.104672946
23	0xbde2de7d	-0.110775925
24	0xbc26af41	-0.01017362
25	0xbe03d3d2	-0.12873772
26	0xbdadfb3f	-0.08495187
27	0xbd7ba8b0	-0.06144017
28	0x3df8a3f0	0.121406436
29	0x3de4612d	0.11151347
30	0x3e39577d	0.1809978
31	0x3e993454	0.29922736
32	0x3dc8cfc9	0.09805257
33	0x3e6b3aba	0.22971621
34	0x3ba7431b	0.005104435
35	0xbdf958b0	-0.12175119
36	0x3dcca3c0	0.0999217
37	0x3d97a630	0.074047446
38	0x3e1cedae	0.15325043
39	0x3e6ced60	0.23137426
40	0x3d8310c0	0.06399679
41	0x3cd67583	0.02617908
42	0xbccefb9e	-0.025266465
43	0x3ea424a0	0.32059193
44	0xbdf7fff6	-0.121093675
45	0x3d791b79	0.060817216
46	0xbde76cbb	-0.113000356
47	0xbcf6dfe8	-0.030136064
48	0x3cff38f5	0.031155089
49	0x3c42bfb7	0.011886529
50	0x3dcfd92c	0.10148844
51	0xbba12237	-0.004917409
52	0x3e75cb80	0.2400341
53	0x3d988100	0.0744648
54	0x3e69a2b9	0.2281598
55	0xbdf74cad	-0.120751716
56	0x3e83fa77	0.25777027
57	0xbb181250	-0.0023204274
58	0xbd7a8219	-0.061159227
59	0x3d615f71	0.05502266
60	0x3d1a89dd	0.037729133
61	0xbe78f292	-0.24311283
62	0x3f6b7b13	0.9198467
63	0x3d9a9f40	0.07549906

fcl3.weight f4 [4, 64]
0	0xbf105b2a	-0.56389105
1	0xbea9a9a4	-0.33137238
2	0x3dd0f85a	0.10203619
3	0xbf2e9dbb	-0.6820943
4	0xbdddcfc6	-0.10830645
5	0xbf267688	-0.65024614
6	0x3f911a32	1.1336119
7	0xbee9f302	-0.45693213
8	0xbdc703b8	-0.09717506
9	0x3c601826	0.013677632
10	0xbf54e80c	-0.83166575
11	0x3f0751f1	0.5285941
12	0xbf6fa33f	-0.9360847
13	0xbeaa24ce	-0.33231205
14	0x4027e05f	2.6230695
15	0x3fd328c4	1.6496816
16	0x3fe3a817	1.7785672
17	0xbeeb7a9f	-0.4599199
18	0x4046905e	3.1025615
19	0xbe582dc6	-0.21111211
20	0xbe0e4241	-0.13892461
21	0x3d6bc3db	0.05755983
22	0xbdd5d556	-0.10441081
23	0xbcb3b43c	-0.021936528
24	0xbe8c06fd	-0.27349082
25	0x3dce44ba	0.10071702
26	0x3dc2abf2	0.09505452
27	0xbefc81d5	-0.49317804
28	0xbea48249	-0.3213065
29	0xbf7260c4	-0.946789
30	0x401011f0	2.2510948
31	0x3f8109c8	1.008111
32	0xbf8861e5	-1.0654875
33	0xbf2a5267	-0.66531986
34	0xbe946611	-0.2898412
35	0xbddc4068	-0.10754472
36	0xbe9bd8d4	-0.30438864
37	0xbe758389	-0.23975958
38	0xbf22bb21	-0.63566786
39	0xbf84df05	-1.038056
40	0xbe4c19f3	-0.19931774
41	0xbf34a569	-0.70564896
42	0xbe5af8dc	-0.21383995
43	0x3fe8abd3	1.8177437
44	0x3d231d91	0.03982312
45	0xbc854093	-0.016266143
46	0x3d64da78	0.05587241
47	0xbed9821f	-0.42482087
48	0xbea00a92	-0.31258065
49	0xbf3d2e90	-0.73899174
50	0xbe7d74c5	-0.24751575
51	0xbe89f443	-0.2694417
52	0xbdd7d877	-0.10539334
53	0xbe777e1a	-0.24169198
54	0xbf78bdd1	-0.97164637
55	0x3d0fa4f8	0.035069436
56	0xbf867a85	-1.050614
57	0xbf18ab29	-0.5963617
58	0xbed63a0f	-0.4184117
59	0xbe5677c9	-0.20944132
60	0xbf7af89b	-0.9803559
61	0xbf15ff6c	-0.5859287
62	0x3fdbae73	1.7162613
63	0xbe8dbd9e	-0.2768373
64	0xbed6defe	-0.41967005
65	0xbf0ccc25	-0.54999
66	0x3f3b6477	0.7320017
67	0xbf4401e0	-0.7656536
68	0xbe9dff1d	-0.30858698
69	0xbf4e387d	-0.80554944
70	0x3e7de573	0.24794559
71	0xbf1c420a	-0.6103827
72	0x3de3fc2a	0.11132081
73	0xbd8ad026	-0.067779824
74	0xbf52271f	-0.82090944
75	0x3e36a3e6	0.1783596
76	0xbd757bd4	-0.059932545
77	0xbe106030	-0.14099193
78	0x4029ad8c	2.6512175
79	0x3fbfbbb0	1.4979153
80	0x4002e460	2.045189
81	0xbeda3af1	-0.42623094
82	0x40703cf8	3.7537212
83	0xbf0c2770	-0.54747677
84	0xbe84e7f6	-0.25958222
85	0x3df7f7c8	0.121078074
86	0xbebb425d	-0.3657407
87	0xbd4e72f6	-0.050402604
88	0xbf02de86	-0.51120794
89	0x3d8f7c68	0.070061505
90	0x3d56c74b	0.052436154
91	0xbe806ee3	-0.250846
92	0xbf0f147f	-0.5589065
93	0xbf2c6dc5	-0.67354995
94	0x4007aa5e	2.1197734
95	0x3fab2f7a	1.3373864
96	0xbf269028	-0.65063715
97	0xbf52ae3d	-0.82297117
98	0xbee68a2f	-0.450273
99	0x3dff87cc	0.12477073
100	0xbf285c25	-0.657656
101	0xbf11390c	-0.5672767
102	0x3ef4a489	0.4778178
103	0x3cd3f0ea	0.025871713
104	0xbf259e4a	-0.64694655
105	0xbf2d57ba	-0.67711985
106	0xbf0cbdf7	-0.54977363
107	0x3ff22219	1.8916656
108	0xbd9f3ab5	-0.07774869
109	0xbae8f9d8	-0.0017774655
110	0x3d90e20c	0.07074365
111	0xbed5c827	-0.41754267
112	0xbf00e33f	-0.5034675
113	0xbf342fca	-0.7038542
114	0xbeee6399	-0.46560362
115	0xbea18c4e	-0.31552356
116	0xbe8680c7	-0.26270124
117	0xbeba971d	-0.36443415
118	0xbf52bd26	-0.8231987
119	0xbca2a690	-0.019854814
120	0xbf1dd9b3	-0.6166031
121	0xbeaa5162	-0.33265215
122	0xbf071e1b	-0.5278031
123	0xbefbee33	-0.4920517
124	0xbf20a28f	-0.62748045
125	0xbe8dfdc3	-0.27732667
126	0x3fcae006	1.5849617
127	0xbefadf59	-0.48998526
128	0xbf1095a5	-0.5647834
129	0xbeaeed1a	-0.3416527
130	0xbf303d3d	-0.6884344
131	0xbe83fbf3	-0.2577816
132	0x3ee2babd	0.44283095
133	0xbeaa4388	-0.33254647
134	0xbf03f59d	-0.5154665
135	0xbf22be96	-0.6357206
136	0x3daf084c	0.085465044
137	0x3d94a6b2	0.07258357
138	0xbf039a17	-0.51407
139	0x3fb580bd	1.4179913
140	0x3e969ebd	0.29417983
141	0xbf40601a	-0.7514664
142	0x3f80bfb2	1.0058501
143	0x3fcfc289	1.6231242
144	0x3fb6298f	1.4231433
145	0xbeaf46a4	-0.34233582
146	0xbd1ff423	-0.039051186
147	0xbf089202	-0.5334779
148	0x3ec14759	0.37749746
149	0x3d975c99	0.073907085
150	0xbf161236	-0.5862154
151	0x3c83e7b2	0.016101692
152	0xbee95c19	-0.45578077
153	0x3dde8c2a	0.10866578
154	0xbdd5255f	-0.104075186
155	0xbf6bc503	-0.9209749
156	0xbf0a1d13	-0.53950614
157	0xbef42368	-0.47683263
158	0x40036f4a	2.0536675
159	0x3fa39d69	1.2782413
160	0xbf521162	-0.82057774
161	0xbf12d451	-0.5735522
162	0xbec822e3	-0.39089116
163	0xbd0e2eeb	-0.034712713
164	0xbe9cfde8	-0.30662465
165	0xbf08d80d	-0.5345467
166	0x3f7f2fd5	0.9968236
167	0xbf15269d	-0.58262044
168	0xbf0334e0	-0.51252556
169	0xbf75fce7	-0.96089023
170	0xbeddeccd	-0.43344727
171	0x3fbccd91	1.4750234
172	0x3c7f1ef9	0.015571349
173	0xbd193e1c	-0.037412748
174	0xbd9296a4	-0.07157639
175	0xbeb5719f	-0.3543825
176	0xbeada2f0	-0.33913374
177	0xbf2828a0	-0.6568699
178	0xbf22df81	-0.6362229
179	0xbf1046e8	-0.56358194
180	0xbfa3e3b8	-1.2803869
181	0xbf0f6b35	-0.5602296
182	0xbf205a08	-0.62637377
183	0x3d290ee4	0.041273966
184	0xbec687c4	-0.38775456
185	0xbf0741cd	-0.5283478
186	0xbf2f75eb	-0.68539304
187	0x3d56314f	0.052293118
188	0xbf0f8bfb	-0.5607297
189	0xbea86ad0	-0.3289399
190	0x3fd6906d	1.6762825
191	0xbf0936dc	-0.53599334
192	0xbef5fd79	-0.48044947
193	0xbe254ba1	-0.16142131
194	0xbaaf5364	-0.0013376293
195	0xbf165ca0	-0.58735085
196	0xbe7b11b2	-0.24518469
197	0xbef70fb5	-0.4825417
198	0x3fe5327a	1.7906029
199	0xbf3fd44a	-0.749333
200	0x3c934750	0.01797834
201	0xbcb2c406	-0.021821987
202	0xbf0f95f1	-0.5608817
203	0x3f4dd848	0.80408144
204	0xbeb8029d	-0.35939494
205	0xbfc31b44	-1.5242696
206	0x4011569d	2.2709115
207	0x3fec591f	1.8464698
208	0x400a5b71	2.1618311
209	0xbe8a83f4	-0.27053797
210	0x40390eb3	2.8915222
211	0xbf045e02	-0.51705945
212	0xbe720312	-0.23633984
213	0xbda8df9c	-0.08245775
214	0xbee7e66c	-0.45292985
215	0x3b4f2d40	0.0031612664
216	0xbed43008	-0.41442895
217	0x3da313df	0.079627745
218	0xbd7e063e	-0.06201767
219	0xbf407689	-0.7518087
220	0xbf048fd7	-0.5178198
221	0xbf377578	-0.7166362
222	0x401b1d26	2.423654
223	0x3f9c227f	1.2198027
224	0xbef04044	-0.4692403
225	0xbecd7a7c	-0.4013251
226	0xbf1649a1	-0.587061
227	0xbd9b61a4	-0.07586983
228	0xbecde78b	-0.40215716
229	0xbee0ed09	-0.43930843
230	0x3e490724	0.1963163
231	0xbf3cefc4	-0.73803353
232	0xbec8f62d	-0.39250317
233	0xbf0d316c	-0.55153537
234	0xbe8185f5	-0.25297514
235	0x3fae9616	1.3639553
236	0x3db1e9b6	0.08687155
237	0xbd8843ff	-0.06653594
238	0x3d605b1b	0.054774385
239	0xbee7ed6a	-0.4529832
240	0xbefb119a	-0.49036866
241	0xbed4f773	-0.4159504
242	0xbf0d80f2	-0.5527488
243	0xbec8d5d1	-0.3922563
244	0xbf0ac8f3	-0.54212874
245	0xbea640c5	-0.3247129
246	0xbf5f1668	-0.87143564
247	0x3c76c040	0.015060484
248	0xbea122c0	-0.31471825
249	0xbf2a954e	-0.6663407
250	0xbf1802ad	-0.5937908
251	0xbf0d8c5b	-0.5529229
252	0xbedb8f10	-0.42882586
253	0xbf2b5cd1	-0.669385
254	0x3fb8a3d2	1.4424994
255	0xbecdaccf	-0.40170905

fcl3.bias f4 [4]
0	0x3e450602	0.19240573
1	0x3e81b6ff	0.25334927
2	0x3ec2f2dd	0.38075915
3	0xbe9bc5f9	-0.3042448
