dqn/exercise/double_DQN/checkpoint.pth (torch_old, 38582 bytes, 6 tensors)

fcl1.weight f4 [64, 8]
0	0x3e0eb2cc	0.13935393
1	0xbe8a5176	-0.27015275
2	0xbe936c24	-0.28793442
3	0xbf3a5dd8	-0.72799444
4	0x3d45875b	0.04822479
5	0x3d185d5e	0.037198417
6	0x3d8a213f	0.067446224
7	0x3cc37bc5	0.023862729
8	0x3db32c71	0.08748711
9	0xbd931eb0	-0.071835876
10	0x3e7f407b	0.24926941
11	0xbde72f32	-0.11288299
12	0xbf19d510	-0.6009073
13	0xbf33e1ef	-0.7026662
14	0xbf555981	-0.833397
15	0x3eef6da6	0.46763343
16	0x3d460dc1	0.04835296
17	0xbd8a4596	-0.06751554
18	0xbf45f875	-0.7733224
19	0x3f433f0c	0.76268077
20	0x3f0b1347	0.5432629
21	0x3f48958a	0.7835318
22	0x3e10bd29	0.14134659
23	0x3e73ae17	0.23796879
24	0xbe4db83a	-0.20089808
25	0xbef9e86d	-0.4881014
26	0x3f35c0d1	0.7099734
27	0x3efc7d2f	0.49314258
28	0xbef13d82	-0.4711724
29	0xbd4560c6	-0.048187993
30	0x3e1836eb	0.148647
31	0x3eae6393	0.34060344
32	0x3d02a9dd	0.031900275
33	0x3c82e2ae	0.01597723
34	0xbe9c4c46	-0.30526942
35	0xbe6f3832	-0.2336128
36	0x3e626cdc	0.22111839
37	0x3e58381d	0.21115156
38	0x3e8f980b	0.28045687
39	0x3ea8c8e3	0.32965764
40	0xbd8061f4	-0.06268683
41	0xbdef2d25	-0.116785325
42	0x3e8cbf90	0.274899
43	0xbe3c9b40	-0.18418598
44	0xbeeae068	-0.45874333
45	0x3cdafc2c	0.026731573
46	0x3eb38790	0.35064363
47	0x3e6a723b	0.22895138
48	0xbdadbc98	-0.08483237
49	0xbf2797e9	-0.6546617
50	0x3ebf7af5	0.37398496
51	0x3fb756b8	1.432334
52	0x3cc69b00	0.024243832
53	0xbe537f62	-0.20654061
54	0x3eceb666	0.40373534
55	0x3c2e381a	0.010633493
56	0xbe22af93	-0.15887289
57	0xbf6bcd98	-0.92110586
58	0xbe6335c2	-0.22188476
59	0xbf12e655	-0.5738271
60	0x3ed2b143	0.41150865
61	0x3de529aa	0.111895874
62	0xbeb838e7	-0.35980913
63	0xbceb6603	-0.028735166
64	0x3d7698e9	0.06020442
65	0xbe53be9b	-0.20678179
66	0x3e2ce7cf	0.16885303
67	0xbe47b901	-0.19504167
68	0x3e5babc2	0.21452239
69	0x3f3be49d	0.7339571
70	0xbed9901a	-0.42492753
71	0xbe9dc0cc	-0.30811155
72	0x3dd04179	0.10168738
73	0x3db1c7a3	0.08680656
74	0x3f5b504e	0.8566941
75	0x3dff3dd3	0.12462964
76	0xbf4be6ec	-0.79649234
77	0xbf2a6df9	-0.66574055
78	0xbeb8fe6a	-0.36131603
79	0xbe474696	-0.1946052
80	0xbec1a796	-0.3782317
81	0x3f42c5eb	0.7608325
82	0x3f0f638a	0.5601126
83	0xbfa53da6	-1.2909439
84	0x3e939dd3	0.28831348
85	0x3e7188bb	0.23587315
86	0x3e9c5299	0.30531767
87	0xbeaed8b9	-0.3414972
88	0xbd862b9a	-0.06551285
89	0x3c84f8b2	0.016231868
90	0xbdb9569b	-0.09049722
91	0xbee5c458	-0.4487636
92	0x3e8fc9c5	0.28083625
93	0x3eb1608c	0.34643972
94	0xbea78cb6	-0.3272454
95	0xbf36650c	-0.71247935
96	0x3df2a29b	0.11847421
97	0x3e0b88b9	0.13626374
98	0x3dcb0af6	0.099142
99	0xbe3ff9e1	-0.18747665
100	0xbe7433e8	-0.23847926
101	0x3f6d213f	0.92628855
102	0x3eb4851b	0.352578
103	0xbf35d374	-0.71025777
104	0xbed5355b	-0.4164227
105	0xbef417fa	-0.47674543
106	0xbef4f916	-0.47846287
107	0xbf0ce22a	-0.550326
108	0x3f32d8fe	0.69862354
109	0x3e72f79a	0.23727265
110	0xbe915bdd	-0.283904
111	0x3dabcede	0.08389066
112	0xbeb69e51	-0.3566766
113	0x3f5331a3	0.82497615
114	0x3ebb8cbe	0.36630815
115	0xbf866a84	-1.0501256
116	0x3d06c4d4	0.032902554
117	0x3e9897cd	0.29803315
118	0x3edcc880	0.4312172
119	0x3d2c74da	0.042103626
120	0x3d692f59	0.05692992
121	0xbe104ebe	-0.14092538
122	0xbfff0555	-1.9923502
123	0xbee3bee6	-0.4448158
124	0xbee33f65	-0.44384304
125	0x3e289e13	0.1646655
126	0x3e986551	0.29764798
127	0x3e64d672	0.2234743
128	0xbe13f7d1	-0.14450003
129	0xbe0ef3cd	-0.1396019
130	0x3d7cbac4	0.06170155
131	0xbe626781	-0.22109796
132	0xbeef124d	-0.4669365
133	0x3dc54733	0.09632721
134	0x3ec01356	0.37514752
135	0xbe1c9668	-0.1529175
136	0x3de24c5b	0.1104972
137	0xbc70c252	-0.014694767
138	0xbe0459ce	-0.12924883
139	0x3f17092a	0.5899836
140	0x3f0de1a9	0.55422455
141	0x3f0de9e2	0.55435
142	0x3f30368f	0.6883325
143	0xbe056c74	-0.13029653
144	0xbe12a9cc	-0.14322585
145	0xbf22274b	-0.63341206
146	0x3f6eb2c5	0.9324153
147	0x3f97135a	1.1802781
148	0xbf0ef93f	-0.5584907
149	0xbf22bd5b	-0.63570184
150	0xbe69a91f	-0.22818421
151	0xbe187462	-0.14888147
152	0xbe05fcc9	-0.13084711
153	0x3f24316f	0.6413793
154	0x3e85470f	0.26030776
155	0xbf8dcae5	-1.1077543
156	0x3ea3d669	0.3199952
157	0xbdc1a8c5	-0.09456018
158	0x3dfdee91	0.123990186
159	0xbe84ca90	-0.25935793
160	0xbeb70181	-0.35743335
161	0xbe9a43fb	-0.3012999
162	0xbf4534d8	-0.7703376
163	0xbf2d0927	-0.6759209
164	0x3edf3420	0.43594456
165	0xbe1c52a6	-0.15265903
166	0xbe1f7968	-0.15573657
167	0xbe304360	-0.17213202
168	0x3ee8b3c1	0.4544964
169	0xbf00d9be	-0.5033225
170	0x3f8e0512	1.1095297
171	0xbe9b0d19	-0.3028343
172	0x3e0b3e26	0.13597926
173	0x3e0dd791	0.13851763
174	0xbe7eb932	-0.24875334
175	0x3de868ee	0.11348139
176	0x3c1a4936	0.009416869
177	0xbe89ad24	-0.26889908
178	0x3eea78be	0.45795244
179	0xbdcc6fc2	-0.099822536
180	0xbe04d638	-0.12972343
181	0xbd22374e	-0.039603524
182	0x3ee71824	0.45135605
183	0x3e7c8bdc	0.24662727
184	0x3d5b6b80	0.053569317
185	0xbe4e9b8c	-0.20176524
186	0xbebb9786	-0.3663904
187	0xbf81788a	-1.0114911
188	0xbe0b1bd4	-0.13584834
189	0xbcc96d91	-0.024588378
190	0x3e427094	0.18988258
191	0x3e843bbf	0.25826833
192	0xbf442e97	-0.7663359
193	0xbec0c830	-0.3765273
194	0xbef0da51	-0.47041562
195	0xbf50b48b	-0.81525487
196	0x3d0ef7b3	0.034904193
197	0xbe50be16	-0.20385012
198	0x3cc7516a	0.024330813
199	0xbd50813f	-0.05090451
200	0x3e3d92da	0.1851305
201	0xbe6584df	-0.22413968
202	0x3e764a58	0.24051797
203	0xbec1a374	-0.37820017
204	0x3be63682	0.007025541
205	0x3d364e41	0.044508222
206	0x3dbec177	0.09314244
207	0x3f0db316	0.5535139
208	0x3e096097	0.13415752
209	0xbd9532f1	-0.07285107
210	0x3e7537ab	0.23947017
211	0xbe723857	-0.23654304
212	0xbe6c7d12	-0.23094586
213	0x3e006130	0.12537074
214	0x3e07ee11	0.13274409
215	0x3d64848f	0.05579048
216	0x3e2d7e1e	0.16942641
217	0xbe90ea6a	-0.28303844
218	0x3f099e69	0.5375734
219	0xbf462518	-0.7740035
220	0x3ebf99a2	0.374219
221	0x3ea573f9	0.32315043
222	0x3dedf2f7	0.116186075
223	0xbcb6d0e7	-0.02231641
224	0xbf83e462	-1.0304072
225	0xbef5ca87	-0.4800608
226	0xbef30810	-0.4746709
227	0x3dcd9acf	0.10039293
228	0x3bb14d6a	0.00541084
229	0xbefa581a	-0.4889534
230	0x3e434cc7	0.19072257
231	0xbd3f8d45	-0.046765584
232	0x3c21b1be	0.009869037
233	0x3f2478a1	0.64246565
234	0x3e9cceff	0.30626675
235	0xbfb5c9b0	-1.4202175
236	0x3ee134f6	0.43985718
237	0x3c5a7f8e	0.0133360755
238	0x3b69c9c0	0.003567323
239	0xbda83a98	-0.08214301
240	0x3dae6312	0.0851499
241	0xbe2d5978	-0.16928661
242	0xbe879382	-0.26479727
243	0x3f961d8c	1.1727767
244	0xbdea03b7	-0.1142649
245	0xbf8a3e3a	-1.080024
246	0x3e8d6401	0.2761536
247	0x3e00f58a	0.12593666
248	0x3d850e81	0.06496907
249	0x3dc301f0	0.09521854
250	0x3dcd2011	0.10015882
251	0xbe4deae9	-0.20109142
252	0x3fecdfc0	1.8505783
253	0xbe315be3	-0.17320208
254	0xbdfec249	-0.12439401
255	0xbe006d0f	-0.12541603

fcl1.bias f4 [64]
0	0xbed57407	-0.41690084
1	0xbe12d33f	-0.14338396
2	0xbe311bb5	-0.17295726
3	0xbe09b046	-0.13446149
4	0xbe407348	-0.18793976
5	0xbdcfdd89	-0.10149676
6	0x3eb51f82	0.353756
7	0xbea7a2cb	-0.3274139
8	0x3eadcfd4	0.33947623
9	0x3e6cf3a6	0.2313982
10	0x3f1bdd78	0.6088481
11	0x3dc2ef7a	0.09518333
12	0xbed46332	-0.4148193
13	0xbe8a7bf0	-0.27047682
14	0x3f323752	0.6961566
15	0x3cde9625	0.027171204
16	0xbe18610d	-0.14880772
17	0xbe84506a	-0.258426
18	0x3ec44c58	0.38339496
19	0x3f184d4c	0.59492946
20	0xbe84f6f7	-0.2596967
21	0xbe24a3af	-0.16078065
22	0xbe4193df	-0.18904065
23	0xbe74e38b	-0.23914926
24	0xbd42a9fd	-0.047525395
25	0xbe4506f8	-0.1924094
26	0xbe5738ee	-0.2101781
27	0xbc999bab	-0.018750986
28	0xbe3ded66	-0.18547592
29	0x3eae650f	0.34061477
30	0xbe60bea9	-0.21947731
31	0xbdb14ad9	-0.08656854
32	0xbe4471ea	-0.1918408
33	0x3eef7756	0.46770734
34	0xbeb84b1d	-0.35994807
35	0x3e83b55e	0.2572431
36	0x3e3cbfd4	0.18432552
37	0xbe02d004	-0.12774664
38	0xbeabbe97	-0.33543846
39	0x3c316277	0.0108266985
40	0x3dcdc00b	0.10046395
41	0xbee37108	-0.44422174
42	0x3e3fe504	0.18739706
43	0x3ed41557	0.4142253
44	0xbe039cee	-0.12852833
45	0xbe32baf9	-0.17454137
46	0x3f521af9	0.82072407
47	0x3e84a7d5	0.25909296
48	0x3e0c50db	0.13702719
49	0xbd56582e	-0.05233019
50	0x3c58627c	0.013207074
51	0xbc2d09f6	-0.010561457
52	0x3d9964eb	0.07489952
53	0x3e1590ce	0.1460602
54	0xbe21972d	-0.15780325
55	0xbd838373	-0.06421556
56	0x3c9950a8	0.018715218
57	0x3e1cda8f	0.15317748
58	0xbdcead98	-0.10091704
59	0xbe505844	-0.2034617
60	0xbe3e5bc6	-0.18589696
61	0xbd5479c9	-0.051873956
62	0x3e84c375	0.25930372
63	0x3e9f42fe	0.31105798

fcl2.weight f4 [128, 64]
0	0x3e4224a9	0.18959297
1	0x3de2aa4c	0.11067638
2	0x3e3c7b1b	0.18406336
3	0x3e887fa7	0.2665989
4	0x3d745ab3	0.05965681
5	0x3d477742	0.048697717
6	0xbf1b3f3e	-0.60643375
7	0x3e8f3fb1	0.2797828
8	0x3eb52bcb	0.35384974
9	0x3dc09057	0.09402531
10	0x3d5cf387	0.053943183
11	0x3eb9d04a	0.36291724
12	0x3f0b0738	0.5430789
13	0x3eba280f	0.36358687
14	0x3d4775c2	0.048696287
15	0xbf5ce095	-0.86280185
16	0x3cc5c2b7	0.024140699
17	0x3f0decba	0.5543934
18	0x3e4463b2	0.19178656
19	0x3d5a113d	0.053239096
20	0x3da3b1c8	0.079928935
21	0x3f2e4ffc	0.68090796
22	0x3ecc39f0	0.39887953
23	0x3df9cda7	0.12197428
24	0x3ef81285	0.4845163
25	0x3da1e84e	0.07905637
26	0x3d652491	0.055943076
27	0x3e559bba	0.20860186
28	0x3e94fe36	0.29100198
29	0xbd38b736	-0.0450966
30	0x3e4e1931	0.20126797
31	0xbf116dcd	-0.5680817
32	0x3d59d1b9	0.053178523
33	0x3e500a34	0.20316392
34	0x3e2c9105	0.16852196
35	0x3e78a48c	0.2428152
36	0x3ef16e5f	0.4715452
37	0x3e8fc44c	0.2807945
38	0x3d359d30	0.04433936
39	0x3e271cd5	0.16319592
40	0x3e3e9380	0.18610954
41	0x3e17e38d	0.14832897
42	0x3e5c2f30	0.21502376
43	0xbd054b6e	-0.03254264
44	0xbfaf1b74	-1.3680253
45	0x3eb15264	0.34633172
46	0x3c25805b	0.010101403
47	0xbd95e55b	-0.07319137
48	0x3eee320d	0.4652256
49	0xbea89a19	-0.32930067
50	0x3eaedd76	0.34153336
51	0x3d19ed0d	0.037579585
52	0x3e74b193	0.23895864
53	0xbf2e746f	-0.68146414
54	0x3def1a7e	0.11674975
55	0xbea1995b	-0.31562313
56	0x3ddbe9bc	0.10737941
57	0x3e6b1659	0.22957744
58	0xbd661622	-0.05617345
59	0x3f1f7297	0.62284225
60	0x3d9256d3	0.07145467
61	0x3e6c12f7	0.2305411
62	0xbe1b242d	-0.15150519
63	0xbdd65ec5	-0.104672946
64	0x3e294be3	0.16532855
65	0x3e514110	0.20434976
66	0xbec218c4	-0.3790952
67	0xbd3f9da9	-0.046781216
68	0xbce1fe84	-0.027587183
69	0x3dae74f3	0.085184
70	0xc030a777	-2.7602212
71	0x3ecc9b27	0.39962122
72	0x3e4d2ab1	0.20035817
73	0xbdeb3e03	-0.11486437
74	0x3e500240	0.20313358
75	0xbccf6210	-0.025315315
76	0x3ef7c3c4	0.48391545
77	0x3ec04c43	0.37558183
78	0xbb9d4e2f	-0.00480058
79	0xbf13d09a	-0.57740176
80	0x3b3b0c89	0.0028541407
81	0x3f2072e5	0.62675315
82	0xbf912356	-1.1338909
83	0x3db3b507	0.087747626
84	0x3f3fc77e	0.74913776
85	0x3e771229	0.24128021
86	0x3eed1b17	0.4630973
87	0xbe5d9dba	-0.21642199
88	0x3ea60258	0.32423663
89	0x3e2a021a	0.16602364
90	0x3eb1c1a5	0.34718052
91	0x3da6e75e	0.081495985
92	0x3e3e3309	0.18574156
93	0x3e2870e9	0.16449322
94	0x3e968cc9	0.29404286
95	0xbf0483af	-0.51763433
96	0x3e6abcb7	0.22923551
97	0x3e85b626	0.2611553
98	0x3ec461ea	0.38355953
99	0x3e372f43	0.17889123
100	0x3e931a1b	0.28730854
101	0xbddb3ef3	-0.10705366
102	0x3daf4fca	0.085601404
103	0xbde6f163	-0.112765096
104	0x3bfc8ce6	0.007707226
105	0x3e09d637	0.13460623
106	0xbe265afc	-0.16245645
107	0xbd45168d	-0.04811721
108	0xbe9e1b1e	-0.30880064
109	0x3f09dae1	0.5384961
110	0x3e124350	0.1428349
111	0xbef21caf	-0.4728751
112	0x3f356d3f	0.7086982
113	0xbf1c178c	-0.6097343
114	0x3eab2ed8	0.33434176
115	0xbe91dbbf	-0.28487965
116	0x3f0abba5	0.5419257
117	0x3d5a1aa4	0.053248063
118	0x3ee831e8	0.45350575
119	0xbe8c6dd0	-0.2742753
120	0xbeabbd40	-0.33542824
121	0xbdfac234	-0.122440726
122	0xbf6ac4a4	-0.917063
123	0x3d1407af	0.03614014
124	0x3e390f42	0.18072227
125	0x3e9f2a89	0.3108714
126	0xbf2bcf66	-0.6711334
127	0xbe099ac7	-0.13437949
128	0x3e242e62	0.16033319
129	0x3ec0dd4a	0.3766883
130	0x3df49e9e	0.11944316
131	0x3e8df077	0.27722523
132	0xbcb2d64d	-0.021830702
133	0x3e445c46	0.19175825
134	0xbecf28f4	-0.40460932
135	0x3e5da7e9	0.21646084
136	0xbe8495e1	-0.258956
137	0x3e3b4e3f	0.18291567
138	0x3d12e811	0.035865847
139	0xbdb4080a	-0.08790596
140	0x3e45fd39	0.19334878
141	0x3ebc1743	0.36736497
142	0x3d21a4dc	0.039463863
143	0x3dc6fc4d	0.09716091
144	0x3e80511c	0.25061882
145	0x3d381966	0.044946097
146	0x3d786899	0.060646627
147	0xbe7fee78	-0.24993312
148	0x3e2a3bc1	0.16624357
149	0x3f1e0b0f	0.61735624
150	0x3eb1d548	0.34733033
151	0xbe1c7246	-0.15277967
152	0x3f5d0011	0.86328226
153	0x3d18d1ef	0.037309583
154	0x3d982911	0.07429708
155	0x3cb969c4	0.02263344
156	0x3f1b02fd	0.60551435
157	0xbdf11614	-0.11771789
158	0x3d72e788	0.059302837
159	0xbe48009d	-0.19531484
160	0x3d5a6f7a	0.05332897
161	0xbe9a7476	-0.30166978
162	0x3ecc5d5d	0.3991498
163	0x3ed650b3	0.41858444
164	0x3e62ead7	0.22159897
165	0x3eb63384	0.35586178
166	0x3dcaf7cc	0.09910545
167	0x3f008672	0.5020515
168	0x3d9346e3	0.07191255
169	0x3e91c24b	0.28468546
170	0x3d9ee05c	0.07757637
171	0xbf075067	-0.5285706
172	0xbf802012	-1.0009787
173	0x3ee7f767	0.4530594
174	0xbe5927bb	-0.21206562
175	0xbdc5c3f3	-0.09656515
176	0x3f46f549	0.77718025
177	0x3e86e366	0.26345366
178	0x3e147a15	0.14499696
179	0x3efe3807	0.4965212
180	0x3eb2292a	0.3479703
181	0x3d834d5a	0.06411238
182	0xbc3331fa	-0.010937208
183	0xbf065b2f	-0.52482885
184	0x3dcf2592	0.10114588
185	0x3ea1fef5	0.3163983
186	0x3cafaa91	0.021443637
187	0x3f58eb36	0.84733903
188	0xbc065a4a	-0.0082002375
189	0x3f063381	0.5242234
190	0x3bd268eb	0.0064211986
191	0xbd34d0ad	-0.04414432
192	0x3e46049f	0.193377
193	0x3ebbe63f	0.366991
194	0x3e6d9634	0.23201829
195	0x3d9da849	0.076981135
196	0x3e10e2e1	0.14149047
197	0x3e3a25d3	0.18178491
198	0xbedad1a8	-0.4273808
199	0x3e2d5bed	0.16929598
200	0x3c482d81	0.01221788
201	0x3e884775	0.26617017
202	0x3dfc3b08	0.12315947
203	0xbe1436b5	-0.14473994
204	0x3e42763d	0.18990417
205	0x3ec84a60	0.39119244
206	0x3d33b677	0.043875184
207	0xbe6085b7	-0.21926008
208	0x3c5c32d9	0.013439857
209	0x3e26d4b9	0.16292085
210	0x3db18ac5	0.08669046
211	0xbe604e80	-0.21904945
212	0x3e7ee4da	0.24891987
213	0x3f1a850d	0.6035927
214	0x3e784ede	0.24248835
215	0x3d04da7c	0.032434925
216	0x3f5f6035	0.87256175
217	0x3e13b234	0.14423448
218	0xbc087705	-0.008329158
219	0xbb87198f	-0.00412292
220	0x3ece98f0	0.40351057
221	0xbe16db69	-0.14732136
222	0x3d9ded9b	0.07711335
223	0xbe8f1db2	-0.27952343
224	0x3e251ed9	0.16125049
225	0xbebbfd90	-0.3671689
226	0x3eccba4a	0.39985877
227	0x3eca77c4	0.395445
228	0x3e9dda44	0.30830586
229	0x3f08e00f	0.53466886
230	0x3dfe9006	0.12429814
231	0x3f13d81b	0.57751626
232	0x3de166f0	0.11005962
233	0x3e1664d3	0.14686899
234	0xbdaf5faf	-0.08563172
235	0xbef53680	-0.47893143
236	0xbf78bab5	-0.9715989
237	0x3e8da4b9	0.27664736
238	0xbe1a854d	-0.15089913
239	0xbd5d5679	-0.054037545
240	0x3f11470f	0.5674905
241	0x3e9d806e	0.30762047
242	0x3da8d054	0.082428604
243	0x3f26a350	0.65092945
244	0x3f1703f0	0.58990383
245	0x3c8ba500	0.017046452
246	0x3cc00a4d	0.023442412
247	0xbf3300f1	-0.6992331
248	0x3e1641b4	0.14673501
249	0x3ea3af06	0.3196947
250	0x3dbc5bc0	0.091971874
251	0x3f375840	0.71619034
252	0xbd862b3d	-0.06551216
253	0x3efe44e8	0.49661946
254	0x3e01676e	0.12637112
255	0xbd0b8c63	-0.03406943

fcl2.bias f4 [128]
0	0x3e23921a	0.15973702
1	0x3d39fdb0	0.04540795
2	0xbd4cbdfc	-0.04998587
3	0xbd97135e	-0.07376741
4	0x3dc2528e	0.09488402
5	0x3d9ffe3e	0.07812165
6	0x3f064a26	0.5245689
7	0x3d2af9c4	0.0417421
8	0x3f1d2679	0.6138683
9	0xbda20069	-0.079102345
10	0x3e9a240e	0.30105633
11	0x3e2c2cdf	0.16813992
12	0x3e354864	0.17703396
13	0x3e025b79	0.12730207
14	0x3d2c0d3b	0.042004805
15	0xbd2ec4a3	-0.042667996
16	0xbe730d16	-0.2373546
17	0x3e572360	0.21009588
18	0x3e2313e6	0.1592556
19	0xbce2dfc8	-0.027694598
20	0xbd3b4cd0	-0.04572755
21	0x3d9eafdd	0.07748387
22	0x3dd4cc4c	0.10390529
23	0x3e9fbac5	0.3119718
24	0x3d0aa515	0.03384884
25	0xbdb7c828	-0.08973724
26	0x3e39f8cf	0.18161319
27	0x3e744080	0.2385273
28	0xbebaf661	-0.36516097
29	0x3cd65483	0.026163345
30	0xbe43be97	-0.19115673
31	0x3ec21a99	0.37910917
32	0xbe3d5a94	-0.18491584
33	0x3dfd5617	0.12369936
34	0x3e06ea05	0.13175209
35	0x3d11ddd2	0.035611935
36	0x3e109308	0.14118588
37	0x3e45c880	0.19314766
38	0x3e36abab	0.17838924
39	0x3dd56ed2	0.10421528
40	0x3bd176c7	0.006392333
41	0x3f116f49	0.5681043
42	0x3e1e5a6c	0.1546418
43	0x3e158c65	0.14604338
44	0xbc96098e	-0.018315103
45	0x3dcabfbc	0.09899852
46	0xbe0d1e6d	-0.13781138
47	0xbd81924c	-0.06326732
48	0xbd930ef2	-0.07180585
49	0x3e07524e	0.1321499
50	0xbd6e50c8	-0.058182508
51	0xbd3184d4	-0.043339565
52	0x3e65b2f6	0.2243155
53	0x3f309d23	0.6898977
54	0x3ebf098d	0.37311974
55	0x3e4f70ee	0.20257923
56	0x3df7156c	0.12064633
57	0xbdde901c	-0.108673304
58	0x3e23d4ec	0.15999192
59	0x3ea63390	0.32461214
60	0x3f125c07	0.5717167
61	0x3d14b43d	0.0363047
62	0xbdf6444b	-0.120247446
63	0x3bb3bd32	0.0054852003
64	0x3e19f6ff	0.15035628
65	0x3e55c371	0.20875336
66	0x3f194667	0.5987305
67	0xbd9cd84f	-0.07658445
68	0x3e3683b1	0.17823674
69	0xbdb1dc19	-0.086845584
70	0x3da70b8d	0.081565
71	0x3e09f078	0.13470638
72	0x3e0f5a9f	0.13999413
73	0x3d9972b3	0.0749258
74	0x3ef41718	0.4767387
75	0x3db4528c	0.08804807
76	0x3e03c6a1	0.1286874
77	0x3d3043d1	0.043033425
78	0x3f0d0605	0.5508731
79	0xbc9c7a5e	-0.019101318
80	0xbd7e9b61	-0.0621599
81	0x3e153df5	0.14574416
82	0x3de3879a	0.11109848
83	0x3e43ba30	0.19113994
84	0x3e5f326d	0.2179658
85	0xbd079163	-0.033097636
86	0x3e2b6fa1	0.16741802
87	0xbdba1b34	-0.0908722
88	0x3e29aa0f	0.16568778
89	0xbe0b4f9a	-0.13604584
90	0xbe048030	-0.12939525
91	0x3ebf90e3	0.37415227
92	0x3e5bc813	0.21463041
93	0x3eaf8946	0.3428442
94	0x3e298d2c	0.16557759
95	0x3ea4daf8	0.3219831
96	0x3d029ea6	0.03188958
97	0x3da1736b	0.07883342
98	0x3e8ca142	0.2746678
99	0x3d05724b	0.0325797
100	0x3c35010d	0.011047614
101	0x3e1474d6	0.14497694
102	0x3f1d854c	0.6153152
103	0x3d5ad6cc	0.053427503
104	0x3b801016	0.0039081676
105	0x3db9ffee	0.09082018
106	0x3e3bfbca	0.18357769
107	0x3e639843	0.22226052
108	0xbdd9b3e8	-0.106300175
109	0x3e242bad	0.16032286
110	0x3f32cb9e	0.69841945
111	0xbd43301b	-0.0476533
112	0x3c3eb649	0.01164014
113	0x3e750398	0.23927152
114	0x3a963b78	0.0011461815
115	0x3da24f7f	0.07925319
116	0x3e2bc6b3	0.16775016
117	0x3df60e57	0.12014454
118	0x3e0a63f2	0.13514689
119	0xbce96e56	-0.028494995
120	0x3eb8f3d6	0.36123532
121	0x3cd1824e	0.02557483
122	0x3e833fef	0.25634715
123	0x3e51a886	0.20474443
124	0x3f1be083	0.6088945
125	0x3dc5a2e1	0.09650207
126	0x3ea1efdd	0.31628314
127	0x3e2865c8	0.16445076

fcl3.weight f4 [4, 128]
0	0xbe680cba	-0.22661105
1	0x3e99ca45	0.30037132
2	0xbe80b2d4	-0.25136435
3	0xbedb993a	-0.4289034
4	0xbe496967	-0.19669114
5	0xbe0ef26e	-0.13959667
6	0xbf8c9af9	-1.0984794
7	0xbdef3f87	-0.11682039
8	0x3f8a9c1b	1.082889
9	0xbda02953	-0.07820382
10	0x3e5032b0	0.20331836
11	0x3ec7830f	0.38967177
12	0xbea4dc85	-0.32199493
13	0xbf26bf27	-0.65135425
14	0xbe960c3d	-0.29306212
15	0x3f18e773	0.59728163
16	0xbe3d09d3	-0.18460779
17	0xbe31f952	-0.17380264
18	0xbe1e4edd	-0.15459771
19	0xbdfc0eea	-0.12307532
20	0xbdb4ac52	-0.0882193
21	0xbe906ce5	-0.2820808
22	0xbe1aba19	-0.15110053
23	0xbea547a7	-0.3228123
24	0x3c92f69c	0.017939858
25	0x3f29ce50	0.6633043
26	0xbe4a5eab	-0.19762675
27	0xbe804687	-0.25053808
28	0xbe66d0a1	-0.22540523
29	0xbe31c082	-0.17358592
30	0xbf6e877d	-0.9317549
31	0x3fb64e94	1.424273
32	0xbe830399	-0.25588682
33	0xbeddb4d5	-0.43302026
34	0xbe8e5119	-0.27796248
35	0xbd7233b7	-0.05913135
36	0xbe8348af	-0.2564139
37	0xbe826475	-0.25467268
38	0xbe14d5ba	-0.14534655
39	0xbea1c935	-0.3159882
40	0x3fd2cf31	1.646948
41	0x404676f8	3.1010113
42	0xbe4e8011	-0.20166041
43	0xbe51a305	-0.20472343
44	0x4037ee86	2.8739333
45	0xbd93f63b	-0.07224699
46	0xbdb48da4	-0.08816078
47	0xbc544fa0	-0.012958437
48	0xbe60b291	-0.21943118
49	0xbe6b5c1b	-0.22984354
50	0xbab217c2	-0.0013587403
51	0x3df6c078	0.12048429
52	0xbd379410	-0.044818938
53	0xbe9cde3f	-0.3063831
54	0xbd8b8ac6	-0.06813578
55	0xbeaaa6c5	-0.3333036
56	0xbe45c721	-0.19314243
57	0x3cb89823	0.022533482
58	0xbe1760ec	-0.14783067
59	0xbe880d26	-0.2657253
60	0x3f667856	0.9002737
61	0xbe81ffcd	-0.25390473
62	0xbcf890c3	-0.030342465
63	0xbe9d6ad4	-0.30745566
64	0x3da3016d	0.07959256
65	0xbe98873c	-0.29790676
66	0x3f6a86b2	0.9161178
67	0xbd31beaf	-0.04339474
68	0x3fd20573	1.6407913
69	0x3ccc3539	0.024927722
70	0xbeceb5da	-0.40373117
71	0xbe28f6c8	-0.1650039
72	0x3ddc0acc	0.10744247
73	0x3ee38d89	0.4444392
74	0xbe54f4c0	-0.2079649
75	0xbe5d1425	-0.21589716
76	0xbe9b3567	-0.3031418
77	0xbf92bc1d	-1.1463658
78	0xbf79e9f7	-0.9762263
79	0x3f2b8e23	0.6701376
80	0xbeb2f444	-0.34951985
81	0xbdef1afa	-0.11675067
82	0xbeaa9cbe	-0.3332271
83	0xbe0e7b5c	-0.13914245
84	0xbd820af5	-0.06349746
85	0xbe94d9d7	-0.2907245
86	0xbe495a23	-0.1966329
87	0xbcf4c192	-0.029877458
88	0xbe9959df	-0.2995138
89	0xbe8ccbef	-0.2749934
90	0x3b1f195d	0.0024276592
91	0x3ee3db1a	0.445031
92	0xbe6077bf	-0.2192068
93	0x3f16d450	0.58917713
94	0xbe42d2ff	-0.19025801
95	0xbf48e4b0	-0.7847395
96	0xbe895575	-0.2682301
97	0xbe833c4c	-0.2563194
98	0xbe3e66f4	-0.18593961
99	0xbee0ceae	-0.43907684
100	0xbdfb384c	-0.12266597
101	0xbea3d953	-0.32001743
102	0x3f4c6596	0.7984251
103	0xbe366664	-0.17812496
104	0xbcf0bd8e	-0.029387262
105	0xbe33c58b	-0.17555825
106	0xbe92a228	-0.2863934
107	0xbe91a5d5	-0.28446832
108	0xbf2b536d	-0.6692417
109	0xbe390602	-0.18068698
110	0x3f29f55e	0.66390026
111	0x3d4effbe	0.050536864
112	0xbe805c7a	-0.25070554
113	0xbe3e22e1	-0.18567993
114	0x3d02240b	0.031772655
115	0xbe6760c6	-0.2259551
116	0x3fb9102a	1.4458058
117	0x3eb7e0f9	0.35913828
118	0xbe737424	-0.23774773
119	0x3ccdc748	0.025119439
120	0x3fb5323b	1.4155954
121	0x3f3539ba	0.7079121
122	0x3e7b4a0d	0.24539967
123	0x3e401f02	0.18761829
124	0x3f163db4	0.586879
125	0xbf651f69	-0.89501053
126	0xbf8b7b16	-1.0896938
127	0xbea2d677	-0.3180425
128	0xbe77cf4b	-0.2420017
129	0x3f40a662	0.7525388
130	0xbe899e07	-0.26878378
131	0xbe9cd09b	-0.30627903
132	0xbe988325	-0.29787555
133	0xbe799506	-0.24373254
134	0xbf474e7f	-0.7785415
135	0xbe9d08c3	-0.30670747
136	0x3f839a65	1.0281492
137	0x3db62dc0	0.08895445
138	0xbde819c7	-0.11333042
139	0x3edc7fbd	0.43066207
140	0xbe981ea3	-0.29710874
141	0xbee85b90	-0.45382357
142	0xbea02c0b	-0.31283602
143	0x3f33acd5	0.70185596
144	0xbf2660cf	-0.6499147
145	0xbec304ba	-0.38089544
146	0xbebb4697	-0.36577293
147	0xbe98f745	-0.29876152
148	0xbdbcd5a5	-0.09220437
149	0xbe6aa17b	-0.22913162
150	0xbeb425ed	-0.35185185
151	0xbf22bc30	-0.635684
152	0xbcd8762c	-0.026423536
153	0x3f4b9bc4	0.79534554
154	0xbe943f8c	-0.28954732
155	0xbe9a62f4	-0.3015362
156	0xbf97dd64	-1.1864438
157	0xbe791c22	-0.24327138
158	0xbec8b4a0	-0.39200306
159	0x3fb73ee5	1.4316069
160	0x3e2b9f0c	0.1675989
161	0x3db77823	0.08958461
162	0xbc9fac74	-0.019491412
163	0x3d31f480	0.043446064
164	0xbe7e9eed	-0.24865313
165	0xbe8922b8	-0.267843
166	0xbebf3dd6	-0.37351865
167	0xbe7b39d0	-0.24533772
168	0x3fd1a316	1.6377895
169	0x40409bc3	3.009507
170	0xbe7ce649	-0.24697222
171	0xbe8aa96e	-0.2708239
172	0x402a7503	2.6633918
173	0x3c37b2c0	0.011212051
174	0x3d11df98	0.035613626
175	0x3cda5ae0	0.02665466
176	0xbe99ccf3	-0.30039176
177	0xbea13eb4	-0.3149315
178	0x3d831176	0.06399815
179	0x3eecaf27	0.4622738
180	0xbf58769e	-0.84555995
181	0xbf05d921	-0.5228444
182	0xbf4ea699	-0.8072296
183	0xbe7b6759	-0.24551143
184	0xbea3972c	-0.31951272
185	0x3c850c84	0.01624132
186	0xbeaa72db	-0.33290753
187	0xbea04895	-0.31305376
188	0x3f80530d	1.0025345
189	0xbe8c3eab	-0.27391562
190	0x3da73f09	0.0816632
191	0xbea49a42	-0.3214894
192	0xbee24196	-0.44190663
193	0xbe600fab	-0.21880977
194	0x3f7d10fb	0.98854035
195	0x3d204cae	0.039135627
196	0x3fd00457	1.6251324
197	0xbeed7cb5	-0.46384206
198	0xbf00d27a	-0.5032116
199	0xbe8a98f2	-0.27069813
200	0xbe999a6c	-0.30000627
201	0x3f216de4	0.63058305
202	0x3e45b7ba	0.19308367
203	0xbebdac5c	-0.37045562
204	0xbe7c6d51	-0.24651076
205	0xbf5ed990	-0.87050724
206	0xbf04afb5	-0.5183061
207	0x3fa1c3ca	1.2637875
208	0xbe2d50fb	-0.16925423
209	0xbe9d5d3c	-0.30735195
210	0xbecd7554	-0.40128577
211	0xbef2696e	-0.4734606
212	0xbec15e45	-0.37767234
213	0xbe9bb918	-0.30414653
214	0xbe8a20ae	-0.26978058
215	0x3c89b144	0.01680816
216	0xbe50d78f	-0.20394729
217	0xbeb742bf	-0.3579311
218	0x3d3a309a	0.045456506
219	0xbd9359b7	-0.07194846
220	0xbe902175	-0.28150526
221	0x3e2f51c6	0.17121038
222	0xbeba5aff	-0.3639755
223	0xbe975c0c	-0.29562414
224	0xbe91632f	-0.28395984
225	0xbea2968a	-0.31755477
226	0xbea23e58	-0.3168819
227	0xbe989fc6	-0.29809397
228	0xbe506e22	-0.20354512
229	0xbe5de868	-0.21670687
230	0x3f4c2e5f	0.79758257
231	0xbe9fcb68	-0.31209874
232	0xbe59473f	-0.21218584
233	0xbeac111b	-0.336068
234	0xbe8a5e18	-0.27024913
235	0xbe7ccc59	-0.24687327
236	0xbebcbca5	-0.36862674
237	0xbe8c8dd8	-0.27451968
238	0x3fa00947	1.2502831
239	0x3d5338f9	0.051568005
240	0xbe859820	-0.26092625
241	0xbe8c604d	-0.27417222
242	0x3d6d0047	0.057861593
243	0xbe80f1f1	-0.25184587
244	0x3fd2824d	1.6446015
245	0x3f00baa4	0.5028479
246	0xbe85f4e9	-0.26163414
247	0x3d174621	0.036932115
248	0x3fb992d5	1.4497935
249	0x3e111261	0.14167167
250	0xbe85e38b	-0.26150164
251	0x3f197516	0.59944284
252	0x3f41187c	0.75427985
253	0xbea4d5fd	-0.3219451
254	0xbcf88f2f	-0.030341713
255	0xbe89ba32	-0.26899868

fcl3.bias f4 [4]
0	0x3d0b1c9d	0.033962835
1	0xbdcf01b5	-0.101077475
2	0xba733f8a	-0.00092791824
3	0xbcdbb928	-0.026821688
